model/experiments/PEMSD8/20211028084327/best_model.pth (torch, 601284 bytes, 10 tensors)

node_embeddings f4 [170, 2]
0.36737314 -0.546392 0.3057164 0.86696535 0.47942138 -0.61212313 0.38260064 -0.5017148
0.40867832 0.96088237 0.40572655 0.46284595 0.4942529 -0.5862853 0.11458092 0.50888354
0.14694804 0.3785223 0.4365755 -0.606529 0.735298 0.4869691 0.2218327 0.6118117
0.37104374 0.56235725 0.994526 0.16479845 0.56002045 0.5155336 0.54278255 0.47329816
0.10694904 -0.3672002 0.09917566 -0.5033737 0.12771663 -0.53338504 0.32187593 -0.643412
0.52717835 0.41327935 0.34689742 -0.3890053 0.36735258 0.80244076 0.48560888 -0.61594135
0.0064857034 0.39415285 0.22441609 0.62804174 0.17284547 0.73091745 0.47853592 -0.5955268
0.09985653 -0.504052 0.51284015 -0.4496696 0.07833009 0.67618245 0.48430878 -0.45096427
0.34170303 0.48822024 0.020583004 0.14008301 0.07709258 0.400107 0.3474331 -0.5541152
0.28258783 0.69729036 0.6188586 -0.44619736 0.49034148 -0.70883274 0.4066065 0.47530413
0.3798023 -0.38579988 0.22458352 0.81713885 0.34769863 0.603438 0.31418788 0.7739666
0.29161102 0.5918256 0.34526435 0.74735636 0.44677925 0.50354356 0.50794697 -0.48633808
0.13532788 -0.6703958 0.40813458 -0.22526842 0.30449647 0.50075126 0.047443613 -0.4454815
0.84277093 0.53399473 0.3066825 -0.5586813 0.24309999 0.49534318 0.40594268 0.5662858
0.2915288 -0.40425313 0.37579247 0.35317472 0.055678785 0.5211617 0.07245465 0.61771345
0.32067066 -0.45489138 0.13532493 -0.6703878 0.0018870615 -0.40184364 0.21048151 -0.62796676
0.49334344 0.5923865 0.024244068 0.70628065 0.5421407 0.12782735 0.46023837 -0.41479602
0.2136781 0.4247011 0.39015406 -0.43205535 0.070236914 -0.51744443 0.46221066 -0.37105745
0.5938351 0.21652272 0.07011336 -0.5174961 0.3039358 0.5009962 0.047993027 -0.44556764
0.66691417 -0.6104351 0.37456602 -0.41061804 1.0074 0.45963722 -0.027569061 0.45868883
0.13527799 -0.6704051 0.4059439 0.56628543 0.25950682 -0.38161886 0.069965355 -0.51752365
0.40585047 0.5660702 0.054052312 -0.4352309 0.5280213 0.36095086 0.34665525 0.07262328
0.33594218 -0.32861263 0.31426153 0.44901526 0.047807954 -0.44606927 0.30402622 0.5006645
-0.013649234 0.27878806 0.41129044 -0.6013883 0.3488581 0.35594723 0.29636785 -0.3798072
0.33295745 -0.33055434 0.25342056 -0.44035 0.20921952 -0.2881059 0.3138253 -0.3495668
0.35802314 -0.38052177 0.586139 0.50263953 -0.036277 -0.2973444 -0.03189953 -0.31621704
0.24056356 0.60819006 0.03837958 0.44533074 0.35079083 0.5597101 0.53800535 -0.42940333
0.00841267 0.22750847 0.0018867585 -0.40184295 -0.0066396934 -0.30818978 0.26552933 0.65941566
0.14419149 0.36766618 0.593472 -0.3277722 0.58877766 -0.21429972 0.30402556 0.5006653
0.23355693 0.42922094 0.36017975 0.46822187 -0.0015439271 0.6291865 0.22804247 0.53320116
0.19305992 0.49175406 0.48819816 0.61406463 0.13520513 -0.6705777 0.13534209 -0.6704122
0.42185664 0.56552184 0.48450398 0.60814816 0.10926222 -0.64112216 0.17669004 -0.6891684
00000000: 5518 bc3e 59e0 0bbf dc86 9c3e 71f1 5d3f
00000010: b876 f53e 1ab4 1cbf 3be4 c33e 6270 00bf
00000020: 493e d13e 63fc 753f 64bb cf3e 25fa ec3e
00000030: b70e fd3e cb16 16bf 67a9 ea3d 3146 023f
00000040: 8c79 163e adcd c13e d386 df3e 7c45 1bbf
00000050: 7d3c 3c3f 0454 f93e 1c28 633e b19f 1c3f
00000060: 72f9 bd3e a5f6 0f3f 4299 7e3f edc0 283e
00000070: 805d 0f3f 03fa 033f ccf3 0a3f 2354 f23e
00000080: 1908 db3d aa01 bcbe 9c1c cb3d 19dd 00bf
00000090: 26c8 023e ec8b 08bf eccc a43e a6b6 24bf
000000a0: 29f5 063f 5a99 d33e 8a9c b13e b42b c7be
000000b0: a315 bc3e c26c 4d3f baa1 f83e 55ae 1dbf
000000c0: 0686 d43b 67ce c93e 55cd 653e 58c7 203f
000000d0: 67fe 303e 681d 3b3f a902 f53e 7274 18bf
000000e0: 9581 cc3d 8d09 01bf 7e49 033f 183b e6be
000000f0: 876b a03d 4b1a 2d3f 52f7 f73e cae4 e6be
00000100: b3f3 ae3e 01f8 f93e b09d a83c ec71 0f3e
00000110: b7e2 9d3d d3da cc3e c0e2 b13e 7eda 0dbf
00000120: 5aaf 903e 9f81 323f 846d 1e3f fb73 e4be
00000130: 0a0e fb3e 1076 35bf ba2e d03e 105b f33e
00000140: 7275 c23e 9087 c5be 39f9 653e 0330 513f
00000150: 8e05 b23e ea7a 1a3f 3cdd a03e ad22 463f
00000160: 0a4e 953e e281 173f 7dc6 b03e bf52 3f3f
00000170: 40c0 e43e 3be8 003f d008 023f 4e01 f9be
00000180: 6493 0a3e 0f9f 2bbf 04f7 d03e c4ac 66be
00000190: f6e6 9b3e 3c31 003f 3c54 423d 2716 e4be
000001a0: d6bf 573f e1b3 083f 7d05 9d3e bd05 0fbf
000001b0: 34ef 783e 9f9d fd3e b8d7 cf3e 1bf8 103f
000001c0: 4343 953e 44fa cebe df67 c03e 51d3 b43e
000001d0: 700f 643d da6a 053f 1b63 943d 7822 1e3f
000001e0: f22e a43e 86e7 e8be 9e92 0a3e 899e 2bbf
000001f0: 4757 f73a 73be cdbe 7788 573e 6ec2 20bf
00000200: 8397 fc3e a4a6 173f 7f9b c63c cfce 343f
00000210: bcc9 0a3f 2ce5 023e 5da4 eb3e 2560 d4be
00000220: 6fce 5a3e 6c72 d93e 46c2 c73e 5c36 ddbe
00000230: 5fd8 8f3d 3d77 04bf e0a6 ec3e 3efb bdbe
00000240: 9405 183f 22b8 5d3e 9897 8f3d a07a 04bf
00000250: 799d 9b3e 4941 003f 5694 443d 7121 e4be
00000260: e3ba 2a3f 7a45 1cbf 1ec7 bf3e 873c d2be
00000270: 7cf2 803f 9255 eb3e 83d8 e1bc 43d9 ea3e
00000280: 5086 0a3e ab9f 2bbf e1d7 cf3e 15f8 103f
00000290: 14de 843e 8c63 c3be ff49 8f3d 6e7c 04bf
000002a0: a2cb cf3e fae9 103f f565 5d3d 96d6 debe
000002b0: 672c 073f 8dce b83e cc7c b13e 84bb 943d
000002c0: 9d00 ac3e ea3f a8be e3e6 a03e 54e5 e53e
000002d0: 46d2 433d 3163 e4be 53a9 9b3e 8c2b 003f
000002e0: 09a1 5fbc 4fbd 8e3e a994 d23e 95f4 19bf
000002f0: 879d b23e b73e b63e 87bd 973e 1776 c2be
00000300: 6679 aa3e 6b3e a9be 57c0 813e 8e75 e1be
00000310: a43d 563e 9e82 93be b6ad a03e 6bfa b2be
00000320: cf4e b73e c0d3 c2be 350d 163f fcac 003f
00000330: 3197 14bd 863d 98be 15a9 02bd 33e7 a1be
00000340: 4b56 763e 58b2 1b3f e833 1d3d 6402 e43e
00000350: db9a b33e 2949 0f3f b8ba 093f c1da dbbe
00000360: 4cd5 093c fbf7 683e 1c4d f73a 5cbe cdbe
00000370: c991 d9bb 0dcb 9dbe 76f3 873e 77cf 283f
00000380: efa6 133e be3e bc3e c8ed 173f c2d1 a7be
00000390: 22ba 163f 6371 5bbe 3da9 9b3e 9a2b 003f
000003a0: 8c29 6f3e d9c2 db3e 7b69 b83e c7ba ef3e
000003b0: 995d caba 5e12 213f f783 693e df7f 083f
000003c0: 80b1 453e 30c7 fb3e 1cf5 f93e 5733 1d3f
000003d0: 3773 0a3e fbaa 2bbf 1e97 0a3e 22a0 2bbf
000003e0: 98fd d73e 0ac6 103f e810 f83e 99af 1b3f
000003f0: dfc4 df3d 9520 24bf 3cee 343e 576d 30bf

encoder.dcrnn_cells.0.gate.weights_pool f4 [2, 2, 65, 128]
0.031064132 -0.30813232 -0.0358888 0.28277248 0.28468415 0.2959141 -0.63406974 0.27252972
0.5091081 -0.13602787 1.0432408 -0.7402613 0.76513344 0.4054674 0.031078786 0.29992795
0.20889574 -0.9219864 0.46412715 0.5843384 0.85177183 -0.71679 0.4576689 0.31301257
0.6077331 0.33202437 0.78984296 0.1369369 1.1686233 0.3480264 0.95079243 0.58400726
0.30161706 -0.4770955 1.1754788 -0.920221 0.028460018 1.5622644 -0.349191 -0.28971255
0.91951036 1.0694983 -0.31502283 0.41663682 -0.0018969441 0.16717094 -0.71014535 0.8116528
0.006194427 0.37734345 0.27153486 -0.5325475 0.33022308 0.38661414 0.07199561 0.8587887
0.54648185 0.021949338 0.29115468 0.040132623 -0.3848273 0.0811125 0.51131976 -0.46031177
0.09184026 0.6672934 -0.39001125 0.45302293 -0.07791988 0.28965595 -0.8387763 0.25828892
-0.66299546 -0.858628 -0.65292877 -0.9447785 -0.25058103 0.11516865 -0.56159735 0.23149472
0.6509196 -0.18144667 -0.81875986 -0.05463796 -0.5920756 -0.5632189 -0.35733038 0.0908571
-0.38616577 -0.6013094 -0.36013448 -0.31672558 -1.4522758 0.30996835 -0.23191488 -0.90649664
-0.7485284 0.43173862 -0.29832593 0.28163043 0.34946734 -1.1430624 0.34599528 -0.44643652
-0.90105623 0.17421426 -0.9879968 -0.80242 -0.12129955 -0.95203847 0.88550586 0.4498473
0.26744717 -0.9008365 -0.41966456 -0.5046466 -0.4189993 0.021160416 0.34831607 -1.061578
0.04460166 0.21946467 -0.41197428 -0.20348285 0.0488352 0.038539194 -0.966129 0.11851792
0.12933564 0.046530914 -0.15045707 -0.79399115 -0.06555476 -0.39279455 -0.53703725 -0.63824207
-0.37950063 0.5198739 -0.12956128 0.7975882 -0.59168017 -0.3607708 0.33232424 -0.48057443
0.13907099 0.38383055 0.055436663 -0.10015829 0.13491662 -0.5096828 -0.17179054 0.112498544
0.0815433 0.3595058 0.04148132 -0.634296 0.24952182 -0.35922074 -0.30458608 -0.14607178
0.28497982 -0.12097486 -0.048589867 -0.09842579 -0.23571828 0.29958677 -0.15418167 -0.13404515
0.024983365 -0.2665104 -0.1308063 0.08295984 -0.3716921 -0.2675789 -0.24644296 -0.14269607
-0.11130394 0.6554045 -0.14886224 -0.22676742 0.34020972 0.016762914 -0.31787738 0.14064966
-0.9159098 0.33763903 0.14672093 0.085814744 -0.25907424 -0.34503663 0.052004617 0.2738401
0.59512365 0.20752391 0.2624758 0.44786105 0.41642526 -0.36895937 -0.47492322 -0.15242837
-0.2756005 0.41188523 0.009754319 0.046441372 0.22895586 0.51441973 0.12335966 0.37177014
0.56848615 -0.75313604 -0.5315492 0.26173264 0.2504132 -0.19860749 -0.4741904 0.12897483
-1.0166869 -0.019035358 1.3334364 0.37740806 -0.2111262 0.268467 -0.0848734 0.38684478
-0.41885686 -0.15384832 -0.5988339 -0.01941932 -0.40654054 0.21676363 0.3074534 -0.5374023
0.11526433 -0.8560757 -0.0014994306 0.029641777 -0.2588819 0.68400043 1.057322 -0.28434908
0.50228775 -0.05296337 -0.44448376 -0.6652618 -0.4820703 0.61006993 -0.33741942 -0.09910844
0.25750276 -0.382832 0.7542583 0.8564899 0.10223375 0.89015776 0.35394853 0.09635977
00000000: 357a fe3c 85c3 9dbe 2200 13bd 8ec7 903e
00000010: 1fc2 913e 0e82 973e 6552 22bf 0489 8b3e
00000020: e954 023f e44a 0bbe ea88 853f c481 3dbf
00000030: c9df 433f 6c99 cf3e f098 fe3c 2890 993e
00000040: c4e8 553e 4d07 6cbf 13a2 ed3e 3497 153f
00000050: b80d 5a3f 8d7f 37bf 9453 ea3e 2f43 a03e
00000060: 6594 1b3f 19ff a93e 2633 4a3f 3039 0c3e
00000070: 7395 953f 8430 b23e 2267 733f 8081 153f
00000080: 8d6d 9a3e dd45 f4be 1776 963f 9a93 6bbf
00000090: fc24 e93c 48f8 c73f 2ac9 b2be 3455 94be
000000a0: 0865 6b3f 52e5 883f ac4a a1be 6c51 d53e
000000b0: e2a2 f8ba dc2e 2b3e 16cc 35bf 7ac8 4f3f
000000c0: 9ffa ca3b 2933 c13e 9e06 8b3e 0855 08bf
000000d0: 0013 a93e 4af2 c53e 6f72 933d 94d9 5b3f
000000e0: 3ce6 0b3f 19cf b33c 3a12 953e 1b62 243d
000000f0: 1508 c5be 4f1e a63d dae5 023f fcad ebbe
00000100: bf16 bc3d bed3 2a3f 8eaf c7be 9ff2 e73e
00000110: 7594 9fbd c94d 943e 0bba 56bf 723e 843e
00000120: 12ba 29bf 0bcf 5bbf 5726 27bf 01dd 71bf
00000130: 284c 80be 8bdd eb3d d8c4 0fbf f40c 6d3e
00000140: aba2 263f 28cd 39be 3f9a 51bf 0ecc 5fbd
00000150: 4492 17bf 1d2f 10bf 02f4 b6be 4a13 ba3d
00000160: 85b7 c5be 6aef 19bf 8c63 b8be db29 a2be
00000170: 2ce4 b9bf 2cb4 9e3e 187b 6dbe 2a10 68bf
00000180: 8f9f 3fbf d80c dd3e 2dbe 98be dd31 903e
00000190: 62ed b23e de4f 92bf 4b26 b13e 5493 e4be
000001a0: 9fab 66bf 3965 323e 5ced 7cbf 666b 4dbf
000001b0: e66b f8bd cbb8 73bf 83b0 623f 6352 e63e
000001c0: d6ee 883e 399d 66bf 46de d6be 8530 01bf
000001d0: 1487 d6be 9c58 ad3c 7c56 b23e cae1 87bf
000001e0: 3bb0 363d 59bb 603e 4bee d2be cf5d 50be
000001f0: 6b07 483d 46db 1d3d 3b54 77bf 86b9 f23d
00000200: 9070 043e 3397 3e3d 6b11 1abe 0143 4bbf
00000210: 9341 86bd 5e1c c9be 467b 09bf d563 23bf
00000220: e84d c2be 7516 053f b6ab 04be be2e 4c3f
00000230: 5a78 17bf f3b6 b8be 6726 aa3e da0d f6be
00000240: a068 0e3e 7085 c43e 8e11 633d ca1f cdbd
00000250: 9527 0a3e 927a 02bf dce9 2fbe a365 e63d
00000260: 2c00 a73d 2511 b83e 51e8 293d 3961 22bf
00000270: a682 7f3e c8eb b7be b5f2 9bbe d793 15be
00000280: e0e8 913e abc1 f7bd 2b06 47bd 7693 c9bd
00000290: 2260 71be 7063 993e cde1 1dbe 2243 09be
000002a0: eaa9 cc3c 0d74 88be 16f2 05be d9e6 a93d
000002b0: 6d4e bebe 1a00 89be 8b5b 7cbe eb1e 12be
000002c0: 52f3 e3bd 97c8 273f 586f 18be b835 68be
000002d0: f82f ae3e 6152 893c d3c0 a2be 7706 103e
000002e0: 1179 6abf 06df ac3e 033e 163e a4bf af3d
000002f0: 61a5 84be a4a8 b0be cb02 553d c534 8c3e
00000300: 065a 183f 2681 543e 3a63 863e 0b4e e53e
00000310: b135 d53e 3ee8 bcbe 2329 f3be 2f16 1cbe
00000320: 821b 8dbe 9fe2 d23e 94d0 1f3c 4f39 3e3d
00000330: 6873 6a3e 03b1 033f fda3 fc3d a858 be3e
00000340: 4f88 113f 86cd 40bf 9c13 08bf d201 863e
00000350: 2936 803e c35f 4bbe 16c9 f2be fa11 043e
00000360: cc22 82bf 0af0 9bbc 0bae aa3f a13b c13e
00000370: 7731 58be 8274 893e 1bd2 adbd 8510 c63e
00000380: 6874 d6be 6a8a 1dbe 2e4d 19bf 4415 9fbc
00000390: 1526 d0be 49f7 5d3e 886a 9d3e 3293 09bf
000003a0: b40f ec3d c727 5bbf 8b88 c4ba 50d3 f23c
000003b0: 2b8c 84be a71a 2f3f 5456 873f 3496 91be
000003c0: ee95 003f 1ef0 58bd 6093 e3be 994e 2abf
000003d0: ebd1 f6be 8b2d 1c3f 3dc2 acbe 5ef9 cabd
000003e0: 67d7 833e 8e02 c4be 1217 413f ec42 5b3f
000003f0: ee5f d13d 61e1 633f be38 b53e 4558 c53d

encoder.dcrnn_cells.0.gate.bias_pool f4 [2, 128]
-0.57874393 -0.5089158 0.23649524 -0.2847578 0.11537185 -0.089002855 -0.011826215 -0.46747154
-0.2896518 -0.64584446 -0.44466546 -0.3064037 -0.6375331 -0.30386975 -0.05677004 -0.34991848
-0.32364616 -0.48890135 -0.24487944 -0.70800817 -0.77196807 -0.28352088 0.12795791 -0.11039793
0.17962925 -0.6689786 -0.14375062 0.035939667 -0.03136153 -0.578969 -0.42831787 0.037136782
-0.39996323 -0.172274 -0.3256322 -0.11917825 -0.37374276 -0.5437546 -0.4313476 -0.14274774
-0.096730284 -0.17442723 -0.59850067 -0.21261255 -0.40771404 -0.105509445 -0.27587342 0.03485855
-0.30413434 -0.25009164 0.07076231 -0.21416454 -0.31359848 -0.6147478 -0.32654378 -0.41900995
-0.33235845 0.31029615 -0.21009265 -0.19379684 -0.14415394 -0.3718365 -0.03187803 -0.73714817
0.7949713 0.23605551 0.33159384 0.013709722 0.69009364 0.08949832 0.026445663 -0.100133575
1.1814601 0.17265926 0.9592269 0.4585385 0.27973157 1.3226544 0.5522218 0.4307264
0.29322773 0.3349155 0.462681 0.07753211 1.2493167 0.095562875 0.2655662 0.19840385
0.9991972 0.6055811 1.1378909 0.6527555 1.1782006 -0.07987398 1.0979029 1.249019
1.4570342 -0.086580634 0.62236106 -0.28697547 -0.23561351 0.9114516 0.8785139 0.22764887
0.36870885 0.5623764 0.2838795 0.5277614 0.86521673 -0.17226136 0.10269684 0.6999281
0.8716949 0.38767147 0.045121405 0.23575267 0.75867194 0.65212345 0.18819089 0.759526
0.15310457 -0.16324438 1.1146848 1.2796332 0.9423669 0.58773804 1.2319597 0.70798427
0.079836726 0.33486345 -0.33730486 0.27285647 0.104761876 0.10333875 0.15078115 0.2157427
0.534834 0.19168995 -0.702479 -0.023332017 0.22827056 0.29622018 0.40628338 -0.16268209
0.09085644 -0.22565387 0.0028367005 -0.2663572 -0.83024263 0.24354757 0.35708377 0.021282287
0.29292756 0.09381628 -0.42218614 -0.071371466 -0.2477957 -0.03403612 0.004587973 0.37135255
0.32084978 -0.10805187 -0.38517088 0.14338809 0.0025381807 -0.22300823 -0.2584439 -0.16456968
0.019259179 -0.23735137 -0.087307096 -0.48349273 -0.15575509 0.18730958 -0.3669288 -0.20084718
-0.007406257 0.29984772 -0.30044928 -0.014659473 0.32287374 -0.0058526327 0.07994141 -0.24181888
-0.08462383 -0.3432881 -0.45127696 0.1156805 -0.16329306 -0.064171 0.12567064 0.4612434
0.2858331 -0.4394157 0.01390479 -0.1699388 -0.46607667 0.7418121 0.021015322 0.6924097
-0.15681846 -0.24415185 -0.0129015865 -0.30571723 -0.40365118 0.72798073 -0.061512306 0.01639886
0.015604737 0.18787679 0.27493912 0.11498252 0.19344838 0.2851423 -0.11346067 0.46984562
-0.6815362 -0.4074444 -0.76636744 -0.34554043 1.0428691 1.0652597 -0.010004563 -0.5075657
-0.29905406 0.76805943 0.681406 0.03524368 0.76088524 0.1346128 -0.9834304 -0.25905648
-0.31720304 0.3630242 -0.3656232 0.865327 -1.1291115 -0.23941222 0.011111349 0.31792945
0.2826827 -0.258411 0.84115297 -0.38044885 0.16514614 0.37225407 0.7937474 0.0392122
0.004378423 0.6836777 0.51613516 -0.33055347 -0.96815413 -0.7679011 -0.18290794 0.11286655
00000000: 9028 14bf 4e48 02bf cf2b 723e c6cb 91be
00000010: 1448 ec3d 2147 b6bd bec2 41bc 6e58 efbe
00000020: 3e4d 94be 1056 25bf 31ab e3be f2e0 9cbe
00000030: 5f35 23bf d194 9bbe b487 68bd 8428 b3be
00000040: f3b4 a5be 4751 fabe adc1 7abe 0640 35bf
00000050: b39f 45bf a629 91be 6607 033e 4f18 e2bd
00000060: bbf0 373e 2e42 2bbf 5d33 13be 7935 133d
00000070: f374 00bd 5037 14bf 7b4c dbbe bd1c 183d
00000080: fbc7 ccbe 9868 30be 44b9 a6be ba13 f4bd
00000090: 365b bfbe 8033 0bbf 98d9 dcbe 772c 12be
000000a0: 871a c6bd 0d9d 32be 5737 19bf 1bb7 59be
000000b0: e5bf d0be 5615 d8bd 483f 8dbe d7c7 0e3d
000000c0: 7fb7 9bbe 030c 80be d4eb 903d f34d 5bbe
000000d0: fb8f a0be 1d60 1dbf bf30 a7be 7988 d6be
000000e0: e32a aabe 23df 9e3e 8722 57be ae72 46be
000000f0: 179d 13be 5b61 bebe 8a92 02bd beb5 3cbf
00000100: 3d83 4b3f 89b8 713e abc6 a93e be9e 603c
00000110: faa9 303f e54a b73d 93a4 d83c d512 cdbd
00000120: 163a 973f 97cd 303e e58f 753f 8fc5 ea3e
00000130: fa38 8f3e bd4c a93f 685e 0d3f 2c88 dc3e
00000140: f221 963e 0b7a ab3e 86e4 ec3e 28c9 9e3d
00000150: 9ce9 9f3f 78b6 c33d 4bf8 873e 612a 4b3e
00000160: 63cb 7f3f 5d07 1b3f 69a6 913f fc1a 273f
00000170: 47cf 963f f894 a3bd 1588 8c3f dbdf 9f3f
00000180: 1980 ba3f 3051 b1bd 0e53 1f3f 73ee 92be
00000190: ab44 71be e454 693f 49e6 603f c91c 693e
000001a0: 68c7 bc3e e6f7 0f3f a758 913e 5f1b 073f
000001b0: d87e 5d3f 4865 30be b952 d23d 7d2e 333f
000001c0: 6627 5f3f e07c c63e 39d1 383d 2669 713e
000001d0: 5338 423f 90f1 263f 1db5 403e 4c70 423f
000001e0: 72c7 1c3e 8929 27be fead 8e3f 05cb a33f
000001f0: f53e 713f 0076 163f dbb0 9d3f 753e 353f
00000200: 7081 a33d 3973 ab3e 39b3 acbe d8b3 8b3e
00000210: 658d d63d 44a3 d33d 6066 1a3e a8eb 5c3e
00000220: e2ea 083f 5f4a 443e aad5 33bf c922 bfbc
00000230: c2bf 693e 2caa 973e 6004 d03e 2296 26be
00000240: f112 ba3d cf11 67be f0e7 393b f95f 88be
00000250: c88a 54bf 8964 793e afd3 b63e 3158 ae3c
00000260: 9afa 953e c022 c03d c828 d8be 342b 92bd
00000270: 28be 7dbe 7569 0bbd b556 963b ec21 be3e
00000280: 6c46 a43e 4c4a ddbd 1e35 c5be 54d4 123e
00000290: 9b57 263b 455c 64be c252 84be f484 28be
000002a0: 6dc5 9d3c 3d0c 73be 10ce b2bd 5c8c f7be
000002b0: 437e 1fbe 15ce 3f3e 17de bbbe e2aa 4dbe
000002c0: 30b0 f2bb a485 993e 7dd4 99be 492e 70bc
000002d0: b54f a53e 71c7 bfbb 52b8 a33d 5e9f 77be
000002e0: 424f adbd 75c3 afbe c60d e7be e6e9 ec3d
000002f0: 4c36 27be 166c 83bd ceaf 003e 1828 ec3e
00000300: b758 923e 18fb e0be ebd0 633c 7004 2ebe
00000310: 9aa1 eebe 66e7 3d3f 5328 ac3c c341 313f
00000320: 0595 20be f102 7abe 2d61 53bc f886 9cbe
00000330: 5eab cebe f25c 3a3f 54f4 7bbd e756 863c
00000340: 03ab 7f3c c662 403e d2c4 8c3e f57b eb3d
00000350: 5517 463e 2cfe 913e 115e e8bd 9b8f f03e
00000360: 2879 2ebf 8d9c d0be a830 44bf adea b0be
00000370: bc7c 853f 6e5a 883f 2eea 23bc d3ef 01bf
00000380: 9d1d 99be 8b9f 443f a070 2e3f ad5b 103d
00000390: 60c9 423f f0d7 093e 18c2 7bbf 0da3 84be
000003a0: 7068 a2be 4fde b93e f732 bbbe 1286 5d3f
000003b0: ba86 90bf 7a28 75be 600c 363c a6c7 a23e
000003c0: c9bb 903e 724e 84be cd55 573f 31ca c2be
000003d0: 121c 293e 1698 be3e 0833 4b3f f99c 203d
000003e0: e078 8f3b 8005 2f3f 6f21 043f 4e3e a9be
000003f0: f3d8 77bf 2b95 44bf 384c 3bbe 9426 e73d

encoder.dcrnn_cells.0.update.weights_pool f4 [2, 2, 65, 64]
0.12067312 -0.2295864 -0.21149093 -0.4930142 0.048516594 -0.90673184 -0.2905075 0.15878685
0.3657247 -0.17351456 0.22847266 0.42444474 -0.25515917 0.04929847 0.10157646 0.41667417
0.2189113 -0.49668145 -0.36957914 0.15449575 -0.12986605 0.29648998 0.10862701 -0.32246903
-0.19067827 -0.027421005 0.27833015 0.31235418 -0.068544656 -0.24205598 0.17310987 -0.33043167
-0.46148923 -0.4053721 -0.2677482 0.6793747 0.26180005 0.14141726 -0.41820514 0.07652864
-0.4530732 -0.23658335 -0.373698 -0.23184693 0.5209404 -0.19288732 -0.55194134 0.18132396
0.11495736 -0.040423367 0.7541797 0.33000007 -0.4841323 0.43128297 -0.36940467 -0.09561971
0.18904443 0.3253836 -0.3289913 0.32830057 0.4206143 -0.45557448 -0.2978046 0.26477814
0.91978735 0.32645175 -0.13872012 -0.49601048 -0.13754477 -0.3530621 0.09084813 -0.26215085
0.4968274 -0.20549189 -0.34961668 -0.03945735 -0.45806527 -0.13423575 -0.022705432 0.030940622
0.31145227 -0.44898885 0.0012060005 0.28357458 0.019361967 0.09818892 0.30089542 0.18404232
0.04575146 -0.024139658 -0.17020515 0.3465023 -0.01029924 -0.27382496 0.5332559 -0.09558602
-0.22628957 -0.028167184 -0.19735327 -0.0031182077 0.1951946 -0.04689117 3.6839927e-05 0.2928606
0.12921688 -0.03931714 -0.1088858 -0.09608065 0.0897187 0.08138204 -0.266156 0.17107438
-0.22297409 0.3241377 0.26540905 -0.19538537 0.12710121 0.2828672 -0.08404852 0.21676143
-0.18249738 0.1675774 0.42551854 -0.025565498 0.14007431 -0.036100335 -0.08306981 0.16518249
0.47315225 -0.05720947 0.11862253 -0.87661123 0.14983967 -0.33110574 0.12590669 -0.27519807
0.20002712 0.18567307 -0.09190549 -0.10223044 -0.051123187 -0.042666957 -0.023409402 -0.29933304
0.4589697 0.15643968 0.13996921 0.3463237 0.014914522 -0.2164761 -0.21553788 -0.095167324
0.1724783 -0.061921276 -0.17505756 0.20333892 0.024233913 -0.4941212 -0.25604886 0.079584405
0.113354936 -0.18323442 0.19399938 0.48942488 0.52291894 -0.0921018 0.29989535 0.19891812
0.33108172 0.0031054919 0.39101124 0.037272666 -0.34477898 0.15187839 0.024907881 -0.0858582
0.69070995 0.3578428 0.13411765 0.1427777 0.043547787 0.4244271 -0.53882927 0.30774528
0.14801985 0.46118355 0.3363455 0.32091156 -0.017646583 0.0014079767 0.18555613 0.12742129
0.149636 0.41690284 0.0122984275 0.22414815 0.009023144 -0.14019245 -0.038712967 0.03455671
-0.14762709 0.3513384 -0.10188455 0.124614514 -0.089074165 0.3009842 0.16335715 -0.040146016
0.0052507967 -0.25300467 -0.2550369 -0.03382869 0.01213282 0.14264292 -0.25889435 -0.260198
-0.181395 -0.06454051 0.15907314 -0.16878808 -0.13791203 -0.19282807 0.34412122 -0.17633085
-0.040275443 -0.08745919 0.23371813 0.029577313 0.030858476 0.05888823 0.040418975 -0.7144167
-0.10777978 0.019417368 -0.33114237 0.041360945 -0.18823989 0.00523076 0.21479075 -0.4181261
0.12516242 -0.26349345 0.010794696 0.33026358 -0.32365626 0.23013286 -0.029469714 -0.28436193
-0.10786935 0.26404807 -0.062086426 0.035129502 -0.25187814 0.1099775 -0.120205306 -0.43261665
00000000: 7823 f73d b218 6bbe 1491 58be 5b6c fcbe
00000010: 56b9 463d 941f 68bf 66bd 94be 0599 223e
00000020: 4540 bb3e cdad 31be bdf4 693e d250 d93e
00000030: 39a4 82be 31ed 493d 5207 d03d 5156 d53e
00000040: 492a 603e 084d febe 7a39 bdbe 2234 1e3e
00000050: 9bfb 04be 89cd 973e d677 de3d a91a a5be
00000060: 2a41 43be 04a2 e0bc 4a81 8e3e e3ec 9f3e
00000070: 2461 8cbd 86dd 77be b743 313e 572e a9be
00000080: 5148 ecbe ef8c cfbe 4b16 89be 80eb 2d3f
00000090: a80a 863e b0cf 103e fc1e d6be 0cbb 9c3d
000000a0: 36f9 e7be e842 72be 5855 bfbe 4869 6dbe
000000b0: 5a5c 053f 4184 45be 074c 0dbf fdac 393e
000000c0: c46e eb3d f992 25bd ec11 413f c5f5 a83e
000000d0: 30e0 f7be 1fd1 dc3e 9c22 bdbe 44d4 c3bd
000000e0: dd94 413e ae98 a63e 8c71 a8be 0317 a83e
000000f0: c25a d73e 0f41 e9be d879 98be 0091 873e
00000100: 2f77 6b3f af24 a73e a60c 0ebe 16f5 fdbe
00000110: 89d8 0cbe 8ec4 b4be 960e ba3d a338 86be
00000120: 2960 fe3e 776c 52be f500 b3be 089e 21bd
00000130: 8887 eabe 1975 09be be00 babc 3077 fd3c
00000140: ac76 9f3e dee1 e5be a912 9e3a b030 913e
00000150: fd9c 9e3c 4617 c93d f70e 9a3e 9775 3c3e
00000160: e265 3b3d 88c0 c5bc 424a 2ebe c068 b13e
00000170: 25be 28bc c932 8cbe 7583 083f 9ac2 c3bd
00000180: 74b8 67be debe e6bc fa16 4abe d85a 4cbb
00000190: 18e1 473e f510 40bd 9284 1a38 d3f1 953e
000001a0: 6e51 043e 020b 21bd 85ff debd efc5 c4bd
000001b0: 70be b73d a1ab a63d 9945 88be 1f2e 2f3e
000001c0: 5253 64be 60f5 a53e b2e3 873e 1a13 48be
000001d0: d226 023e f8d3 903e a121 acbd b5f6 5d3e
000001e0: 98e0 3abe 6999 2b3e 91dd d93e bc6e d1bc
000001f0: a46f 0f3e f2dd 13bd 8120 aabd 9925 293e
00000200: 0341 f23e 7a54 6abd 5ef0 f23d 9869 60bf
00000210: 926f 193e b186 a9be afed 003e c3e6 8cbe
00000220: e9d3 4c3e 1521 3e3e f238 bcbd 315e d1bd
00000230: 8c66 51bd 8cc3 2ebd 13c5 bfbc 2e42 99be
00000240: 14fe ea3e b931 203e 1754 0f3e 5751 b13e
00000250: 0a5c 743c e9ab 5dbe f6b5 5cbe 16e7 c2bd
00000260: 279e 303e 2aa1 7dbd 4a42 33be 1438 503e
00000270: 3386 c63c 74fd fcbe d618 83be 26fd a23d
00000280: a226 e83d cea1 3bbe c6a7 463e e695 fa3e
00000290: 04de 053f de9f bcbd e28b 993e 31b1 4b3e
000002a0: 8b83 a93e 8285 4b3b a032 c83e 39ab 183d
000002b0: df86 b0be 0286 1b3e 9d0b cc3c 6dd6 afbd
000002c0: 5ed2 303f 2c37 b73e 2356 093e 5134 123e
000002d0: 2a5f 323d 824e d93e b7f0 09bf ca90 9d3e
000002e0: 8492 173e 4020 ec3e 7a35 ac3e 854e a43e
000002f0: 918f 90bc dc8b b83a 6d02 3e3e ba7a 023e
00000300: 2e3a 193e 4a74 d53e 587f 493c 1887 653e
00000310: cfd5 133c 9c8e 0fbe 7d91 1ebd 568b 0d3d
00000320: 8e2b 17be a0e2 b33e d9a8 d0bd e535 ff3d
00000330: 846c b6bd 9a1a 9a3e 1947 273e 2670 24bd
00000340: e00e ac3b d489 81be 3294 82be f48f 0abd
00000350: bcc8 463c fc10 123e cd8d 84be ac38 85be
00000360: 9cbf 39be d12d 84bd 12e4 223e c8d6 2cbe
00000370: d038 0dbe b974 45be a830 b03e 1390 34be
00000380: ddf7 24bd ce1d b3bd ce53 6f3e 1f4c f23c
00000390: eaca fc3c c934 713d 5e8e 253d 03e4 36bf
000003a0: a5bb dcbd 2c11 9f3c 7e8b a9be 186a 293d
000003b0: f5c1 40be cc66 ab3b 1bf2 5b3e a014 d6be
000003c0: 942a 003e 9de8 86be 3ddc 303c 4f18 a93e
000003d0: 46b6 a5be f3a7 6b3e 786a f1bc e397 91be
000003e0: 9bea dcbd 4f31 873e 564e 7ebd f4e3 0f3d
000003f0: 2cf6 80be e23b e13d 332e f6bd ee7f ddbe

encoder.dcrnn_cells.0.update.bias_pool f4 [2, 64]
-0.247239 -0.08818436 -0.2647094 -0.45744562 0.2690834 0.2833642 0.10648926 -0.09836346
0.37644082 -0.18621619 0.12758918 0.02147732 -0.12172143 0.034775894 0.10662914 0.23966058
0.2770952 -0.16640255 -0.3099314 0.1370385 -0.09766986 -0.013119998 0.22946261 -0.009033027
-0.4504994 -0.08343155 0.15626669 0.2508394 -0.23298502 -0.05759784 0.05157161 -0.44104734
-0.44097418 -0.08221935 -0.33292088 0.39242423 0.09883137 -0.22002071 -0.027591849 -0.25477266
-0.4667778 -0.32341528 -0.28470746 -0.28403094 0.09827282 0.11606466 0.018223269 0.45030499
0.24155992 0.2008061 -0.33799723 0.15476957 -0.38110283 0.16011298 -0.11250068 -0.08428656
0.16578333 0.2629653 -0.1295606 0.10990483 0.31978428 -0.037259363 -0.37871456 0.21454032
-0.1312278 -0.22958308 0.15443996 -0.2331862 0.4290869 0.4096546 0.24763942 0.14474925
-0.26803446 0.32625368 0.4410592 -0.29900345 -0.30193248 -0.072709605 -0.40259624 -0.35479894
0.13292472 0.3043207 0.46571523 0.11748359 -0.41416058 -0.26540676 0.28494358 -0.21833679
-0.6699827 -0.09530698 0.4127662 0.008579312 -0.46978286 0.13841249 0.20568891 0.26783496
0.3866863 0.05840012 -0.3890827 0.21199535 -0.04453497 -0.49188492 0.0018645774 -0.3730177
0.43740234 -0.33500588 0.3106325 -0.4697411 -0.20129342 -0.26463476 0.06833057 0.5281167
0.18302071 -0.24820551 -0.35248184 -0.21543069 0.3344058 0.13614455 0.053716954 -0.50495976
0.21646684 0.25438005 -0.43737534 0.39042047 -0.0758658 0.27124727 -0.5038393 0.24000317
00000000: 382c 7dbe 009a b4bd fe87 87be 5036 eabe
00000010: 4dc5 893e 1d15 913e 0b17 da3d c872 c9bd
00000020: dabc c03e 75af 3ebe bda6 023e 34f1 af3c
00000030: 1649 f9bd 2b71 0e3d 6160 da3d 9569 753e
00000040: 6cdf 8d3e 6e65 2abe 54af 9ebe d253 0c3e
00000050: 2307 c8bd 43f5 56bc 3ff8 6a3e 43ff 13bc
00000060: dba7 e6be 29de aabd 6004 203e 066e 803e
00000070: a093 6ebe b6eb 6bbd c13c 533d f5d0 e1be
00000080: 5ec7 e1be 9e62 a8bd 9b74 aabe d4eb c83e
00000090: 1a68 ca3d 1c4d 61be 4d08 e2bc 9071 82be
000000a0: 80fd eebe b096 a5be 2dc5 91be 816c 91be
000000b0: 4343 c93d 4fb3 ed3d f748 953c 608e e63e
000000c0: 7c5b 773e 1da0 4d3e f90d adbe ea7b 1e3e
000000d0: e91f c3be a8f4 233e c266 e6bd 6f9e acbd
000000e0: 1bc3 293e 63a3 863e 89ab 04be c915 e13d
000000f0: c4ba a33e 469d 18bd e0e6 c1be 75b0 5b3e
00000100: 9560 06be d417 6bbe 8225 1e3e 5dc8 6ebe
00000110: 47b1 db3e 3fbe d13e 3095 7d3e 2639 143e
00000120: d03b 89be b90a a73e 83d2 e13e fb16 99be
00000130: e596 9abe c6e8 94bd 1821 cebe 35a8 b5be
00000140: 6b1d 083e eccf 9b3e 3a72 ee3e 3d9b f03d
00000150: db0c d4be 65e3 87be 20e4 913e ae93 5fbe
00000160: fc83 2bbf 4e30 c3bd 1756 d33e 3e90 0c3c
00000170: 6187 f0be 01bc 0d3e 1da0 523e aa21 893e
00000180: bffb c53e f734 6f3d d935 c7be 4f15 593e
00000190: 4d6a 36bd 57d8 fbbe d664 f43a 2dfc bebe
000001a0: 33f3 df3e e485 abbe 390b 9f3e e881 f0be
000001b0: dd1f 4ebe 357e 87be e6f0 8b3d a832 073f
000001c0: c869 3b3e 9629 7ebe 8078 b4be dd99 5cbe
000001d0: 3d37 ab3e 7a69 0b3e 4f06 5c3d 0b45 01bf
000001e0: 7ca9 5d3e 1a3e 823e a9ef dfbe 31e5 c73e
000001f0: 875f 9bbd ece0 8a3e 9dfb 00bf 64c3 753e

encoder.dcrnn_cells.1.gate.weights_pool f4 [2, 2, 128, 128]
-0.19880845 1.2557806 1.0460209 0.43117812 0.1266334 0.039834432 1.3054036 0.64492154
-0.41824108 0.46778807 0.2131837 0.6389052 0.38084155 0.39962992 -0.7535949 0.34470093
-0.6597632 0.7512417 -0.15809256 0.55632764 -1.1057483 -0.18957871 -0.27981132 0.344166
0.81973374 -1.100789 1.0082486 0.55098313 0.25346988 -0.5585887 0.22611237 -0.14703584
0.49516803 0.3928157 0.5040937 0.111795716 1.1240613 -0.83657855 -0.3180657 -0.23578988
0.024485512 0.51125085 -0.97970617 1.181647 0.25071406 1.4411259 0.24085535 -0.43629503
-0.49072465 -0.15421614 0.40582857 -1.9638336 0.9136362 -0.18075679 0.12518126 -1.1679828
-0.08038154 1.1151992 -0.37503245 -0.3088022 -1.4027629 -0.53955287 -0.56936264 0.67758423
-0.19144627 -0.5717382 0.5785747 0.34002343 -0.7175041 0.049571455 0.3778197 0.022304285
-0.40916008 -0.58761305 0.43665597 0.7265527 -0.47892022 0.6175674 0.52366614 0.6899577
0.544706 0.2658306 0.35851017 -0.756328 1.6010805 -0.6224711 -0.2713886 -0.003608599
0.42747805 -0.2166557 -0.096806 1.2640512 0.18310563 -0.031713806 -0.24252585 0.5713714
0.49917224 0.037766688 0.43246296 0.41061282 0.044435166 0.6935926 0.35586134 0.46096134
1.7055782 -0.057432078 -1.5148151 0.081658535 -0.3555389 0.9392679 -0.13405636 0.41852313
0.0057527255 -0.08494237 -0.23321109 -0.28316474 0.38305998 0.3676166 0.27444926 -0.5897099
0.24461535 0.17821693 0.18612042 1.3686367 0.83339185 -0.009802436 -0.3861654 1.0875047
0.37657627 0.7134553 0.71706706 -0.8329056 0.38317445 2.1048193 2.3856976 0.2119583
-0.023768706 -0.7375135 -0.294429 0.36258626 0.07938721 -0.9954206 -0.39754817 1.2024786
-0.42448065 0.1784899 -0.21284826 -0.22700097 -1.0958501 -0.04963145 0.48628145 0.6951291
-1.0666077 -0.26030543 1.2584863 -0.6486187 -0.9451649 -0.78399104 0.36263445 1.6970718
0.561307 0.038104396 0.47776428 -0.25987104 0.30325994 0.053068183 0.56385267 -0.12486968
-0.61601526 0.5112211 0.13852394 0.88248634 0.48150712 2.8970184 0.6170146 0.4855456
-0.05166987 -0.14312626 -0.19359757 -2.5011983 -0.09905326 0.21542078 0.40939295 -0.5519399
-0.43431678 0.7079294 -0.06820053 -0.31131032 -0.4050495 0.22053736 0.62828296 0.36021268
-0.3162593 -0.5057448 0.19909799 -0.19282882 -0.79055756 -0.26412842 -0.07781005 -0.21456847
-0.6900545 -0.63161355 -0.15875386 1.1644758 -0.23990877 0.19225964 -1.0542226 1.2457274
0.25465328 -0.3977926 -0.5716399 -0.006473261 0.9330136 -0.09855851 -0.16937149 0.6236608
0.32410124 -0.66583407 -0.42028978 0.6089932 -0.24055666 -0.27329955 -0.4076208 0.5069726
0.28776944 -0.19088806 0.6387602 -0.4713954 0.6692008 0.9952587 -0.18236955 -0.258698
1.0451673 -0.31912345 -0.62626106 0.22987777 0.7532733 0.991082 -0.29659227 0.24424124
0.06682322 -0.29666242 0.062116537 -0.26162454 -0.5974037 1.7600536 0.9361623 -0.72595155
-0.5051625 0.3536209 -0.47497842 -0.0058596986 -0.94212145 0.23213588 -0.34404263 -0.025785722
00000000: 7194 4bbe 6bbd a03f 03e4 853f 61c3 dc3e
00000010: 30ac 013e 6e29 233d 7717 a73f 9419 253f
00000020: b223 d6be eb81 ef3e d44c 5a3e 4b8f 233f
00000030: aafd c23e 4b9c cc3e 98eb 40bf a47c b03e
00000040: 3ee6 28bf 6051 403f 04e3 21be 7d6b 0e3f
00000050: 2989 8dbf ec20 42be 6e43 8fbe 8736 b03e
00000060: 12da 513f a7e6 8cbf 4a0e 813f 3b0d 0d3f
00000070: cec6 813e abff 0ebf 008a 673e 9090 16be
00000080: aa86 fd3e 241f c93e 490c 013f 27f5 e43d
00000090: 3ee1 8f3f 032a 56bf 82d9 a2be e772 71be
000000a0: d795 c83c 56e1 023f 06ce 7abf 3540 973f
000000b0: 985d 803e d076 b83f c9a2 763e 1062 dfbe
000000c0: 4340 fbbe d6ea 1dbe c3c8 cf3e e65e fbbf
000000d0: 10e4 693f 4f18 39be 842f 003e 7680 95bf
000000e0: 149f a4bd d9be 8e3f 4104 c0be 521b 9ebe
000000f0: bc8d b3bf 2320 0abf c0c1 11bf 2976 2d3f
00000100: 7e0a 44be 6f5d 12bf 791d 143f 8d17 ae3e
00000110: 59ae 37bf 700b 4b3d 9571 c13e 7ab7 b63c
00000120: 6e7d d1be cf6d 16bf 5f91 df3e 5cff 393f
00000130: 0835 f5be e618 1e3f fc0e 063f 11a1 303f
00000140: da71 0b3f f31a 883e a58e b73e b69e 41bf
00000150: 35f0 cc3f 445a 1fbf 72f3 8abe 3f7e 6cbb
00000160: 67de da3e feda 5dbe 3942 c6bd 6ecc a13f
00000170: 0b80 3b3e 56e6 01bd b258 78be 6545 123f
00000180: 8193 ff3e 3eb1 1a3d c96b dd3e d83b d23e
00000190: a601 363d 498f 313f 7533 b63e 2003 ec3e
000001a0: 6350 da3f e63d 6bbd 76e5 c1bf 973c a73d
000001b0: 3209 b6be dc73 703f 1246 09be aa48 d63e
000001c0: 5c81 bc3b 44f6 adbd e3ce 6ebe f8fa 90be
000001d0: 7020 c43e 3e38 bc3e 9d84 8c3e 3af7 16bf
000001e0: 727c 7a3e 807e 363e 5a96 3e3e 7d2f af3f
000001f0: 2b59 553f 669a 20bc 79b7 c5be 5b33 8b3f
00000200: 9bce c03e 02a5 363f b591 373f 4d39 55bf
00000210: 712f c43e 5cb5 0640 45af 1840 990b 593e
00000220: 97b6 c2bc afcd 3cbf 66bf 96be e8a4 b93e
00000230: c395 a23d e2d3 7ebf 6f8b cbbe d2ea 993f
00000240: 8755 d9be 0ec6 363e e5f4 59be f172 68be
00000250: d144 8cbf 594a 4bbd e2f9 f83e fbf3 313f
00000260: 9a86 88bf c146 85be 1416 a13f e00b 26bf
00000270: 54f6 71bf a3b3 48bf 39ab b93e a639 d93f
00000280: d1b1 0f3f 5b13 1c3d 859d f43e d10d 85be
00000290: e344 9b3e 065e 593d a658 103f adbb ffbd
000002a0: 2db3 1dbf 63df 023f 38d9 0d3e a0ea 613f
000002b0: 1a88 f63e c068 3940 abf4 1d3f 6f99 f83e
000002c0: c9a3 53bd b18f 12be 713e 46be a213 20c0
000002d0: 70dc cabd 4497 5c3e f49b d13e ef4b 0dbf
000002e0: c55e debe dc3a 353f b8ac 8bbd 1164 9fbe
000002f0: a662 cfbe 8cd4 613e 27d7 203f cc6d b83e
00000300: bdec a1be 7e78 01bf 58e0 4b3e eb74 45be
00000310: fb61 4abf d73b 87be e05a 9fbd d6b7 5bbe
00000320: 69a7 30bf 6db1 21bf 5f90 22be 8b0d 953f
00000330: a5aa 75be b6df 443e c4f0 86bf ff73 9f3f
00000340: ea61 823e 79ab cbbe fe56 12bf a61d d4bb
00000350: fbd9 6e3f 0bd9 c9bd b86f 2dbe 3ca8 1f3f
00000360: 99f0 a53e 1a74 2abf 3930 d7be fae6 1b3f
00000370: 7c54 76be ebed 8bbe acb3 d0be f5c8 013f
00000380: 8456 933e 2978 43be ca85 233f bd5a f1be
00000390: be50 2b3f 46c9 7e3f 15bf 3abe 1074 84be
000003a0: 0bc8 853f 2664 a3be a552 20bf 1465 6b3e
000003b0: 85d6 403f 8db7 7d3f f1da 97be 601a 7a3e
000003c0: 9dda 883d 23e4 97be e96d 7e3d a7f3 85be
000003d0: 73ef 18bf 7049 e13f 55a8 6f3f f6d7 39bf
000003e0: 5452 01bf cc0d b53e 5f30 f3be b702 c0bb
000003f0: df2e 71bf 07b5 6d3e 5b26 b0be 943c d3bc

encoder.dcrnn_cells.1.gate.bias_pool f4 [2, 128]
0.3688068 0.020238549 0.22800085 0.2949303 0.3295745 0.3358735 0.2050745 0.19011281
-0.040900547 0.111751825 0.28827286 0.10402146 -0.19340527 0.16078135 0.04750644 -0.25155747
0.26975372 0.27570015 0.3263724 0.08664955 -0.2343179 -0.09039483 0.072360605 0.36957216
0.042002358 0.35797027 0.048176773 -0.0306248 0.032230087 0.21439481 0.12350843 -0.03024157
0.10255505 -0.1360284 -0.053931415 0.1894598 0.23392904 -0.112643264 0.2609894 0.1306353
0.23482743 -0.034988794 0.1698881 0.10017947 0.33335784 0.042507783 0.23227665 0.12492715
0.2921364 0.073421575 0.31273296 0.33987662 0.03815 0.03192247 0.32749167 -0.1588142
0.25340402 0.04553124 -0.03656969 0.061337825 -0.008834034 -0.12648521 0.20605274 0.3304231
0.07015037 -0.63719004 -0.3152795 0.36269754 -0.011888822 -0.097989574 -0.29861763 -0.016123824
-0.35134262 0.0018448533 -0.07283191 0.024898103 -0.3516053 -0.060178913 -0.49524513 0.013276149
-0.4672525 -0.29251564 -0.093449794 -0.39511976 -0.5046657 -0.23615438 -0.19796076 0.16558337
0.40165973 -0.55351573 0.69135976 -0.31807128 -0.13872246 -0.06978235 0.14581554 -0.008516606
-0.26082185 -0.22357586 0.24891974 -0.31234077 -0.10139458 -0.28183842 0.0879741 -0.06927442
0.08393285 -0.30419877 -0.21640894 -0.09785962 0.14668652 0.273555 -0.12177383 -0.43305463
-0.19791794 -0.37462443 0.019725049 -0.09496508 0.12265235 0.35673824 -0.4689788 0.0016648377
0.47845072 0.1115384 -0.055150982 -0.6837898 -0.25086692 -0.05565564 0.16270684 0.21148187
0.22523461 -0.20223708 0.32524186 -0.21621704 0.18912332 -0.42990333 -0.15933521 0.3172424
0.35677043 -0.30859268 0.045534845 0.37212086 -0.2855176 0.033543043 -0.036663294 0.44498733
0.19426802 -0.23579799 0.024167378 -0.12660661 0.26199347 0.102840334 0.5961663 0.0400044
0.10470698 0.6509958 0.6877064 0.26599732 -0.4541333 0.025875164 0.58138716 -0.28184897
0.44300565 0.17689908 -0.15017514 -0.09012994 0.218881 -0.041734707 0.30207387 -0.2077741
0.39254922 -0.109262444 0.4095717 0.060717016 0.4320326 -0.043120656 -0.07009838 0.0721276
-0.2327633 -0.24997164 -0.029788746 0.40846658 0.39504537 0.0049866186 0.07824306 -0.28649446
0.30228326 0.40245694 -0.4471083 -0.20607924 -0.26398444 0.24470636 0.35189173 -0.38608837
0.5937574 0.40835503 -0.47190946 0.0352098 0.05941004 0.3986103 -0.10674553 -0.8839011
-0.8856146 -0.01957393 -0.1690326 -0.3396049 0.05628317 -0.29668617 0.013575497 -1.1320446
-0.12489026 0.2241964 0.33154243 -0.1273492 -0.0047546783 -0.6206858 -0.52250016 -0.34981373
-0.79071593 -0.233795 -0.28769562 -0.13226193 0.10252503 -0.30076653 -0.10793979 -1.0132458
0.27392378 0.036964048 -0.024644854 0.3570165 -0.62477994 -0.6030938 -0.8334367 0.013260733
-0.36427316 0.22538905 -0.28118813 0.2559965 -0.039445754 -0.88104063 0.40841988 0.8755222
0.09695247 0.11966605 0.084216885 -0.40551412 -0.13501897 -0.40247777 0.2708466 0.15871988
-0.43803722 -0.3572899 0.05062151 0.18085888 0.12945041 -0.094278514 -0.73946637 0.18268485
00000000: 3fd4 bc3e 50cb a53c 0e79 693e 1b01 973e
00000010: fdbd a83e 9df7 ab3e 0dff 513e efac 423e
00000020: 5587 27bd 24de e43d 8098 933e 3409 d53d
00000030: 080c 46be dea3 243e 1d96 423d 24cc 80be
00000040: 291d 8a3e 9228 8d3e 491a a73e 5275 b13d
00000050: 08f1 6fbe ed20 b9bd cc31 943d 9038 bd3e
00000060: aa0a 2c3d e147 b73e 0255 453d dce0 fabc
00000070: b203 043d 508a 5b3e fdf1 fc3d 2bbd f7bc
00000080: 6208 d23d 074b 0bbe 30e7 5cbd c001 423e
00000090: 188b 6f3e 83b1 e6bd 67a0 853e 43c5 053e
000000a0: 9a76 703e 6950 0fbd 25f7 2d3e e52a cd3d
000000b0: e1ad aa3e a41c 2e3d eed9 6d3e ced9 ff3d
000000c0: e792 953e 0d5e 963d 891e a03e 4f04 ae3e
000000d0: 2d43 1c3d 23c1 023d fdac a73e 31a0 22be
000000e0: 2cbe 813e f77e 3a3d 19ca 15bd 5f3d 7b3d
000000f0: a0bc 10bc 5785 01be 7dff 523e 372d a93e
00000100: ffaa 8f3d e31e 23bf 516c a1be 7eb3 b93e
00000110: 55c9 42bc c2ae c8bd 69e4 98be 1c16 84bc
00000120: 2ee3 b3be 01cf f13a e528 95bd 1bf7 cb3c
00000130: 9c05 b4be 2a7e 76bd c590 fdbe 3484 593c
00000140: b83b efbe 9cc4 95be 9b62 bfbd 234d cabe
00000150: c531 01bf 74d2 71be 3ab6 4abe b08e 293e
00000160: 58a6 cd3e 35b3 0dbf f4fc 303f 3dda a2be
00000170: 430d 0ebe 0cea 8ebd ab50 153e 3c89 0bbc
00000180: 718a 85be 12f1 64be d1e4 7e3e 21eb 9fbe
00000190: f6a7 cfbd 204d 90be c42b b43d bfdf 8dbd
000001a0: fce4 ab3d f1bf 9bbe 4e9a 5dbe a06a c8bd
000001b0: fe34 163e 670f 8c3e 8f64 f9bd 56b9 ddbe
000001c0: 00ab 4abe c6ce bfbe 6d96 a13c 0d7d c2bd
000001d0: 2831 fb3d 65a6 b63e fd1d f0be af36 da3a
000001e0: 7ef7 f43e 3f6e e43d ffe5 61bd d90c 2fbf
000001f0: a171 80be 2bf7 63bd 9f9c 263e b48e 583e
00000200: e7a3 663e 3d17 4fbe 1a86 a63e 0068 5dbe
00000210: 8ba9 413e 4a1c dcbe c528 23be 996d a23e
00000220: 9daa b63e dcff 9dbe bf82 3a3d a086 be3e
00000230: 5d2f 92be 6e64 093d 402c 16bd 61d5 e33e
00000240: 32ee 463e 0775 71be aafa c53c 2aa5 01be
00000250: 0224 863e f49d d23d 5b9e 183f a7db 233d
00000260: 9d70 d63d a9a7 263f 870d 303f cd30 883e
00000270: 2984 e8be 27f8 d33c cad5 143f 824e 90be
00000280: a3d1 e23e 0825 353e 83c7 19be 0c96 b8bd
00000290: 5722 603e 03f2 2abd 6da9 9a3e bcc2 54be
000002a0: 36fc c83e fdc4 dfbd 62b3 d13e 68b2 783d
000002b0: 6033 dd3e 499f 30bd bd8f 8fbd a3b7 933d
000002c0: 8159 6ebe 91f8 7fbe 8707 f4bc 8822 d13e
000002d0: 6343 ca3e ca66 a33b e63d a03d 67af 92be
000002e0: dfc4 9a3e d60e ce3e 61eb e4be 7006 53be
000002f0: f828 87be 4e94 7a3e 272b b43e 60ad c5be
00000300: 7c00 183f e913 d13e 1e9e f1be 2738 103d
00000310: f157 733d a616 cc3e 679d dabd 5847 62bf
00000320: a3b7 62bf 8259 a0bc e216 2dbe b2e0 adbe
00000330: 2e89 663d 40e7 97be c36b 5e3c d6e6 90bf
00000340: 77c6 ffbd be93 653e eebf a93e d467 02be
00000350: 22cd 9bbb 44e5 1ebf 92c2 05bf c91a b3be
00000360: 5c6c 4abf f567 6fbe d74c 93be ac6f 07be
00000370: a5f8 d13d 12fe 99be 890f ddbd 0ab2 81bf
00000380: bd3f 8c3e 9d67 173d 01e4 c9bc deca b63e
00000390: 94f1 1fbf 5b64 1abf 1c5c 55bf 8c43 593c
000003a0: 0382 babe 63cc 663e e4f7 8fbe f911 833e
000003b0: df91 21bd e18b 61bf 691c d13e 3922 603f
000003c0: 048f c63d 7913 f53d e779 ac3d 8c9f cfbe
000003d0: 6a42 0abe 9111 cebe 68ac 8a3e 7787 223e
000003e0: 6a46 e0be b4ee b6be 8058 4f3d 1233 393e
000003f0: a68e 043e 1815 c1bd ab4d 3dbf bd11 3b3e

encoder.dcrnn_cells.1.update.weights_pool f4 [2, 2, 128, 64]
0.06641835 -0.06693201 -0.297584 -0.09507723 -0.3038254 -0.28336328 -0.37314403 -0.16264759
0.44130015 -0.105940424 -0.046415243 0.18994257 -0.37790844 0.4796012 0.94013053 0.4051179
-0.22794597 0.19728544 0.34098512 0.0652883 0.28706527 -0.35781235 0.123977475 0.5409389
-0.23442113 0.32380742 -0.17164704 -0.8170304 -0.06684962 -0.4660906 -0.716092 -0.3443343
0.12997305 -0.20576312 -0.85699755 -0.10640484 0.06444186 0.23139851 -0.026649753 0.55767864
0.7462371 0.57208186 0.14326862 0.4159502 1.3277329 0.2031068 0.27628577 -0.4907248
0.7110788 -0.18592356 -0.37844065 0.22078095 -0.38613346 0.17477527 0.104375504 0.557364
0.22227879 0.42394286 -0.30264673 -0.31222203 -0.50832504 0.15884179 0.2013995 0.17511532
0.07250839 0.25872687 -0.0018796772 0.044104207 -0.23383747 -0.18952936 -0.012096437 -0.2866671
0.2495941 0.02886449 0.22275901 -0.15291047 -0.56397665 0.46477064 -0.15091121 0.5724096
-0.39315712 0.13656855 0.5814246 0.31987995 0.24311633 -0.15562564 0.14796913 0.26703992
-0.9127488 0.15357137 0.11800673 -0.5873854 0.20674132 -0.020743648 -0.5785091 -0.2867785
-0.19335532 -0.3520637 -0.50422823 0.60964006 0.6781296 0.22562763 -0.012934271 0.057203256
0.92742586 0.41519633 0.3494333 -0.07122223 0.058715194 0.26442337 -0.015353853 0.06694536
-0.26968676 -0.1246798 -0.31804046 -0.115504235 0.0697872 -0.11860613 -0.47233894 -0.24558678
0.22862281 0.20021875 -0.2466895 -0.64833343 -0.2726248 -0.3445467 0.15595815 0.014445109
-0.05283477 -0.27981344 0.35040098 -0.04176773 -0.22589207 0.07125401 -0.5314253 -0.89583117
0.4998682 0.13252157 -0.25407848 0.40171906 0.009395718 0.2935174 0.63684934 0.67970747
0.09904304 -0.37779856 -0.19780485 0.044072602 0.15559779 -0.15225367 -0.3361895 -0.22064447
-0.6529599 0.17973664 0.15194803 -0.6484676 0.02068624 -0.14120194 -0.18491887 0.010001616
-0.049094114 -0.09498086 0.24736919 0.26455194 0.16859314 -0.22703052 -0.68844193 0.14698508
1.3564457 -0.41876107 -0.060356934 0.90065664 0.04085691 -0.029914316 -0.19160217 0.12331725
0.17853647 0.06041796 -0.07494282 0.11713887 -0.6329314 -0.09536319 0.12296624 -0.024370179
0.35118744 0.61857235 0.50010026 0.06342548 0.122198746 -0.55343175 -0.24715948 -0.044370968
0.2565033 -0.0013862813 0.1038517 -0.19848317 0.55690074 0.11471633 0.18960135 -0.5173834
0.7067883 -0.0016802859 0.19902715 -0.047910072 0.061694905 0.23990479 0.11527751 0.32444805
0.2654876 0.029782375 0.8610268 -0.2037235 0.28112262 -0.37636337 -0.46829322 -0.052564964
-0.030329816 0.52661186 -0.36792007 -0.33611014 0.24339148 -0.20846398 -0.432638 0.11997294
0.023267599 -0.17843507 -0.44565058 -0.080251634 0.053010665 0.05207264 -0.344475 0.15438083
0.49247697 -0.1562702 -0.1810736 0.030082075 0.3115323 0.3798471 0.029291268 0.09891151
0.100557074 -0.21180049 -0.31381616 0.23240425 -0.33983153 -0.32831216 -0.21296936 0.017182592
0.7938076 0.5068478 -0.12525582 0.00066672213 -0.0809989 0.030209577 -0.32115573 -0.035178114
00000000: 5806 883d a613 89bd ee5c 98be dab7 c2bd
00000010: 018f 9bbe fe14 91be bc0c bfbe 178d 26be
00000020: 18f2 e13e 4bf7 d8bd e91d 3ebd 4e80 423e
00000030: 377d c1be 4a8e f53e 65ac 703f 9d6b cf3e
00000040: ab6a 69be 3205 4a3e 9a95 ae3e dfb5 853d
00000050: 38fa 923e 2e33 b7be e7e7 fd3d f97a 0a3f
00000060: 180c 70be 16ca a53e 3ec4 2fbe e728 51bf
00000070: 74e8 88bd 6da3 eebe ce51 37bf 964c b0be
00000080: a817 053e 91b3 52be 3164 5bbf c8ea d9bd
00000090: 18fa 833d bbf3 6c3e 9550 dabc 07c4 0e3f
000000a0: 6509 3f3f f573 123f 02b5 123e 6df7 d43e
000000b0: 27f3 a93f 3bfb 4f3e 5475 8d3e 4840 fbbe
000000c0: 4309 363f bf62 3ebe f9c2 c1be 6714 623e
000000d0: 49b3 c5be 4af8 323e d3c2 d53d 68af 0e3f
000000e0: 0d9d 633e 0a0f d93e 83f4 9abe 91db 9fbe
000000f0: 9721 02bf 6ca7 223e ac3b 4e3e 6e51 333e
00000100: 477f 943d d977 843e 805f f6ba 9da6 343d
00000110: 1773 6fbe fc13 42be 2230 46bc 08c6 92be
00000120: 9995 7f3e 3975 ec3c f01a 643e 9094 1cbe
00000130: c660 10bf 6bf6 ed3e 7888 1abe 6f89 123f
00000140: e44b c9be a0d8 0b3e 3ed8 143f 4ec7 a33e
00000150: 7df3 783e 545c 1fbe 3885 173e 75b9 883e
00000160: e8a9 69bf d041 1d3e 83ad f13d e45e 16bf
00000170: ffb3 533e 95ee a9bc 2c19 14bf a2d4 92be
00000180: f0fe 45be b141 b4be 1a15 01bf 5f11 1c3f
00000190: e799 2d3f ee0a 673e 44ea 53bc f64d 6a3d
000001a0: c86b 6d3f 9d94 d43e ece8 b23e f6dc 91bd
000001b0: 587f 703d 8062 873e ba8e 7bbc a61a 893d
000001c0: 6214 8abe 1f58 ffbd 33d6 a2be 7c8d ecbd
000001d0: 97ec 8e3d c5e7 f2bd 69d6 f1be 1a7b 7bbe
000001e0: 191c 6a3e 2506 4d3e 2c9c 7cbe 2ef9 25bf
000001f0: 7a95 8bbe 6d68 b0be 7eb3 1f3e 2eab 6c3c
00000200: 4669 58bd b543 8fbe c267 b33e a414 2bbd
00000210: 4050 67be 9fed 913d 7d0b 08bf 3155 65bf
00000220: baee ff3e bcb3 073e 9316 82be 1fae cd3e
00000230: 7ff0 193c ea47 963e 8f08 233f 4f01 2e3f
00000240: 14d7 ca3d d06e c1be 5b8d 4abe 7985 343d
00000250: 0755 1f3e 63e8 1bbe 0821 acbe a0f0 61be
00000260: 6128 27bf e20c 383e 4498 1b3e f901 26bf
00000270: 3176 a93c 3e97 10be 5f5b 3dbe d1dd 233c
00000280: e916 49bd 5385 c2bd 594e 7d3e 5a73 873e
00000290: aea3 2c3e b07a 68be bb3d 30bf 4283 163e
000002a0: 03a0 ad3f da67 d6be d538 77bd 6f91 663f
000002b0: 9359 273d de0e f5bc 5c33 44be c18d fc3d
000002c0: 44d2 363e d378 773d 9f7b 99bd 81e6 ef3d
000002d0: cb07 22bf c74d c3bd b9d5 fb3d f8a3 c7bc
000002e0: d7ce b33e c25a 1e3f 9206 003f 38e5 813d
000002f0: 5643 fa3d b4ad 0dbf 6017 7dbe 55be 35bd
00000300: 6754 833e e2b3 b5ba 33b0 d43d 2c3f 4bbe
00000310: 0c91 0e3f 65f0 ea3d db26 423e 3d73 04bf
00000320: 14f0 343f 0a3d dcba c6cd 4b3e 5a3d 44bd
00000330: ccb3 7c3d 9aa9 753e 9d16 ec3d 0e1e a63e
00000340: feed 873e 2bfa f33c 416c 5c3f e59c 50be
00000350: 4eef 8f3e b3b2 c0be 21c4 efbe 5c4e 57bd
00000360: 3c76 f8bc 09d0 063f 0560 bcbe a116 acbe
00000370: 9e3b 793e 9577 55be ba82 ddbe 5fb4 f53d
00000380: b19b be3c afb7 36be 502c e4be f85a a4bd
00000390: b621 593d 1f4a 553d 075f b0be 0216 1e3e
000003a0: f125 fc3e 4c05 20be 5c6b 39be af6e f63c
000003b0: 2981 9f3e 527b c23e 3ef4 ef3c 1e92 ca3d
000003c0: def0 cd3d 3ae2 58be 83ac a0be 61fb 6d3e
000003d0: 66fe adbe 8818 a8be a414 5abe 82c2 8c3c
000003e0: fa36 4b3f c7c0 013f 1043 00be f7c6 2e3a
000003f0: c0e2 a5bd 137a f73c 866e a4be ed16 10bd

encoder.dcrnn_cells.1.update.bias_pool f4 [2, 64]
-0.14908876 0.009382237 0.16672376 -0.029363545 -0.08535748 -0.4519318 -0.45896423 0.34028628
-0.46825442 -0.34350765 -0.26192498 0.3363418 0.042120583 -0.09449217 0.1953903 0.0975046
-0.68014413 -0.4301133 -0.26880333 -0.3293975 0.19804302 0.25508592 0.31757605 0.22768487
0.14109437 -0.5973671 0.24955495 -0.063365616 0.4259365 -0.43393645 0.1834451 -0.41857377
-0.23912607 0.060175553 -0.061678905 -0.017442733 -0.08222987 -0.23475854 -0.21263847 0.22262661
0.5839633 -0.21482594 0.4810279 0.34881014 0.23405398 0.09336865 0.19999462 0.0164434
-0.30567643 0.31404853 0.5799201 -0.34295171 0.1964041 0.3780398 -0.19157282 0.12550372
-0.4456612 -0.25421444 -0.03719345 0.4206945 0.19145072 -0.21180129 0.46119696 0.68515617
-0.8133963 -0.6238209 0.5579142 0.22821593 0.40929073 0.37898415 0.34780344 0.4140858
-0.35759956 0.565211 -0.22552915 0.4084087 0.39904556 -0.63364196 -0.3202318 -0.5376219
-0.1950616 0.36131623 0.41969907 0.59126645 -0.46997982 0.27288288 0.14000449 -0.27024642
0.45530835 -0.33664924 0.27201578 0.5825621 -0.48496556 -0.34567082 0.5676587 0.2800296
0.31850946 -0.5443925 0.35601887 -0.5432496 -0.4600028 0.4819147 0.6837086 -0.42132688
-0.65449554 0.7111664 0.193513 -0.531817 -0.29161006 -0.3246955 -0.73151946 0.57968736
0.50579506 -0.5876285 -0.37428764 -0.09555842 0.6222227 0.4571007 0.6502775 0.6407305
-0.32090276 -0.59503347 -0.54890174 0.37143913 -0.45015615 0.66054446 0.2645804 -0.0025325278
00000000: b9aa 18be f4b7 193c a2b9 2a3e d18b f0bc
00000010: e7cf aebd 9b63 e7be 5cfd eabe 013a ae3e
00000020: 0bbf efbe 3ce0 afbe 081b 86be fe34 ac3e
00000030: a286 2c3d 1c85 c1bd 6514 483e 7eb0 c73d
00000040: ed1d 2ebf cf37 dcbe 97a0 89be caa6 a8be
00000050: cacb 4a3e 9f9a 823e 5499 a23e 3926 693e
00000060: 0b7b 103e 0ded 18bf 558b 7f3e d5c5 81bd
00000070: 5914 da3e eb2c debe 08d9 3b3e 4d4f d6be
00000080: 77dd 74be a47a 763d 05a3 7cbd 10e4 8ebc
00000090: 2268 a8bd 8b64 70be e6bd 59be 3bf8 633e
000000a0: 9e7e 153f 55fb 5bbe 4a49 f63e 3e97 b23e
000000b0: d9ab 6f3e 1038 bf3d 64cb 4c3e 4fb4 863c
000000c0: 9f81 9cbe f8ca a03e a575 143f 5e97 afbe
000000d0: 281e 493e 6f8e c13e aa2b 44be 0c84 003e
000000e0: b42d e4be 6528 82be 2958 18bd 4565 d73e
000000f0: a80b 443e 70e2 58be 0222 ec3e 6566 2f3f
00000100: bd3a 50bf bab2 1fbf 77d3 0e3f 70b1 693e
00000110: 8e8e d13e 360a c23e 4b13 b23e 0e03 d43e
00000120: 4a17 b7be abb1 103f 1df1 66be f21a d13e
00000130: b34f cc3e 5c36 22bf 6cf5 a3be 97a1 09bf
00000140: 3abe 47be 71fe b83e cce2 d63e 3d5d 173f
00000150: 32a1 f0be 4eb7 8b3e 565d 0f3e bd5d 8abe
00000160: 2d1e e93e 4a5d acbe a745 8b3e ca22 153f
00000170: 684d f8be c4fb b0be 1552 113f 0a60 8f3e
00000180: ac13 a33e 4f5d 0bbf 1b48 b63e 6812 0bbf
00000190: 7d85 ebbe 86bd f63e 8707 2f3f 28b8 d7be
000001a0: 058d 27bf 000f 363f 4628 463e 2925 08bf
000001b0: ea4d 95be 7d3e a6be dc44 3bbf 6466 143f
000001c0: c97b 013f d26e 16bf a1a2 bfbe 22b4 c3bd
000001d0: fd49 1f3f 1a09 ea3e 9678 263f ea06 243f
000001e0: 5e4d a4be 1d54 18bf d384 0cbf 452d be3e
000001f0: de7a e6be 7119 293f 1577 873e c4f8 25bb
