model/experiments/PEMSD8/20211028102753/best_model.pth (torch, 602564 bytes, 11 tensors)

node_embeddings f4 [170, 2]
-0.56713134 -0.5712601 -0.8226118 -0.009561007 -0.24711157 -0.6668272 -0.54825586 -0.5256503
-0.98253417 -0.047718972 -0.4762134 -0.4080478 0.77146524 -0.22186443 0.4979724 -0.052166604
-0.10921266 -0.25746328 -0.24238354 -0.83242315 -0.5234064 -0.62385774 0.6880147 0.018994719
0.8954364 -0.41921157 0.81977004 -1.1912453 0.78672105 -0.5216713 -0.4721874 -0.77384776
0.85293174 0.28609553 -0.4747314 -0.22518037 1.0241321 -0.4336331 0.90758336 -0.51190305
1.2418984 -0.4217046 0.525118 -0.03891153 0.87070227 -0.18822497 0.772608 -0.032606803
0.75316834 0.30796272 0.63279235 -0.0064056125 0.6478244 -0.20905757 0.6680481 -0.16687198
-0.4773146 -0.22318782 -0.70190054 0.20170636 0.5581122 -0.14458515 0.46902323 -0.1356168
1.0177212 0.23314005 0.88099533 -0.28068474 0.5660064 0.17749377 -0.428127 -0.87781936
-0.5255775 -0.049961507 -0.4242001 0.13912566 0.72871166 0.0074758716 1.0063353 0.046203315
-0.5629749 0.095931284 -0.92116064 0.06911568 0.6628618 0.065721564 -0.6932955 0.024711246
0.8090186 0.097796395 1.0115534 -0.077307716 1.0284915 -0.28717345 0.6617438 -0.07506003
-0.72982836 -0.35604495 -0.48122492 0.23115689 0.683162 0.11414884 -0.34003842 -0.19864595
0.86168486 -0.6713066 1.3417547 0.14073901 0.6148117 -0.28968567 -0.5136277 -0.28365275
0.62980705 -0.34254703 0.5881966 -0.37706393 -0.477553 0.14031352 0.45384395 -0.14590523
-0.3039254 -0.6048752 0.94264424 -0.68806344 -0.25521734 -0.15060504 -0.703547 -0.55461085
1.1855435 -0.16547097 0.2665959 -0.2715531 0.4185748 -0.17208385 0.39094588 -0.14450637
0.4682259 -0.33121327 0.7199176 -0.27111953 -0.51361924 -0.2837491 -0.23003423 -1.1875633
0.2844929 -0.2562273 0.8746739 -0.30274814 0.6831632 0.11424851 0.68318975 0.11420522
0.34615257 -0.45292923 -0.2880703 -0.63507557 0.77084 0.048982315 0.3801059 -0.20236479
-0.72975093 -0.35598725 0.8746806 -0.30275026 -0.3160327 -0.38172624 0.87467444 -0.30274805
-0.51351976 -0.28373355 0.56557626 0.12905967 0.46588203 -0.6289028 0.38271722 -0.3367098
0.2437638 -0.118310854 -0.29805037 -0.24625634 0.68310934 0.11414795 0.68310386 0.11424782
0.73624974 0.5050021 1.1970588 -0.67987984 0.5767722 0.04438028 0.4486225 -0.018170765
-0.41591915 0.07905877 1.0442126 0.22600414 -0.33591017 0.062256556 0.48532313 -0.38533178
0.3090239 -0.11611722 -0.4030792 -0.62218314 0.72169185 0.3130156 0.74935627 0.30676743
-0.4578802 -0.001751726 0.31194764 -0.05823045 0.45677283 -0.5076464 0.5113519 -0.0841193
0.65851825 0.53518564 -0.25522316 -0.1504917 -0.17299405 -0.19532184 0.82032204 0.017900852
0.40767655 -0.0010233739 0.37322325 0.004939613 0.4205784 -0.18190932 -0.34010306 -0.19847342
0.48528522 0.0026449878 0.56655675 -0.43788487 -0.5519476 0.17757913 0.57145405 -0.011552643
0.5294774 -0.0053619845 1.1601466 -0.15254568 -0.7296839 -0.35606244 -0.72970575 -0.35619962
-0.5409711 -0.2997497 1.144158 -0.14268512 1.1036035 -0.14364246 -0.5182918 -0.63188046
00000000: 852f 11bf 1a3e 12bf b096 52bf c5a5 1cbc
00000010: d10a 7dbe 30b5 2abf 7f5a 0cbf 0591 06bf
00000020: 5c87 7bbf f874 43bd 3ed2 f3be a4eb d0be
00000030: bf7e 453f 6e30 63be 3df6 fe3e a6ac 55bd
00000040: e3aa dfbd 3ad2 83be 6433 78be af19 55bf
00000050: f6fd 05bf 24b5 1fbf bb21 303f d09a 9b3c
00000060: 523b 653f e6a2 d6be 73dc 513f ba7a 98bf
00000070: 8d66 493f 408c 05bf 8cc2 f1be e31a 46bf
00000080: bc59 5a3f 1d7b 923e fe0f f3be af95 66be
00000090: c316 833f 2805 debe 6257 683f 140c 03bf
000000a0: 87f6 9e3f aae9 d7be 226e 063f b261 1fbd
000000b0: 58e6 5e3f 0cbe 40be a3c9 453f b68e 05bd
000000c0: a4cf 403f 4aad 9d3e aefe 213f 2ce6 d1bb
000000d0: d2d7 253f 3013 56be 3305 2b3f 7de0 2abe
000000e0: 9462 f4be 598b 64be c1af 33bf 1d8c 4e3e
000000f0: 71e0 0e3f 210e 14be d023 f03e 21df 0abe
00000100: b044 823f 44bc 6e3e e988 613f e9b5 8fbe
00000110: cce5 103f edc0 353e 7633 dbbe c5b8 60bf
00000120: 3f8c 06bf 70a4 4cbd c130 d9be f576 0e3e
00000130: d98c 3a3f 28f8 f43b 98cf 803f b03f 3d3d
00000140: 1f1f 10bf 9f77 c43d 2fd1 6bbf 868c 8d3d
00000150: 50b1 293f 0799 863d d07b 31bf 3d6f ca3c
00000160: d81b 4f3f 7a49 c83d 957a 813f 8253 9ebd
00000170: 9ca5 833f 6608 93be 0b68 293f 13b9 99bd
00000180: 08d6 3abf 864b b6be 1d63 f6be 64b4 6c3e
00000190: b4e3 2e3f dec6 e93d 8419 aebe d869 4bbe
000001a0: 6197 5c3f c0da 2bbf 9ebe ab3f e31d 103e
000001b0: 4d64 1d3f ae51 94be 1b7d 03bf ef3a 91be
000001c0: 093b 213f 5362 afbe 0d94 163f 860e c1be
000001d0: d481 f4be 59ae 0f3e 3c5e e83e 2e68 15be
000001e0: 1c9c 9bbe 1ad9 1abf 2251 713f ed24 30bf
000001f0: d9ab 82be 3538 1abe a81b 34bf fafa 0dbf
00000200: e4bf 973f 3971 29be 427f 883e 0209 8bbe
00000210: 704f d63e c036 30be 0f2a c83e 7af9 13be
00000220: 4ebb ef3e c994 a9be 854c 383f 2ed0 8abe
00000230: 8d7c 03bf 9047 91be 188e 6bbe 1302 98bf
00000240: 0ea9 913e 3a30 83be a1ea 5f3f ce01 9bbe
00000250: c9e3 2e3f 1ffb e93d 86e5 2e3f 6de4 e93d
00000260: e93a b13e 57e6 e7be f37d 93be 5094 22bf
00000270: c555 453f aea1 483d 3e9d c23e b738 4fbe
00000280: f5d0 3abf f643 b6be 11eb 5f3f 1502 9bbe
00000290: 0acf a1be 9f71 c3be aaea 5f3f cb01 9bbe
000002a0: 0876 03bf 8645 91be 9bc9 103f 3828 043e
000002b0: 1788 ee3e c6ff 20bf 83f3 c33e 3a65 acbe
000002c0: 389d 793e f64c f2bd 0f9a 98be 9f2a 7cbe
000002d0: 41e0 2e3f 67c6 e93d e5df 2e3f c3fa e93d
000002e0: dd7a 3c3f d147 013f 3939 993f 9b0c 2ebf
000002f0: 58a7 133f 19c8 353d d9b1 e53e dbda 94bc
00000300: 5bf3 d4be 90e9 a13d c2a8 853f a16d 673e
00000310: 6bfc abbe bb00 7f3d 467c f83e 354a c5be
00000320: 6138 9e3e ddce edbd 6660 cebe 6547 1fbf
00000330: ccc0 383f 9543 a03e d0d5 3f3f 9f10 9d3e
00000340: 466f eabe 2c9a e5ba 9ab7 9f3e 0d83 6ebd
00000350: 21de e93e 1df5 01bf f5e7 023f bd46 acbd
00000360: a794 283f ed01 093f 9cac 82be 7f1a 1abe
00000370: 5a25 31be 7302 48be a000 523f cfa4 923c
00000380: fbba d03e bb22 86ba 1e17 bf3e 7adc a13b
00000390: 0d56 d73e 7046 3abe fd21 aebe 9e3c 4bbe
000003a0: 4e77 f83e 8857 2d3b dd09 113f 7232 e0be
000003b0: 704c 0dbf 4ed7 353e d04a 123f 4c47 3dbc
000003c0: d58b 073f 96b3 afbb af7f 943f ef34 1cbe
000003d0: 90cc 3abf d14d b6be ffcd 3abf cc5f b6be
000003e0: 157d 0abf cb78 99be c573 923f 0c1c 12be
000003f0: e142 8d3f 0217 13be c5ae 04bf ebc2 21bf

encoder.dcrnn_cells.0.gate.weights_pool f4 [2, 2, 65, 128]
-1.135721 -0.15394048 0.71699995 -0.551527 -0.25881663 0.2538312 0.008207693 0.82147735
-0.5828317 -0.40129927 0.68184274 1.2968856 -0.08255831 -0.9038901 1.0583117 -0.8171403
-0.6746302 1.4683315 -0.5969934 -0.19811946 -0.1857691 -0.22103986 -0.16205971 0.55827534
-0.08936698 -0.25734484 0.50801075 -1.2502382 0.21648969 0.7309132 -0.12719254 -0.3610213
-0.62045103 0.6070747 0.20754169 -1.1944729 0.79399455 -0.14905223 0.4276683 -0.40778118
-0.65109336 -0.041949656 -0.6495283 -0.4527551 -1.0084027 0.86046684 0.5982624 0.22950216
-0.43256274 -0.39196157 -0.07121315 1.0675138 -0.5901562 -0.88806546 0.83576936 0.5529499
-0.16614553 0.020357605 -0.48644716 0.1503207 -0.9248938 -0.9360289 0.8689579 -0.5052634
0.11696406 -0.03478603 -0.12831117 -0.31329075 -0.15614972 -0.2764183 -0.35133532 -0.64586717
-0.1603081 -0.073804274 -0.63322705 -1.3741403 -0.11316662 0.059320763 -1.638711 0.2826691
0.17495333 -0.10743158 -0.16675912 -0.41901144 -0.40115964 -0.35602048 0.25709927 -0.43907082
-0.49351662 0.023961674 -0.5736705 0.44057336 -0.7615221 -0.6339031 -0.5819429 -0.8065598
-0.40923977 -0.68624836 -0.47764406 -0.057869453 0.24142283 -0.42268437 -0.06991704 0.19637308
-0.5663955 -0.27705488 -0.3012728 -0.7701579 0.6280455 -0.95725197 -0.50875145 -0.42758548
0.9375168 -0.41445616 -0.6872997 0.37761062 -0.13214144 0.5335645 -0.30613765 -0.4685186
-0.34288228 -0.121550106 0.20346667 -0.22908764 0.20122992 0.6736611 -0.49280813 0.04008356
-0.051111814 0.18291971 -0.123695284 0.06625451 -0.090111054 -0.3415192 -0.092092246 -0.18869516
-0.34106076 -0.05124101 -0.32787642 0.054257706 0.08499912 0.08579642 0.137101 -0.34039986
0.09673979 0.14103171 -0.08640999 -0.14431879 -0.30669463 -0.09687422 0.17507772 -0.015608745
0.13143383 -0.16672054 -0.1788978 -0.26478595 -0.08675892 0.07732695 0.076132335 -0.56175387
-0.1258042 0.116411835 -0.22020718 -0.058714427 0.009842859 -0.03265481 0.076241285 -0.09228714
-0.16273218 -0.14659175 -0.036643304 0.008827042 0.013720303 0.084516205 0.04254872 -0.2715122
-0.093920775 -0.15187071 -0.081916206 0.21704033 -0.23330635 0.23856695 0.07022011 -0.083253756
-0.011400956 -0.21421447 -0.22076848 -0.053179394 -0.05699899 0.17598264 -0.21000181 0.11122584
0.75584805 0.13816814 0.024428664 0.23376936 0.30925146 0.24166663 -0.06241996 -0.22092246
0.29990414 -0.29541966 0.2785162 0.1577413 -0.032140836 1.1757939 -0.09738881 0.1666394
0.5066419 -0.39733094 -0.41504216 0.1784843 0.17246346 -0.23441745 -0.030388692 0.3528234
0.26036867 0.31441873 -0.03528052 0.18725726 -0.19870196 0.05985093 0.2229395 -0.06262532
0.3939061 -0.14956495 0.05310032 1.1102418 0.12381781 0.060186304 -0.059699155 0.35454395
0.28310257 0.1643844 -0.1591774 0.00038407557 0.12624882 0.0719222 -0.21961434 0.7951475
0.008658364 0.02193535 -0.00050086516 -0.45954522 -0.25949842 -0.01084964 -0.057811417 0.37847686
0.1666242 -0.14430803 0.3517966 0.18859091 -0.38600367 0.20616046 0.7537251 0.023132658
00000000: 4e5f 91bf 93a2 1dbe 4f8d 373f e030 0dbf
00000010: 9d83 84be 2af6 813e 8f79 063c 574c 523f
00000020: 7534 15bf 1977 cdbe 3f8d 2e3f 5900 a63f
00000030: 5514 a9bd 5765 67bf c276 873f 1b30 51bf
00000040: 91b4 2cbf 49f2 bb3f 8fd4 18bf d4df 4abe
00000050: 413a 3ebe 4658 62be fbf2 25be 22eb 0e3f
00000060: 0906 b7bd b4c2 83be fe0c 023f ce07 a0bf
00000070: 79af 5d3e 211d 3b3f c33e 02be c9d7 b8be
00000080: e1d5 1ebf 3f69 1b3f cf85 543e 7de4 98bf
00000090: 3a43 4b3f 26a1 18be 57f7 da3e b2c8 d0be
000000a0: 0eae 26bf 67d3 2bbd 7d47 26bf 84cf e7be
000000b0: 5713 81bf 8e47 5c3f ba27 193f 9d02 6b3e
000000c0: dd78 ddbe 30af c8be 33d8 91bd 4ba4 883f
000000d0: 7a14 17bf 4258 63bf fbf4 553f 208e 0d3f
000000e0: 0e22 2abe fec4 a63c 9a0f f9be abed 193e
000000f0: d7c5 6cbf 979f 6fbf 0674 5e3f f158 01bf
00000100: da8a ef3d cc7b 0ebd 0164 03be a567 a0be
00000110: b6e5 1fbe b386 8dbe 39e2 b3be 8d57 25bf
00000120: ce27 24be b226 97bd 2b1b 22bf d4e3 afbf
00000130: e7c3 e7bd 54fa 723d 48c1 d1bf 01ba 903e
00000140: f726 333e 1705 dcbd e7c2 2abe ab88 d6be
00000150: cc64 cdbe 5148 b6be 84a2 833e e4cd e0be
00000160: 36ae fcbe 464b c43c 12dc 12bf d592 e13e
00000170: 1df3 42bf 7947 22bf 36fa 14bf b47a 4ebf
00000180: e087 d1be f9ad 2fbf c38d f4be 8508 6dbd
00000190: 8c37 773e 166a d8be aa30 8fbd 0616 493e
000001a0: 4cff 10bf 23da 8dbe 6e40 9abe 1129 45bf
000001b0: 97c7 203f 770e 75bf 893d 02bf 7cec dabe
000001c0: 1a01 703f 9933 d4be e0f2 2fbf 2e56 c13e
000001d0: 1650 07be af97 083f 13be 9cbe ace1 efbe
000001e0: 448e afbe 43ef f8bd 9159 503e f395 6abe
000001f0: 370f 4e3e 0e75 2c3f 5951 fcbe a92e 243d
00000200: 9f5a 51bd 4e4f 3b3e f453 fdbd 72b0 873d
00000210: 258c b8bd 9bdb aebe dc9a bcbd 4e39 41be
00000220: 849f aebe 18e2 51bd 6bdf a7be 543d 5e3d
00000230: 0514 ae3d 09b6 af3d 3464 0c3e e448 aebe
00000240: 831f c63d 9e6a 103e b9f7 b0bd 4ec8 13be
00000250: 1407 9dbe fe65 c6bd 9347 333e d2bb 7fbc
00000260: 9796 063e cab8 2abe fc30 37be 0692 87be
00000270: a9ae b1bd 985d 9e3d 45eb 9b3d 1acf 0fbf
00000280: d1d2 00be 5469 ee3d fe7d 61be 8a7e 70bd
00000290: f143 213c 0dc1 05bd 6424 9c3d 0a01 bdbd
000002a0: 44a3 26be 261c 16be 4a17 16bd 4c9f 103c
000002b0: 1fcb 603c d516 ad3d 9147 2e3d a603 8bbe
000002c0: 8959 c0bd ff83 1bbe afc3 a7bd d23f 5e3e
000002d0: dce7 6ebe e54a 743e 90cf 8f3d f280 aabd
000002e0: 13cb 3abc 0a5b 5bbe 2211 62be a3d2 59bd
000002f0: c677 69bd cb34 343e b70a 57be 60ca e33d
00000300: 427f 413f f37b 0d3e 9f1e c83c 3c61 6f3e
00000310: 3556 9e3e 7577 773e 12ac 7fbd 7f39 62be
00000320: 098d 993e 3f41 97be ad99 8e3e ef86 213e
00000330: 1ca6 03bd 6a80 963f c973 c7bd 85a3 2a3e
00000340: 49b3 013f f66e cbbe 6880 d4be 97c4 363e
00000350: 439a 303e 210b 70be b5f1 f8bc 45a5 b43e
00000360: 0b4f 853e 7efb a03e 4e82 10bd 5ec0 3f3e
00000370: 8778 4bbe 4026 753d 414a 643e b441 80bd
00000380: 0fae c93e 8e27 19be b97f 593d 671c 8e3f
00000390: 3194 fd3d ea85 763d 1a87 74bd c986 b53e
000003a0: d2f2 903e 6254 283e 66ff 22be c05d c939
000003b0: 5f47 013e f24b 933d 95e2 60be c98e 4b3f
000003c0: d0db 0d3c c3b1 b33c 7e4c 03ba 8349 ebbe
000003d0: fadc 84be b0c2 31bc aacb 6cbd b8c7 c13e
000003e0: 899f 2a3e 7cc5 13be af1e b43e fa1d 413e
000003f0: 46a2 c5be ba1b 533e 21f4 403f b380 bd3c

encoder.dcrnn_cells.0.gate.bias_pool f4 [2, 128]
0.2615863 0.1067932 -0.0021514867 0.026876515 0.3760742 0.09845455 0.19293411 -0.036066324
0.3630101 0.14071847 0.1614442 -0.045919165 -0.21529607 -0.08915507 0.1571041 0.13441956
0.10208377 -0.046195623 0.23210359 -0.02884001 0.16053605 -0.20759231 -0.0012236576 -0.36474228
0.44182685 0.01595509 -0.16142127 0.26690358 -0.006626793 -0.08769356 0.16413663 0.69668186
-0.042112984 0.11187458 0.14920755 0.051452715 -0.369174 -0.11112133 -0.21171497 -0.24832301
0.30781412 0.43428165 -0.19105265 -0.0054915384 0.036790743 0.102461964 -0.09035659 0.2534123
0.10369806 0.25708333 0.29379082 0.053576857 0.3751549 0.0097794365 -0.08906499 -0.34113783
0.0065591196 0.42321283 0.378476 0.16335987 0.1937819 -0.15788358 0.12539354 -0.29406756
-0.37407604 -0.056017507 0.23714451 -0.20606136 -0.48889896 -0.034814086 -0.31327364 0.44609645
0.7027472 -0.3750558 -0.1833536 0.35904387 -0.17598636 -0.23883557 0.7718682 0.15750735
-0.6723966 0.16711704 -0.088532835 -0.3136331 -0.60174596 -0.4817939 -0.16806012 -0.0851196
-0.76190823 -0.18832955 0.09264126 0.061147735 -0.2813018 -0.097510114 0.2570162 0.42855412
-0.07322214 0.14608192 -0.18958062 -0.8940063 0.069642246 -0.59691435 0.32019112 -0.47965524
-0.22433305 -0.6090834 -0.18169634 -0.6759717 -0.44049788 0.23323067 -0.109683424 -0.5172873
-0.21140337 0.13857146 0.022903603 0.20424508 0.23356494 -0.14616588 0.29710877 -0.27892038
0.028023174 -0.53603226 -0.4060728 -0.6697811 0.07203642 -0.11239221 -0.5673221 0.14762655
-0.034880698 0.087281846 -0.4971473 0.21393055 0.17412269 0.14700416 -0.15742022 -0.107162334
0.017645583 -0.20183456 -0.15706114 -0.25628337 0.15156443 0.20122248 0.19190161 -0.072123624
0.072505325 -0.35145122 -0.37120372 -0.34155953 -0.082091354 0.014064602 -0.0565848 0.21492808
-0.12179451 0.29590452 0.011328733 -0.11563936 0.22293958 0.084497124 -0.15919057 -0.098305486
-0.033513125 0.16396946 0.022960743 0.049693245 -0.38957956 0.13126671 -0.0627783 -0.0137602715
-0.21451363 -0.18093151 -0.42408192 -0.06377426 -0.18644454 0.16457248 -0.2663915 -0.11870412
-0.102208234 -0.07222409 -0.22932565 -0.02427343 0.008848929 -0.19720258 0.022104561 0.040238936
-0.4010611 0.054752585 -0.06481374 -0.15148762 -0.32335544 0.13612597 0.05739887 0.27752563
-0.02888681 -0.2451446 -0.56999016 -0.6854978 -0.2860338 -0.5022808 -0.5409437 -0.96711403
-0.1606309 0.34831095 -0.9271304 -0.44246086 -0.14255624 0.18847144 -0.4834892 -0.4586067
-0.5129063 0.5559532 0.3601465 0.0729875 -0.4959064 -0.48510244 -0.15448429 -0.32120335
0.037019327 -0.29873866 -0.61474603 -0.03691515 -0.9830556 -0.3208443 0.041214913 -0.32852075
0.3828913 -0.3537962 -0.040121112 0.07838878 -0.38088578 0.0575935 -0.4580756 -0.041044123
0.21124221 -0.47400376 0.28884017 -0.48064816 -0.18779515 -0.30393398 0.02708972 0.08682281
-0.4489405 0.015097719 -0.40732938 0.022728363 0.10508618 -0.3049231 -0.7432733 -0.37067324
-0.06456152 -0.25042358 0.09437564 -0.18650979 -0.4145813 -0.18481447 -0.20918159 -0.32708856
00000000: a4ee 853e 65b6 da3d f5ff 0cbb 232c dc3c
00000010: cc8c c03e 8aa2 c93d 8590 453e 48ba 13bd
00000020: 76dc b93e 8118 103e a151 253e bc15 3cbd
00000030: 9376 5cbe ef96 b6bd e6df 203e 48a5 093e
00000040: 4c11 d13d 9f37 3dbd 90ac 6d3e e241 ecbc
00000050: 9063 243e 1493 54be 2363 a0ba 80bf babe
00000060: 2137 e23e 40b4 823c 9e4b 25be 96a7 883e
00000070: 9225 d9bb ae98 b3bd 6f13 283e be59 323f
00000080: aa7e 2cbd 801e e53d ddc9 183e 15c0 523d
00000090: 6004 bdbe 9493 e3bd cfcb 58be 6348 7ebe
000000a0: d099 9d3e 2a5a de3e 4ea3 43be 5df2 b3bb
000000b0: e4b1 163d 94d7 d13d e00c b9bd 42bf 813e
000000c0: a65f d43d 6da0 833e c06b 963e 6873 5b3d
000000d0: 4e14 c03e ee39 203c b567 b6bd 9ea9 aebe
000000e0: e2ed d63b 5aaf d83e 9bc7 c13e cf47 273e
000000f0: c36e 463e 3cac 21be 2a67 003e 0690 96be
00000100: e586 bfbe 9d72 65bd 03d6 723e c001 53be
00000110: f750 fabe 3799 0ebd 6765 a0be c166 e43e
00000120: 3ee7 333f 5007 c0be 0cc1 3bbe 99d4 b73e
00000130: c535 34be 5091 74be 2899 453f 9b49 213e
00000140: 2f22 2cbf bb20 2b3e b450 b5bd 8594 a0be
00000150: 060c 1abf b1ad f6be f417 2cbe 2f53 aebd
00000160: 6b0c 43bf 76d9 40be b3ba bd3d 0c76 7a3d
00000170: ca06 90be 62b3 c7bd a197 833e 726b db3e
00000180: 7df5 95bd 8096 153e 6c21 42be 99dd 64bf
00000190: 98a0 8e3d 61cf 18bf 17f0 a33e 5f95 f5be
000001a0: 90b7 65be e4ec 1bbf 9b0e 3abe 7b0c 2dbf
000001b0: f088 e1be 05d4 6e3e b4a1 e0bd f16c 04bf
000001c0: 207a 58be ade5 0d3e 56a0 bb3c 9f25 513e
000001d0: a62b 6f3e 82ac 15be a41e 983e a7ce 8ebe
000001e0: db90 e53c 6939 09bf c6e8 cfbe c676 2bbf
000001f0: d587 933d e32d e6bd 053c 11bf 6a2b 173e
00000200: 10df 0ebd d3c0 b23d 178a febe 9c10 5b3e
00000210: 384d 323e 4288 163e c432 21be ed77 dbbd
00000220: 788d 903c b8ad 4ebe a3d4 20be 9337 83be
00000230: b533 1b3e 440d 4e3e db81 443e 8db5 93bd
00000240: ac7d 943d 6af1 b3be 6a0e bebe e4e0 aebe
00000250: 831f a8bd 376f 663c 77c5 67bd 1b16 5c3e
00000260: 666f f9bd cc80 973e 269c 393c 54d4 ecbd
00000270: 464a 643e d40c ad3d da02 23be 6354 c9bd
00000280: 0f45 09bd 9ce7 273e 2b18 bc3c 258b 4b3d
00000290: f976 c7be c86a 063e e991 80bd c372 61bc
000002a0: 76a9 5bbe 1c46 39be 4421 d9be 149c 82bd
000002b0: 51eb 3ebe b085 283e 7764 88be 251b f3bd
000002c0: 8d52 d1bd 39ea 93bd 58d4 6abe 13d9 c6bc
000002d0: 19fb 103c 79ef 49be a014 b53c 95d1 243d
000002e0: e157 cdbe 3f44 603d 11bd 84bd 921f 1bbe
000002f0: d88e a5be 9b64 0b3e 141b 6b3d d717 8e3e
00000300: 08a4 ecbc 3007 7bbe e0ea 11bf c97c 2fbf
00000310: 0673 92be 7995 00bf 497b 0abf c994 77bf
00000320: 6d7c 24be d055 b23e 6b58 6dbf 3b8a e2be
00000330: 43fa 11be a8fe 403e e58b f7be 7fce eabe
00000340: d44d 03bf f352 0e3f 1f65 b83e 787a 953d
00000350: 72e7 fdbe 595f f8be 2131 1ebe c474 a4be
00000360: 94a1 173d 46f4 98be ff5f 1dbf 5734 17bd
00000370: 88a9 7bbf b445 a4be f8d0 283d df33 a8be
00000380: 540a c43e c724 b5be 0956 24bd 4c8a a03d
00000390: 7603 c3be 29e7 6b3d e388 eabe e21d 28bd
000003a0: e14f 583e 9fb0 f2be dce2 933e 8417 f6be
000003b0: 5f4d 40be 3c9d 9bbe 43eb dd3c 28d0 b13d
000003c0: 87db e5be 6c5c 773c 7a8d d0be d530 ba3c
000003d0: 6c37 d73d e11e 9cbe 2947 3ebf e2c8 bdbe
000003e0: d538 84bd 8537 80be 0448 c13d 6cfc 3ebe
000003f0: 0044 d4be 0140 3dbe b333 56be 2778 a7be

encoder.dcrnn_cells.0.update.weights_pool f4 [2, 2, 65, 64]
-0.5852562 -0.8230972 0.020095995 -1.1629376 0.6273206 0.36710885 0.45655313 0.33144715
0.26031008 -0.06281986 0.37041423 -0.17935795 -0.8529475 -0.6363535 -0.45022056 0.08056964
0.8650573 -0.011814288 0.042863227 0.8294962 -0.23671202 -0.42897925 0.8265045 -0.3695514
-0.7591015 -0.5113959 0.3457754 0.04703444 -0.39814496 0.11823674 0.90827245 -0.042884257
-0.13670465 0.024040109 -0.8335714 0.49081892 0.04011961 -0.7037858 0.13425983 -0.8639558
-0.07327896 -0.70664054 -0.10127617 -0.59088194 0.051412392 -0.23348327 0.25250316 0.67433006
1.5203056 -0.068447694 -0.027702896 0.01943698 -0.12725687 0.90360284 0.13477443 -0.29335615
0.9790888 0.48819715 -0.5367877 0.40708202 0.09428284 0.026449142 -0.5579404 1.2565867
0.13408625 -0.14833206 0.07162887 -0.19754158 0.24595807 0.3055471 0.0713665 -0.032871302
-0.25573346 0.15634945 0.119940564 0.13409925 -0.26953867 0.25679073 0.02724732 -0.25589484
-0.22600459 0.47338122 0.1761314 0.2163351 -0.102658994 -0.115018256 0.37149063 -0.36477524
-0.17654368 -0.510142 0.5057427 -0.3612702 -0.22679397 -0.0041406443 0.17897916 0.36332786
0.101220146 0.061464384 -0.49492276 -0.21956311 0.015759163 -0.22905247 -0.039855517 -0.41160873
0.2346863 -0.58240163 0.11965817 -0.3102199 -0.33321303 -0.117474556 0.03091488 0.63146156
0.18080762 -0.038763065 -0.19413026 -0.4062906 0.33585352 -0.3807405 0.10993893 -0.34883666
0.226123 0.51509315 -0.27890873 0.32691503 -0.255398 0.20796603 -0.28764752 0.03582633
-0.1609407 0.678934 -0.6322845 -0.29274136 -0.014507792 0.40377218 0.17063308 -0.0061708833
-0.3352251 0.064854704 0.20918 0.44789758 0.17576444 0.18829548 0.2573645 -0.38483685
-0.11967056 0.54812586 -0.40333864 -0.026179627 0.15039176 0.13011585 -0.1906303 -0.3367513
-0.3013079 0.15079115 0.16825801 -0.47268137 0.663059 -0.6950171 0.08673141 -0.17033757
-0.58893794 -0.04823567 -0.12050405 -0.17310709 0.3068147 -0.11289426 -0.14611839 0.11104946
-0.36060193 -0.019492544 0.016848644 0.37893912 0.39407513 0.098769665 0.21368673 -0.176446
0.18620312 0.6010531 0.14088486 -0.15158017 -0.2967719 -0.11827968 0.013568607 0.17234378
0.09567488 -0.15384553 -0.09148119 -0.6552384 -0.2069193 0.14606994 -0.589929 0.07349051
0.16691601 -0.12649971 0.15836845 0.050063416 -0.18736106 0.23433635 -0.26669526 -0.103920795
-0.13188721 -0.38247365 0.30495963 0.024045277 0.019354058 0.14118114 0.023032118 0.014525096
-0.05355151 -0.6128313 -0.39527386 -0.06817029 0.054849837 0.11352118 -0.11991173 0.3235366
-0.0027549898 0.42683497 -0.27496427 -0.1455077 -0.2153431 0.17002672 -0.006945773 -0.011127189
-0.099464536 0.10791842 -0.040533915 -0.2678976 0.100579776 -0.21124418 0.1426136 0.46270943
0.054174464 -0.11791039 -0.11813215 0.041037977 -0.5704704 -0.13905844 0.33113778 -0.13704507
-0.18202579 0.39130726 -0.25156376 0.30136904 -0.3271218 -0.081564054 -0.10270363 0.06459031
-0.026352862 0.104253866 0.13786486 -0.023421241 -0.108608305 0.3295764 -0.10244051 -0.26112393
00000000: 5ad3 15bf 80b6 52bf 5ba0 a43c 24db 94bf
00000010: 1598 203f b1f5 bb3e 55c1 e93e 71b3 a93e
00000020: 5d47 853e b3a7 80bd efa6 bd3e 9ca9 37be
00000030: c45a 5abf 10e8 22bf 4f83 e6be b201 a53d
00000040: 6574 5d3f b790 41bc 5a91 2f3d dd59 543f
00000050: a364 72be 2ba3 dbbe cd95 533f d735 bdbe
00000060: 7a54 42bf d7ea 02bf 7909 b13e 2fa7 403d
00000070: a8d9 cbbe 1b26 f23d 8b84 683f 67a7 2fbd
00000080: 4efc 0bbe c3ef c43c ef64 55bf 9e4c fb3e
00000090: 7654 243d 4e2b 34bf 697b 093e 352c 5dbf
000000a0: 4813 96bd 65e6 34bf e169 cfbd 0a44 17bf
000000b0: cd95 523d 3d16 6fbe 1848 813e e5a0 2c3f
000000c0: 6099 c23f 4e2e 8cbd 2ff1 e2bc 4d3a 9f3c
000000d0: a04f 02be 8452 673f 4f02 0a3e c732 96be
000000e0: 90a5 7a3f faf4 f93e eb6a 09bf 0e6d d03e
000000f0: 5d17 c13d dfab d83c 2fd5 0ebf d5d7 a03f
00000100: e84d 093e 5ce4 17be 28b2 923d 5748 4abe
00000110: 6fdc 7b3e ab70 9c3e 9928 923d 0fa4 06bd
00000120: 7fef 82be 121a 203e 66a3 f53d 5051 093e
00000130: f900 8abe 137a 833e c635 df3c a604 83be
00000140: bf6d 67be 065f f23e ca5b 343e f386 5d3e
00000150: e13e d2bd b18e ebbd 0534 be3e d2c3 babe
00000160: dec7 34be ab98 02bf 5b78 013f 68f8 b8be
00000170: ae3c 68be 3eae 87bb 5046 373e 1c06 ba3e
00000180: 824c cf3d 14c2 7b3d 8466 fdbe 27d5 60be
00000190: 5c19 813c bb8c 6abe 8a3f 23bd 61be d2be
000001a0: 9b51 703e 4618 15bf 580f f53d 25d5 9ebe
000001b0: e69a aabe 8096 f0bd 3441 fd3c 77a7 213f
000001c0: a225 393e 05c6 1ebd 15ca 46be 5205 d0be
000001d0: fef4 ab3e 6bf0 c2be a927 e13d b89a b2be
000001e0: ca8c 673e 25dd 033f 20cd 8ebe 6861 a73e
000001f0: 87c3 82be 0cf5 543e 8946 93be a1be 123d
00000200: a4cd 24be 9ece 2d3f 66dd 21bf 32e2 95be
00000210: 17b2 6dbc 3abb ce3e 70ba 2e3e 1f35 cabb
00000220: a0a2 abbe 8bd2 843d 4833 563e d552 e53e
00000230: 98fb 333e 88d0 403e 48c5 833e 5609 c5be
00000240: d715 f5bd fa51 0c3f 6782 cebe a876 d6bc
00000250: 4c00 1a3e 173d 053e 9734 43be ab6a acbe
00000260: 0745 9abe ff68 1a3e d44b 2c3e 4b03 f2be
00000270: 3cbe 293f a4ec 31bf 3da0 b13d f96c 2ebe
00000280: a3c4 16bf c492 45bd d4ca f6bd fc42 31be
00000290: d116 9d3e 1b35 e7bd 0fa0 15be e66d e33d
000002a0: d1a0 b8be d4ae 9fbc 2b06 8a3c 4f04 c23e
000002b0: 37c4 c93e c047 ca3d b2d0 5a3e 43ae 34be
000002c0: 08ac 3e3e 9ede 193f 1f44 103e d537 1bbe
000002d0: 7df2 97be 9e3c f2bd dd4e 5e3c e37a 303e
000002e0: 31f1 c33d af89 1dbe 7d5a bbbd b4bd 27bf
000002f0: a7e2 53be 5c93 153e 9605 17bf 3182 963d
00000300: 08ec 2a3e 2489 01be 572b 223e 4c0f 4d3d
00000310: 94db 3fbe def5 6f3e 488c 88be 6dd4 d4bd
00000320: 710d 07be 96d3 c3be ab23 9c3e 9afa c43c
00000330: 678c 9e3c ca91 103e daad bc3c abfa 6d3c
00000340: d458 5bbd 83e2 1cbf 5661 cabe dd9c 8bbd
00000350: 39aa 603d cb7d e83d 4894 f5bd 97a6 a53e
00000360: 0f8d 34bb 1d8a da3e 1ec8 8cbe f8ff 14be
00000370: e782 5cbe 7c1b 2e3e 5e99 e3bb d04e 36bc
00000380: 10b4 cbbd 5504 dd3d e406 26bd e029 89be
00000390: c5fc cd3d 6550 58be 4d09 123e 40e8 ec3e
000003a0: 0be6 5d3d 017b f1bd 45ef f1bd 7017 283d
000003b0: 590a 12bf 5665 0ebe e48a a93e 8b55 0cbe
000003c0: f864 3abe 6d59 c83e f7cc 80be 0b4d 9a3e
000003d0: 827c a7be 0e0b a7bd 4856 d2bd ed47 843d
000003e0: f5e1 d7bc 0d83 d53d 722c 0d3e e7dd bfbc
000003f0: 086e debd 3dbe a83e 55cc d1bd 09b2 85be

encoder.dcrnn_cells.0.update.bias_pool f4 [2, 64]
-0.44875592 -0.119260125 -0.24680847 -0.20217322 0.11066414 0.07403858 -0.10863333 -0.30907622
0.28865722 -0.69250953 0.13081998 0.29105937 -0.3173702 -0.38606885 0.29459873 0.34390256
0.7229279 -0.4073318 -0.4354889 0.14644925 0.05387199 0.08871525 0.1465878 0.16045196
-0.471253 0.20798698 -0.10660763 0.35313475 -0.04108714 -0.26575592 0.19983478 -0.57420236
-0.5484081 -0.21133605 -0.040365584 0.5675632 0.24859267 -0.14736143 -0.010453867 0.088207886
-0.5166263 -0.30534375 -0.474129 -0.08920323 0.467845 0.27767792 -0.253854 0.37830937
0.32788983 0.33580112 -0.1468652 0.35660374 -0.38583827 0.5595529 -0.43558046 -0.14451674
0.17294088 0.041852523 0.023297755 0.10923426 0.37252563 -0.42357722 -0.54428303 0.31595036
-0.117148675 -0.34064218 0.20672266 -0.2842939 0.52367485 0.28221336 0.28926024 0.3010018
-0.28906882 0.4785263 0.31868887 -0.42596984 -0.6356355 -0.218768 -0.47217575 -0.03895018
0.2024953 0.36687195 0.39701563 0.23592983 -0.35768798 -0.39030474 0.4085589 -0.35441068
-0.53347933 -0.48690176 0.3340446 -0.26958653 -0.40773797 0.2196846 0.29170626 0.42564315
0.5058367 0.16974793 -0.45777458 0.18980971 -0.24356653 -0.63782233 0.30996192 -0.4163675
0.46549812 -0.45603365 0.60894936 -0.35517102 -0.41679555 -0.31295717 0.19320434 0.53971094
0.12538968 -0.2509775 -0.2711209 -0.35662973 0.31462806 0.17701575 0.2455739 -0.38159642
0.23352993 0.2904623 -0.38029075 0.3344253 -0.18582493 0.40553224 -0.3406349 0.07543905
00000000: 56c3 e5be a73e f4bd 5cbb 7cbe 7f06 4fbe
00000010: e1a3 e23d 8aa1 973d 277b debd 3d3f 9ebe
00000020: e1ca 933e 4e48 31bf acf5 053e bc05 953e
00000030: 597e a2be d1aa c5be a5d5 963e ff13 b03e
00000040: ce11 393f cb8d d0be 67f8 debe cbf6 153e
00000050: e0a8 5c3d 57b0 b53d 1d1b 163e 854d 243e
00000060: 1348 f1be 8afa 543e 1a55 dabd 14ce b43e
00000070: fd4a 28bd 2911 88be 7da1 4c3e edfe 12bf
00000080: 7964 0cbf 7a68 58be 6256 25bd d24b 113f
00000090: 148f 7e3e eae5 16be b246 2bbc 56a6 b43d
000000a0: 9f41 04bf 0456 9cbe 09c1 f2be 2fb0 b6bd
000000b0: 6189 ef3e cd2b 8e3e 27f9 81be c4b1 c13e
000000c0: 2de1 a73e 20ee ab3e d563 16be c494 b63e
000000d0: 988c c5be dc3e 0f3f 6704 dfbe 32fc 13be
000000e0: 6a17 313e 8d6d 2b3d efda be3c 36b6 df3d
000000f0: aebb be3e 1ddf d8be 2256 0bbf 3fc4 a13e
00000100: a5eb efbd a768 aebe 1baf 533e f88e 91be
00000110: 8e0f 063f 457e 903e eb19 943e e81c 9a3e
00000120: d400 94be 6601 f53e 302b a33e b818 dabe
00000130: 02b9 22bf b804 60be 05c1 f1be 398a 1fbd
00000140: ee5a 4f3e a4d6 bb3e a245 cb3e 9797 713e
00000150: e122 b7be 06d6 c7be a22e d13e 5175 b5be
00000160: 1a92 08bf 304b f9be e507 ab3e 3f07 8abe
00000170: 08c3 d0be 00f5 603e 865a 953e e6ed d93e
00000180: 847e 013f 67d2 2d3e 6e61 eabe 7a5d 423e
00000190: 8169 79be 5348 23bf 54b3 9e3e 1f2e d5be
000001a0: c555 ee3e 3e7d e9be 1be4 1b3f fad8 b5be
000001b0: 3a66 d5be ec3b a0be 5cd7 453e 7f2a 0a3f
000001c0: 2766 003e 1f80 80be 5cd0 8abe 2c98 b6be
000001d0: ee16 a13e 9e43 353e b977 7b3e 9b60 c3be
000001e0: 7822 6f3e 79b7 943e 78b5 c2be cb39 ab3e
000001f0: e448 3ebe eca1 cf3e b367 aebe ca7f 9a3d

encoder.dcrnn_cells.1.gate.weights_pool f4 [2, 2, 128, 128]
-0.17864822 -0.18966594 -0.5052725 0.08026818 -0.066553794 -0.04625613 0.033593725 0.6292475
-0.21363033 0.023515759 1.0724235 -0.21043843 0.61763763 -0.3022811 -1.1401219 -0.3293748
0.41430965 -0.58653635 0.05247349 -0.11032501 -0.76258725 -0.06618071 -0.058221087 0.06604826
0.073055916 -0.7612692 0.3454253 -0.088774994 -0.54822534 0.16212167 0.21048266 0.21549599
-0.10807527 0.078164496 0.34168047 -0.14040731 -0.011210944 0.1516681 0.0908716 0.054887626
-0.10604339 -0.07627224 -0.23094986 0.13233238 -0.36141893 -0.07568972 0.5691812 -0.047238544
-0.043812383 0.14969838 0.117683604 0.21573472 -0.31602412 -0.24789734 -0.079820625 -0.20979938
-0.20279093 -0.040631756 -0.03632903 -0.2395613 -0.40028936 -0.33493945 -0.047713812 0.0022847003
-0.35134137 0.46940485 0.9231608 0.52136075 0.3287064 -0.13298458 -0.036568195 0.30665326
1.0162529 0.25117117 0.33662495 0.43670133 0.53533185 0.28087372 0.73840606 1.541915
0.03254223 -0.2667468 0.32269832 0.02562713 -0.03412857 0.5668162 -0.67777467 0.49247164
0.41817528 0.9867512 0.68808174 0.3922363 0.69922984 1.3176702 0.08085936 0.07395992
0.09952564 0.90233994 -0.25552687 0.2173732 1.02228 0.0105544925 0.17133097 0.6469182
0.11425297 0.7765463 -0.078418426 0.066097744 0.8715637 0.7600486 0.36032408 0.7808405
-0.13380782 -0.05097815 -0.07626873 -0.012737212 0.55968565 0.84790033 0.6379687 0.7377944
0.29589865 0.7285526 0.29243264 0.31814462 -0.06387563 0.10150586 -0.0034538468 0.7987532
-0.0036614935 0.8948031 0.3539165 0.032309055 0.065810904 -0.1960064 -0.41956285 0.67913187
-0.39274588 1.0269594 0.94668686 -0.5044913 0.42397672 -1.0453341 -0.059944946 1.6853633
0.2328954 -0.37762392 -0.1406044 -0.20500456 -0.29458493 -0.1788571 -0.22690755 -1.0821415
0.032922145 -0.79198444 0.7117755 -0.6053807 0.19243869 -0.6436879 0.29038852 -0.021203205
0.3873819 0.10903323 0.11105926 0.40867233 0.43053582 -0.372591 -0.16294754 0.35414192
0.8936737 0.35247105 1.1539247 -0.52990353 1.1225547 -0.41061664 0.39026463 -0.22643743
-0.22779825 -0.1815937 -0.39307842 0.23752695 0.19555004 -1.021931 -0.6424223 0.6447853
0.13876867 -1.091303 -0.21837279 -0.28961447 -0.09047609 -0.7092031 -0.61654526 -0.31585014
0.25291985 0.2125327 0.73362845 0.40350235 0.07579693 0.2621467 0.029679375 -0.16460583
0.5489533 0.62931055 0.8547374 0.61627424 0.22360212 0.42459238 0.9095357 0.8135854
-0.44852495 0.24162346 0.4777425 1.1121331 0.15711905 0.42385107 0.82575244 0.2404748
0.5519025 0.46284884 0.34456745 1.0465435 0.47738928 0.50367594 0.65844846 0.48355255
1.0891644 0.08224119 0.57352734 0.23985487 0.34925243 0.7747501 0.4693664 0.6956125
0.13825911 0.45626718 0.39111826 0.42395437 0.74495554 -0.032163005 1.0115565 0.56691027
0.8368831 0.8690757 0.3639492 0.46467534 0.19984217 0.52755284 0.7479026 0.49019578
0.2624708 -0.4545577 0.1567327 0.5852188 -0.009800259 0.58604306 0.40551072 0.7651452
00000000: 8fef 36be ca37 42be 8a59 01bf a563 a43d
00000010: 5b4d 88bd 1177 3dbd 9399 093d 5d16 213f
00000020: e9c1 5abe 1fa4 c03c 2c45 893f 2c7d 57be
00000030: 801d 1e3f 97c4 9abe 84ef 91bf d0a3 a8be
00000040: 6520 d43e 3f27 16bf 71ee 563d 14f2 e1bd
00000050: eb38 43bf c189 87bd 3c79 6ebd 4f44 873d
00000060: 579e 953d 8ae2 42bf 96db b03e aacf b5bd
00000070: 7f58 0cbf 3903 263e c488 573e fbaa 5c3e
00000080: 9156 ddbd b514 a03d bef0 ae3e efc6 0fbe
00000090: 1bae 37bc e24e 1b3e e41a ba3d d9d1 603d
000000a0: 472d d9bd 9f34 9cbd 1f7e 6cbe 2482 073e
000000b0: e70b b9be 3603 9bbd dcb5 113f 347d 41bd
000000c0: 9d74 33bd 884a 193e 1a04 f13d 90e9 5c3e
000000d0: eacd a1be cdd8 7dbe ff78 a3bd a6d5 56be
000000e0: 6da8 4fbe 7c6d 26bd c0cd 14bd 8f4f 75be
000000f0: baf2 ccbe 2f7d abbe 8f6f 43bd e9ba 153b
00000100: 04e3 b3be d555 f03e 4454 6c3f e677 053f
00000110: 354c a83e 1c2d 08be 88c8 15bd a801 9d3e
00000120: 9314 823f 8299 803e 1b5a ac3e 5197 df3e
00000130: 820b 093f aece 8f3e 2e08 3d3f 795d c53f
00000140: 004b 053d 0993 88be b738 a53e fdef d13c
00000150: 66ca 0bbd de1a 113f a482 2dbf 3e25 fc3e
00000160: 121b d63e ba9b 7c3f 2026 303f 32d3 c83e
00000170: ba00 333f 6ba9 a83f 9899 a53d 4c78 973d
00000180: 19d4 cb3d c0ff 663f 6bd4 82be 1597 5e3e
00000190: 12da 823f c0ec 2c3c 6371 2f3e 6e9c 253f
000001a0: 76fd e93d bdcb 463f d799 a0bd 415e 873d
000001b0: cc1e 5f3f 8c92 423f 667c b83e 2ae5 473f
000001c0: eb04 09be 77ce 50bd c832 9cbd bdaf 50bc
000001d0: 8f47 0f3f ff0f 593f eb51 233f 18e0 3c3f
000001e0: 0780 973e 6c82 3a3f bbb9 953e dae3 a23e
000001f0: 3ad1 82bd 4ee2 cf3d ef59 62bb 177b 4c3f
00000200: abf5 6fbb d111 653f 8b34 b53e 8056 043d
00000210: dec7 863d e7b5 48be f1d0 d6be 96db 2d3f
00000220: fd15 c9be 6873 833f 125a 723f 5826 01bf
00000230: 7a13 d93e 82cd 85bf d588 75bd fcb9 d73f
00000240: 227c 6e3e ec57 c1be 9afa 0fbe b7ec 51be
00000250: d6d3 96be 5126 37be 745a 68be 9d83 8abf
00000260: 5fd9 063d 7ebf 4abf eb36 363f 3bfa 1abf
00000270: a60e 453e bbc8 24bf cead 943e 58b2 adbc
00000280: ec56 c63e d04c df3d 0a73 e33d 803d d13e
00000290: 316f dc3e 3fc4 bebe b8db 26be 1752 b53e
000002a0: cdc7 643f 1677 b43e ceb3 933f c2a7 07bf
000002b0: dfaf 8f3f 583c d2be c4d0 c73e 37df 67be
000002c0: f243 69be b3f3 39be 9341 c9be 443a 733e
000002d0: 453e 483e a3ce 82bf ca75 24bf a610 253f
000002e0: 6019 0e3e d1af 8bbf 1e9d 5fbe 5948 94be
000002f0: 874b b9bd 568e 35bf e9d5 1dbf 1cb7 a1be
00000300: b67e 813e 2ca2 593e 13cf 3b3f dc97 ce3e
00000310: 6c3b 9b3d 1838 863e 2922 f33c 6e8e 28be
00000320: 3488 0c3f 7f1a 213f 12d0 5a3f 26c4 1d3f
00000330: f4f7 643e 2c64 d93e 55d7 683f 2247 503f
00000340: 10a5 e5be 246c 773e aa9a f43e 615a 8e3f
00000350: d1e3 203e 0203 d93e 8364 533f 073f 763e
00000360: 7b49 0d3f 86fa ec3e 256b b03e 23f5 853f
00000370: 5e6c f43e e8f0 003f 1490 283f 3394 f73e
00000380: bd69 8b3f 126e a83d b0d2 123f 849c 753e
00000390: 37d1 b23e 0656 463f cb50 f03e a913 323f
000003a0: cc93 0d3e da9b e93e a740 c83e 8c10 d93e
000003b0: 68b5 3e3f 5bbd 03bd af7a 813f 0821 113f
000003c0: f93d 563f bf7b 5e3f 8d57 ba3e ede9 ed3e
000003d0: 6da3 4c3e b40d 073f 8b76 3f3f f1fa fa3e
000003e0: 9362 863e c9bb e8be 897e 203e e6d0 153f
000003f0: 4491 20bc eb06 163f 1a9f cf3e 8ee0 433f

encoder.dcrnn_cells.1.gate.bias_pool f4 [2, 128]
0.6988 0.30941242 0.108045965 0.3727147 0.10026205 0.2473706 0.099014446 0.30280674
-0.17839769 -0.066685975 -0.3639078 0.22971492 -0.12354189 -0.15236115 -0.14694312 -0.12862359
0.084803596 0.12198313 0.07190743 -0.29776922 0.5329989 -0.005384358 -0.3095375 0.180327
0.028075015 0.53374165 0.17940356 0.04232906 0.2443168 0.34403762 -0.124743804 -0.18605359
-0.09870072 0.02760721 -0.11401376 0.15886319 0.030625451 -0.1947779 0.19919242 0.0003200842
0.30934003 -0.24405019 0.29085046 -0.04736182 -0.023719022 -0.23826663 0.07017918 0.16700183
0.11372336 -0.15818584 0.22160274 -0.20718566 0.21832168 0.1869458 -0.14136107 -0.144858
0.16092034 -0.016786747 -0.1301562 0.31095704 -0.5736308 0.031437494 -0.08071124 0.04271014
-0.35254422 -0.56098515 -0.45164564 -0.35269287 -0.58744526 0.12848537 0.026231516 -0.19106436
-0.27002147 0.17005326 -0.050713982 -0.2642598 -0.33924785 -0.029832564 -0.5489744 -0.6946258
-0.14003499 0.11478496 -0.37645936 0.013038799 -0.7352411 -0.4264834 -0.43416864 -0.5564216
-0.518263 -0.4047819 -0.16691828 0.059327677 -0.31205693 -0.35123602 0.5866941 -0.10825566
0.500537 -0.08849553 0.6475629 -0.23157963 0.28014165 0.04727625 0.44078678 0.27164266
0.3625101 0.024952484 0.062601976 0.38075677 -0.04109647 -0.14958395 0.20365167 -0.056440525
0.11146467 0.13632365 -0.13500743 0.31358358 -0.124636315 0.15160038 0.016534394 -0.002479841
0.08311672 0.11717599 0.16371523 -0.2851739 -0.3459017 0.43087393 0.20337558 -0.07154861
-0.27033678 -0.29435575 -0.10784182 0.14221929 0.23468994 -0.46071085 0.011169628 -0.5220663
0.32264477 -0.050441295 -0.6205499 0.01125585 0.013793768 -0.25952646 0.28468725 -0.25687402
-0.5745416 -0.37670007 -0.3407486 -0.026684774 0.013562079 -0.25897506 0.20593348 0.21037374
0.15791745 0.7541223 0.048789117 -0.03634585 -0.19545045 0.18251735 0.002763408 -0.12980436
-0.13355523 -0.019842947 -0.36888218 -0.33837712 -0.30389097 0.061816145 0.08315193 -0.18510479
0.03141649 -0.14922558 -0.11782526 -0.01267166 -0.035724007 0.4476683 -0.054431222 0.15239838
-0.07191523 -0.16045827 -0.21464163 0.20471407 -0.056251947 0.4826724 0.13282855 -0.06012042
-0.38717994 0.4659742 -0.56368864 -0.57746434 0.12605688 -0.07420985 0.3795406 0.1224015
0.52563447 0.43169492 0.041770793 -0.07667816 -0.2722583 0.24759562 -0.2521092 -0.2766056
-0.30540258 -0.027341414 0.03462118 -0.027467525 -0.4413554 0.148089 0.09905282 -0.38760146
0.22951773 0.023168897 0.30404174 -0.0013473111 0.5511168 0.006119727 -0.16005269 -0.6888165
0.0014466519 0.00584652 -0.28363058 0.5303539 0.23244905 -0.20087603 0.7081959 0.025229812
-0.2905154 -0.10664293 -0.012670283 0.19249503 0.6832727 0.15799081 0.0079188505 1.0800972
0.5890924 0.46505636 0.6155345 0.17499092 0.307435 0.19991776 0.4941309 0.8082532
0.3883209 0.3118518 -0.021812297 0.62851983 -0.7237751 0.50816864 0.31985384 0.1921048
0.45539474 -0.15711498 0.18833083 0.29790992 0.5928622 0.91582155 0.75684434 0.41391566
00000000: 8fe4 323f 4e6b 9e3e 3447 dd3d 76d4 be3e
00000010: 3156 cd3d b84e 7d3e 16c8 ca3d 7c09 9b3e
00000020: e2ad 36be a892 88bd 2052 babe 633a 6b3e
00000030: 8803 fdbd 9004 1cbe 4278 16be e7b5 03be
00000040: 82ad ad3d 4bd2 f93d 3444 933d 3575 98be
00000050: 9e72 083f 456f b0bb b37b 9ebe a4a7 383e
00000060: 93fd e53c 4ba3 083f 91b5 373e 3d61 2d3d
00000070: 2f2e 7a3e b325 b03e ae79 ffbd d584 3ebe
00000080: 9a23 cabd 8428 e23c 0c80 e9bd 08ad 223e
00000090: 3ae2 fa3c dc73 47be 19f9 4b3e f9d0 a739
000000a0: d161 9e3e 4be8 79be 5aea 943e 78fe 41bd
000000b0: 654e c2bc 2bfc 73be 1aba 8f3d 8702 2b3e
000000c0: cbe7 e83d 78fb 21be d4eb 623e 7a28 54be
000000d0: b88f 5f3e b86e 3f3e f5c0 10be a855 14be
000000e0: 4dc8 243e 5c84 89bc ab47 05be c335 9f3e
000000f0: 78d9 12bf 9ac4 003d ef4b a5bd d4f0 2e3d
00000100: ad80 b4be b99c 0fbf 193e e7be 2994 b4be
00000110: d062 16bf ab91 033e 7ae3 d63c 60a6 43be
00000120: 4140 8abe 7122 2e3e 77b9 4fbd 0f4d 87be
00000130: e5b1 adbe 6c63 f4bc 9689 0cbf ffd2 31bf
00000140: 5565 0fbe 6114 eb3d 48bf c0be b0a0 553c
00000150: c338 3cbf 085c dabe 5a4b debe a571 0ebf
00000160: e2ac 04bf 933f cfbe a0ec 2abe 9401 733d
00000170: edc5 9fbe 35d5 b3be 9631 163f 25b5 ddbd
00000180: 3123 003f 253d b5bd afc6 253f 3623 6dbe
00000190: ba6e 8f3e bea4 413d ceae e13e bf14 8b3e
000001a0: ec9a b93e 2769 cc3c 7735 803d 8df2 c23e
000001b0: c654 28bd 892c 19be 108a 503e 2e2e 67bd
000001c0: 9747 e43d 6d98 0b3e 633f 0abe 078e a03e
000001d0: 5341 ffbd 213d 1b3e 2373 873c d484 22bb
000001e0: 1939 aa3d f7f9 ef3d f7a4 273e 5002 92be
000001f0: 071a b1be 829b dc3e b041 503e 1488 92bd
00000200: 9569 8abe ccb5 96be 2cdc dcbd efa1 113e
00000210: 8f52 703e 4be2 ebbe d100 373c 23a6 05bf
00000220: b231 a53e 889b 4ebd 5cdc 1ebf 756a 383c
00000230: 42ff 613c a7e0 84be 87c2 913e fe84 83be
00000240: 2915 13bf d5de c0be 9a76 aebe 079a dabc
00000250: 7b33 5e3c 6198 84be 3ae0 523e 376c 573e
00000260: 1db5 213e 290e 413f 19d7 473d 63df 14bd
00000270: 2a24 48be d4e5 3a3e 4b1a 353b 6feb 04be
00000280: b4c2 08be ad8d a2bc 20de bcbe c43f adbe
00000290: 9997 9bbe ed32 7d3d 8f4b aa3d 1c8c 3dbe
000002a0: 94ae 003d 97ce 18be 5f4e f1bd cb9c 4fbc
000002b0: 5653 12bd c834 e53e 46f3 5ebd 520e 1c3e
000002c0: 4b48 93bd 2c4f 24be 04cb 5bbe 91a0 513e
000002d0: 7168 66bd d620 f73e 3504 083e d440 76bd
000002e0: 733c c6be 2c94 ee3e e64d 10bf b4d4 13bf
000002f0: 0e15 013e 55fb 97bd 2553 c23e a3ad fa3d
00000300: fb8f 063f 1e07 dd3e da17 2b3d 7009 9dbd
00000310: 7165 8bbe b589 7d3e 7514 81be 409f 8dbe
00000320: ba5d 9cbe 1afb dfbc f0ce 0d3d 9303 e1bc
00000330: 56f9 e1be a5a4 173e 34dc ca3d b373 c6be
00000340: b206 6b3e b3cc bd3c 5cab 9b3e 4298 b0ba
00000350: fe15 0d3f fe87 c83b dae4 23be 4756 30bf
00000360: 959d bd3a 2a94 bf3b 0738 91be 46c5 073f
00000370: 2007 6e3e 72b2 4dbe 544c 353f c0ae ce3c
00000380: 6fbe 94be 9c67 dabd 0597 4fbc 6b1d 453e
00000390: f6ea 2e3f 58c8 213e 11be 013c a040 8a3f
000003a0: c2ce 163f de1b ee3e ab93 1d3f d230 333e
000003b0: 1f68 9d3e 3eb7 4c3e bafe fc3e afe9 4e3f
000003c0: ffd1 c63e 0aab 9f3e b4af b2bc ade6 203f
000003d0: 5349 39bf 5717 023f e2c3 a33e 1fb7 443e
000003e0: 8029 e93e c0e2 20be ccd9 403e a687 983e
000003f0: d1c5 173f 4873 6a3f 8dc0 413f c1ec d33e

encoder.dcrnn_cells.1.update.weights_pool f4 [2, 2, 128, 64]
-0.5832847 0.5788489 0.5909176 0.43557096 1.1027182 0.4333494 0.20061621 -0.68501174
-1.3801105 0.157764 0.27471167 -0.66113704 -0.67092866 -0.39882007 -0.21997029 0.15531173
0.62225384 0.4074512 0.47534344 0.23982789 -0.55211693 -0.31118882 0.0839968 0.48594916
0.52586985 -1.3403144 -0.602426 0.068762176 -0.68917674 -0.89645267 0.2787125 0.43776634
0.26330003 0.71423084 0.38174802 0.35764664 0.77633363 0.076895334 0.32843477 0.09417166
-0.25064358 -0.38507715 0.6940983 0.188002 0.86130863 -1.2379959 -0.3557368 0.30499572
0.22410771 -0.34179133 -0.36014962 0.020750564 -0.42573318 0.9026525 0.077101275 -0.06812932
0.34266728 -0.47183374 -0.3493224 -0.37441 -0.013827921 0.26848632 0.5413569 1.9686452
0.05086258 0.27513838 0.4425042 0.23582514 0.5064243 0.41386387 0.46537983 -0.63288355
-0.89472866 0.48544124 0.11051015 -0.080626436 -0.76768583 -0.62517494 -0.01397015 -0.07085427
0.13669823 -0.07442573 0.1740235 0.6128202 -0.20335512 -0.32912937 0.15387487 0.29168263
-0.12472521 -0.46106243 -0.2846243 0.22616027 -0.109331876 -0.15004094 0.29770726 -0.2731401
-0.011079536 0.34818676 -0.14949274 0.27691337 -0.41123748 0.32432184 0.15873462 0.003404566
-0.16146952 -0.0652437 -0.035386067 0.38170177 0.6008297 -0.11496002 -0.2582014 0.31225333
0.36132616 -0.10328337 -0.6427443 -0.506767 -0.050115705 0.027583377 -0.14520922 0.047832817
-0.06317014 -0.05969246 -0.13013153 -0.89232403 -0.2456413 0.19621634 0.24749354 0.63924366
-0.19934796 0.1350713 0.4927404 0.28486472 0.060603227 -0.14080924 -0.29796886 -0.05929002
-0.1701899 -0.06607546 -0.17765562 -0.2525442 -0.0828404 -0.029607754 0.24908929 0.17672724
-0.0645648 0.015730008 0.05041089 0.34762663 -0.26665825 0.39470032 -0.22967412 0.74319893
0.14815477 -0.22772333 -0.33010513 -0.055152148 -0.2085498 -0.4031397 -0.4969907 0.0138790775
0.029870722 0.441986 0.114647605 -0.26906407 0.7447327 -0.19292961 -0.2826949 0.116165355
-0.01533451 -0.8371647 0.260611 -0.020258745 0.5252799 -0.051160995 0.124102615 0.37781617
-0.10880365 -0.094389506 -0.1347498 0.5704573 -0.33512196 0.40547246 0.18194091 0.40761796
0.17388117 -0.21684538 -0.27804103 -0.06759002 -0.08508908 0.005804703 0.36072388 0.30569574
-0.6253006 0.5159661 0.7198871 0.95449495 1.1852884 0.7688014 0.5511101 -0.8466151
-1.6215771 1.1838576 0.7392485 -0.725647 -0.94575125 -0.62762916 0.04334902 0.16532423
0.61550075 0.83800495 0.71424955 1.0091312 -0.59791034 -1.0088451 -0.021839628 0.705837
-0.11826402 -1.0623391 -0.57185566 0.15787412 -1.0158192 -0.67378783 0.28408906 0.2817306
0.028867625 0.4854463 0.8676773 0.8518374 0.11367421 0.73677427 -0.12666999 0.1564783
-0.3292258 -0.027908096 0.78374356 0.19153386 0.58911836 -1.072253 -0.0931743 0.7356806
0.76647204 -0.3770253 -0.74728054 0.1888997 -0.3731961 0.46765316 0.85277414 -0.09368952
0.70747566 -0.61192936 -0.50703794 -0.78618044 -0.20561886 0.81369406 0.609296 1.7462838
00000000: 2552 15bf 712f 143f 6046 173f 2803 df3e
00000010: df25 8d3f f9df dd3e 566e 4d3e ee5c 2fbf
00000020: 76a7 b0bf e38c 213e 02a7 8c3e 4740 29bf
00000030: fbc1 2bbf 2532 ccbe e43f 61be 0a0a 1f3e
00000040: 074c 1f3f 729d d03e 3760 f33e 7195 753e
00000050: 8957 0dbf 2454 9fbe 8406 ac3d 54ce f83e
00000060: 689f 063f 6c8f abbf 9738 1abf 2fd3 8c3d
00000070: e36d 30bf ec7d 65bf 68b3 8e3e e922 e03e
00000080: 43cf 863e d5d7 363f 7a74 c33e 761d b73e
00000090: cdbd 463f 4d7b 9d3d 9a28 a83e 12dd c03d
000000a0: 5b54 80be d528 c5be 6db0 313f 9983 403e
000000b0: b97e 5c3f a676 9ebf 2223 b6be 6628 9c3e
000000c0: 7e7c 653e 46ff aebe 8865 b8be 16fd a93c
000000d0: b3f9 d9be 3c14 673f 46e7 9d3d 6387 8bbd
000000e0: 1672 af3e 3194 f1be 63da b2be abb2 bfbe
000000f0: 818e 62bc 0a77 893e 5e96 0a3f 91fc fb3f
00000100: 4855 503d f0de 8c3e e98f e23e 257c 713e
00000110: 06a5 013f f7e5 d33e 4446 ee3e a804 22bf
00000120: f00c 65bf c18b f83e 2553 e23d 791f a5bd
00000130: 0f87 44bf 770b 20bf 0ee3 64bc 0b1c 91bd
00000140: 9ffa 0b3e 846c 98bd 3733 323e c9e1 1c3f
00000150: 533c 50be a583 a8be 6091 1d3e 6d57 953e
00000160: ee6f ffbd 6010 ecbe 47ba 91be 8f96 673e
00000170: 64e9 dfbd 55a4 19be 166d 983e 05d9 8bbe
00000180: f186 35bc 8945 b23e a014 19be 97c7 8d3e
00000190: b88d d2be 830d a63e 548b 223e 241f 5f3b
000001a0: 4458 25be 7d9e 85bd fbf0 10bd 6a6e c33e
000001b0: facf 193f 2970 ebbd f932 84be abdf 9f3e
000001c0: beff b83e 3b86 d3bd e48a 24bf 7bbb 01bf
000001d0: 2046 4dbd 89f6 e13c bab1 14be 58ec 433d
000001e0: 595f 81bd 1580 74bd 3341 05be 596f 64bf
000001f0: 6589 7bbe f0ec 483e f26e 7d3e 79a5 233f
00000200: df21 4cbe 2250 0a3e 7848 fc3e cad9 913e
00000210: 173b 783d 4c30 10be 608f 98be 18da 72bd
00000220: 4346 2ebe 9252 87bd 5beb 35be 794d 81be
00000230: 3aa8 a9bd f68b f2bc 4311 7f3e fcf7 343e
00000240: 8d3a 84bd 38dc 803c a67b 4e3d 1efc b13e
00000250: 6e87 88be 2916 ca3e b12f 6bbe 4942 3e3f
00000260: e2b5 173e 4e30 69be 8a03 a9be 38e7 61bd
00000270: 148e 55be 5468 cebe 9175 febe 1265 633c
00000280: 72b3 f43c fd4b e23e 5dcc ea3d c4c2 89be
00000290: cda6 3e3f 578f 45be 63bd 90be 1ae8 ed3d
000002a0: 993d 7bbc 6d50 56bf ce6e 853e abf5 a5bc
000002b0: be78 063f 318e 51bd 8329 fe3d 1f71 c13e
000002c0: 73d4 debd 494f c1bd dafb 09be 7d09 123f
000002d0: 1b95 abbe 169a cf3e b84e 3a3e 4db3 d03e
000002e0: e80d 323e b70c 5ebe 655b 8ebe a36c 8abd
000002f0: 2f43 aebd 6135 be3b cdb0 b83e 2784 9c3e
00000300: b313 20bf 5b16 043f 854a 383f c859 743f
00000310: 88b7 973f 2bd0 443f 8d15 0d3f c4bb 58bf
00000320: d78f cfbf a588 973f 643f 3d3f 00c4 39bf
00000330: c11c 72bf 4eac 20bf be8e 313d c14a 293e
00000340: 7591 1d3f 7e87 563f 0fd9 363f 362b 813f
00000350: a710 19bf d621 81bf 05e9 b2bc bcb1 343f
00000360: 6834 f2bd bafa 87bf 2265 12bf c1a9 213e
00000370: 5d06 82bf 5c7d 2cbf 1f74 913e fe3e 903e
00000380: cc7b ec3c 6b8c f83e 1920 5e3f 0412 5a3f
00000390: 06ce e83d 3d9d 3c3f c7b5 01be d93b 203e
000003a0: 4990 a8be 859f e4bc 6ba3 483f 7421 443e
000003b0: 76d0 163f 963f 89bf 2bd2 bebd 9055 3c3f
000003c0: 8337 443f 7609 c1be c74d 3fbf ec6e 413e
000003d0: 8f13 bfbe 3c70 ef3e 684f 5a3f 4be0 bfbd
000003e0: 201d 353f 67a7 1cbf 3dcd 01bf 1f43 49bf
000003f0: c08d 52be 414e 503f d3fa 1b3f 3a86 df3f

encoder.dcrnn_cells.1.update.bias_pool f4 [2, 64]
0.38295242 -0.36365604 -0.29400098 -0.13065554 -0.42212883 -0.19614394 -0.24852417 0.55642927
0.92299205 0.14757566 -0.4244859 0.34017313 0.69787955 0.030904127 0.17367336 0.10981644
-0.4158036 -0.36165574 -0.31914452 -0.054466058 0.58470196 -0.08086935 -0.32434762 -0.031507257
0.35908931 0.097631074 0.51157063 -0.009135929 0.49828923 0.072767764 0.29394236 -0.1690327
0.08882495 -0.69602823 -0.12077958 -0.1945232 0.12279911 0.29298085 0.18375209 0.4362725
0.06886978 -0.11255085 0.2320782 -0.34138906 -0.008887667 0.11108407 0.21341017 -0.13318226
-0.046170387 0.14817946 0.32740584 -0.17788534 0.4990205 -0.012691876 0.071407534 0.12242171
-0.3325435 0.12917839 -0.37691504 0.38459724 -0.081962585 -0.25327855 0.056495957 -0.23161511
-0.6246296 0.0605144 0.44053283 0.15946947 0.077511236 0.3303782 0.2754886 -0.021466486
0.50134826 0.40835857 -0.63967276 0.020267488 0.0735062 -0.45784077 0.011734706 0.16148506
-0.0057401005 0.41721344 0.18842977 0.1665412 -0.5161983 0.035556648 -0.20006983 0.05870539
0.07117638 -0.27910045 -0.023160942 0.55848455 -0.5267001 -0.22959405 0.11945316 0.19005212
0.20532022 0.016522842 0.074386425 0.09492481 0.4758854 0.38046092 0.34084848 0.2469352
-0.2861605 -0.029641643 0.36281174 -0.06567443 0.35585704 -0.17611453 -0.3781128 0.38036928
0.32784998 -0.34486434 -0.24302362 -0.21693967 0.22253995 0.398204 0.42865533 0.5445998
0.071532615 -0.5432644 -0.35239547 -0.19311483 -0.3656573 0.38608518 0.41112316 0.034835823
00000000: 5712 c43e 2031 babe 4c87 96be 91ca 05be
00000010: 4521 d8be f5d9 48be 1f7d 7ebe 2672 0e3f
00000020: 3549 6c3f 131e 173e 3756 d9be 2c2b ae3e
00000030: 3ca8 323f a72a fd3c 6ed7 313e 71e7 e03d
00000040: 36e4 d4be f12a b9be e966 a3be cd17 5fbd
00000050: 07af 153f d49e a5bd e410 a6be c10d 01bd
00000060: 8eda b73e cdf2 c73d 4bf6 023f ddae 15bc
00000070: c41f ff3e 4407 953d 9d7f 963e e816 2dbe
00000080: dbe9 b53d e82e 32bf 495b f7bd 1731 47be
00000090: 1a7e fb3d 9601 963e 8229 3c3e 1c5f df3e
000000a0: 990b 8d3d 0f81 e6bd e8a5 6d3e 8cca aebe
000000b0: 949d 11bc 0b80 e33d 3288 5a3e ee60 08be
000000c0: 291d 3dbd 5bbc 173e bda1 a73e 9327 36be
000000d0: 9d7f ff3e 96f1 4fbc 1d3e 923d 3cb8 fa3d
000000e0: 2443 aabe 5747 043e 02fb c0be eee9 c43e
000000f0: 00dc a7bd baad 81be 4e68 673d 832c 6dbe
00000100: bae7 1fbf f3dd 773d 858d e13e f74b 233e
00000110: 36be 9e3d 5527 a93e d70c 8d3e 7cda afbc
00000120: 5c58 003f 6014 d13e 98c1 23bf 0108 a63c
00000130: 6b8a 963d 1b6a eabe ed42 403c 575c 253e
00000140: 7417 bcbb 009d d53e bcf3 403e c789 2a3e
00000150: 9225 04bf d9a3 113d 1bdf 4cbe 1075 703d
00000160: ecc4 913d 41e6 8ebe 04bc bdbc d8f8 0e3f
00000170: d1d5 06bf b41a 6bbe dca3 f43d 069d 423e
00000180: 773f 523e e95a 873c e957 983d f067 c23d
00000190: 40a7 f33e c6cb c23e b183 ae3e 95dc 7c3e
000001a0: a183 92be 08d3 f2bc 76c2 b93e 5180 86bd
000001b0: e532 b63e 5e57 34be 0098 c1be c3bf c23e
000001c0: f4db a73e 0f92 b0be 2fdb 78be 6f25 5ebe
000001d0: 83e1 633e 65e1 cb3e b678 db3e e46a 0b3f
000001e0: b17f 923d 6013 0bbf 2e6d b4be e5bf 45be
000001f0: 6f37 bbbe f5ac c53e bc7e d23e 02b0 0e3d
