model/experiments/PEMSD8/20211022115234/best_model.pth (torch, 604100 bytes, 11 tensors)

node_embeddings f4 [170, 2]
00000000: 8795 d93e 70e8 18bf afc8 213e d50a d9be
00000010: f243 303e 08c3 75be 4603 c93e af9c 19bf
00000020: aa43 2e3e 338e f3be 6680 c93e faf3 adbe
00000030: 09b2 263e 4951 cdbe e1bf 013f 0e8b 99bd
00000040: 1acb a13e 304c 8dbd 1614 723e 2033 2fbf
00000050: 700d 233e 27e4 3abf ae32 563e 81fb 65be
00000060: 3396 ab3e ff8c adbe 5158 153f f64f 09bf
00000070: 7af3 813e 2657 f0be 2ac0 c93e 0f66 d8be
00000080: ec9e bf3e 55af 803c 0e29 aa3e a97f acbe
00000090: 167e ea3e 45b9 dbbe a6ad f13e 5f00 1fbf
000000a0: 3d80 ef3e 8d58 c5be d6c2 643e 39f2 7ebe
000000b0: 7d05 543e bef8 33bf 7d91 6e3f 507e 78be
000000c0: f0bb 9d3f 7176 e23d 034e 243f a3fe f1bd
000000d0: 92f5 dc3d 100d d0be 9763 053e 040c ddbe
000000e0: 0393 ab3e 8c8c adbe 24e9 ab3d 91b6 e1be
000000f0: 4ad1 903d 3f87 ebbe 72a0 4d3d 64bf 2cbe
00000100: 6930 133f 418c 4cbe 701e ea3e cac0 823e
00000110: 4c1a 5c3f 2b4a a13d 7ede 2a3e 7fb8 8dbf
00000120: eda7 423e 80cb 8abe e3b3 123f e9db 89bd
00000130: 8f6c 3a3f d079 1dbe 01d5 b63e e82e c4be
00000140: dda0 c83d cab3 0abf 2780 0d3e 7884 d1be
00000150: 417e 293f 6183 74be fa8f 2b3e e662 bbbe
00000160: d729 6d3e 4e0c 57be ccfb 7e3f 7797 b3be
00000170: 0a1b c43e aa36 f9be 1f9f 0a3e 99f6 9cbe
00000180: 88ff c93e 50e3 2dbf 3f43 d13e ba38 aebd
00000190: b674 fd3e 3d6b 18be a27d fd3e f664 18be
000001a0: ea0f 4d3e 101b 48bf 6764 b83e 5fb1 99be
000001b0: 0d00 843e 504b 6cbe bd9d 923e c3fd bfbe
000001c0: b469 e63e c327 96be 38a8 ea3e 9a6c 7abe
000001d0: 013a f93d de43 d4bd aee0 51ba cfd2 19bf
000001e0: a1f2 803e fceb 07be 3416 ca3e 49d9 2dbf
000001f0: 2982 d23e 7324 653d 0961 2c3f a951 54bf
00000200: 4a74 ce3e 3620 34bf f2b4 523c e1f7 e4be
00000210: 1cc9 5f3d 229f 3fbe 6744 773b 3c62 28bf
00000220: e05a 803e 5f12 a4bd ea0c 6f3e b32d 89be
00000230: 06a4 923e b101 c0be 4a3c 053e 0845 57bf
00000240: 12d9 9f3c ba16 eebe 3a9f 923e 2efd bfbe
00000250: a079 fd3e f660 18be d571 fd3e 7f5f 18be
00000260: 9892 26bd cd19 0ebf 9367 dc3d 0d53 52bf
00000270: 4025 693f 2b6a 87bd 5cfa 053f eab0 3c3d
00000280: d9ff c93e 72e3 2dbf f19e 923e a3ff bfbe
00000290: 1aeb c33e 43e2 5fbe c99d 923e cbfd bfbe
000002a0: 88a4 923e c102 c0be a002 ab3e af39 edbd
000002b0: 5146 383d 39a1 73bf 1adf fd3e 3142 963c
000002c0: 4b25 273e e555 d0bd 4aba b33e a947 20be
000002d0: ac7c fd3e 0471 18be f77b fd3e 9b74 18be
000002e0: 3417 813f a734 b33e 032f 563f 1e10 7dbe
000002f0: 81b8 9e3e 083b 2bbe 5e84 cd3e 4ebf b6bd
00000300: e033 513e 1bd7 17be ad51 243f 2591 90be
00000310: 0cf3 ba3e aafa 94bd cc7c 9d3d 745d 32bf
00000320: 7d41 ab3d d038 a4bd 99c1 373f 2ca0 a5be
00000330: 8b00 983f 1e88 df3d fff1 9d3f 3918 e53d
00000340: 79d9 533e 407f 55be b8d4 103f 4288 373d
00000350: 796c d93d f3c2 12bf 4855 1a3f 7d8c 9cbd
00000360: b7cc e43e b915 de3e 0982 d23e ff22 653d
00000370: a011 d13e 3945 b33d 7588 7d3e 4793 96be
00000380: ca8f a03e 4556 91bd 9aa5 b03e df64 5abd
00000390: 7e23 063f 1bf0 8a3d df83 fd3e 6e5f 18be
000003a0: 98a2 c93e 1c1d 233f 0e3d b93d 1720 1ebf
000003b0: 3934 123d 73eb 22bf 8551 883e 46eb 74be
000003c0: 0fa2 853e 660d 59be 2f00 ca3e d1e2 2dbf
000003d0: e714 ca3e 5bd8 2dbf 41fd c93e 34e0 2dbf
000003e0: 9599 923e 7093 cebe 1a52 ca3e 3f49 2cbf
000003f0: 2a2e 973e 493c 01bf de84 d53e 76fa 28bf
0.42496893 -0.5972967 0.15799211 -0.42391077 0.17213419 -0.2400018 0.3926031 -0.60004705
0.17018 -0.47569427 0.39355773 -0.33975202 0.16278853 -0.40101078 0.5068341 -0.07497226
0.31600267 -0.06899297 0.23640475 -0.68437386 0.15923095 -0.7300438 0.2091777 -0.22459222
0.3351303 -0.33896634 0.58337885 -0.53637636 0.2538107 -0.4694149 0.39404422 -0.42265365
0.37425935 0.015708605 0.33234447 -0.33691147 0.4579932 -0.42914787 0.47202796 -0.6210994
0.46777526 -0.3854412 0.22339949 -0.24897088 0.20705219 -0.70301425 0.9319075 -0.24266934
1.2322979 0.11057747 0.64181536 -0.11816146 0.10789026 -0.40634966 0.13026272 -0.4317323
0.335106 -0.3389629 0.083940774 -0.440846 0.07071169 -0.46001622 0.05020184 -0.16869885
0.57495743 -0.19975378 0.45726347 0.2553771 0.85977626 0.078754745 0.16686437 -1.1071929
0.19009371 -0.27108383 0.57305735 -0.06731398 0.728219 -0.15378499 0.35709384 -0.38317037
0.09796307 -0.54180586 0.13818417 -0.40921378 0.66208273 -0.23878242 0.16754141 -0.3659889
0.23160492 -0.21000788 0.9960296 -0.35076496 0.3830188 -0.48674518 0.13537262 -0.3065689
0.39452767 -0.67924976 0.40871617 -0.085069135 0.49503106 -0.14884658 0.49509913 -0.14882264
0.20025602 -0.78166294 0.360141 -0.30018136 0.2578129 -0.23075604 0.2863597 -0.37498292
0.4500252 -0.2932721 0.45831466 -0.2445549 0.121692665 -0.10364507 -0.0008006197 -0.60087293
0.2518511 -0.13273615 0.39470065 -0.67909676 0.4111493 0.055942964 0.67335564 -0.82937104
0.40323097 -0.7036165 0.012860524 -0.44720367 0.054635152 -0.18713048 0.003772998 -0.65774894
0.25069332 -0.080113165 0.2334477 -0.26792678 0.28640765 -0.3750129 0.1301128 -0.8408971
0.019512687 -0.46501714 0.28637105 -0.37497848 0.49506855 -0.14880738 0.4950091 -0.14880179
-0.040667146 -0.5550812 0.10761943 -0.82157975 0.91072464 -0.06612047 0.52335143 0.046067156
0.3945301 -0.6792518 0.28636888 -0.37499723 0.38265306 -0.21863656 0.28636006 -0.37498316
0.28641152 -0.375021 0.3340044 -0.11583268 0.044988934 -0.9516788 0.49584275 0.01834211
0.1632282 -0.10172633 0.35103065 -0.15652336 0.4950918 -0.14886862 0.4950864 -0.14888231
1.0085206 0.35001108 0.83665484 -0.2471318 0.3100014 -0.16721737 0.4014005 -0.08923207
0.20429945 -0.1482815 0.6418713 -0.28235736 0.36513555 -0.07274373 0.07689819 -0.6967385
0.083621 -0.080186486 0.7177978 -0.32348764 1.1875166 0.10914634 1.2339476 0.11186261
0.20688428 -0.20849323 0.56574583 0.04480768 0.10616393 -0.5732872 0.6028638 -0.076439835
0.44687435 0.43375948 0.41114834 0.055941578 0.4083376 0.087534375 0.24759085 -0.2940924
0.31359702 -0.07096533 0.34501344 -0.053318854 0.52397907 0.06784078 0.49514672 -0.14880154
0.39381862 0.6371629 0.090448484 -0.61767715 0.035694335 -0.63640517 0.26624694 -0.23917875
0.26100203 -0.21196517 0.39453265 -0.6792422 0.39469072 -0.6790826 0.3945103 -0.6792023
0.286328 -0.4034686 0.39515764 -0.67299265 0.29527408 -0.5048261 0.41702932 -0.66007173

encoder.dcrnn_cells.0.gate.weights_pool f4 [2, 2, 65, 128]
00000000: 9ae8 903d 479c 00c0 e7a5 cc3e a72a b1bf
00000010: adcf 83bf e8d2 b6bd c137 debe 9824 cd3e
00000020: a062 8dbf bd2d 39bf 696c 34bf 5c65 bbbe
00000030: 2400 f4be 21e5 8fbf 710d 83be 341c e33c
00000040: 2de5 a1be d480 0dbf 79fa 9ebf 32a0 f0bf
00000050: 5c33 1cbf 403d a4bf 6cf5 07bf 6eb2 05bf
00000060: a1f3 abbf dc23 01bf c4a4 0ac0 c57e 813d
00000070: 99db ecbe 1914 a03e 0b6d cabf 2852 1ebf
00000080: d846 653d 2617 fbbd 52a1 90bf 823f 5ebe
00000090: fb07 a6be db42 48be cda7 d13e 227e 84bf
000000a0: df1a 76bf 5c43 40bf 28db 14bf 8b2f 31bf
000000b0: bd01 693e 2277 0abf 2bb1 c03e b3a3 a1be
000000c0: 0069 b7bf b6b6 65bf 5074 b7bf e9e9 f43c
000000d0: 062b 82bf 15de d83d ad2e 0cbe c2d4 25be
000000e0: 78ee a7bf e644 a0bf 9f41 3cbe fbb5 cebf
000000f0: ff04 f7be a335 9b3e e33f 7cbf be32 98bf
00000100: e7ee 5f3d ef4e fb3e 787b 07be 9df2 393f
00000110: cd8a 88bf 7c08 00be 6c45 463e ea55 b73d
00000120: c83c 0cbe 1a35 cfbd 54d4 febd 4f70 04be
00000130: df91 2b3f 8887 2c3f 2fda 03be 8b94 b4bd
00000140: 9899 25be f7c3 1ebe 937e 1bbe 4c6c 8c3f
00000150: 8262 523e 3e88 7abe b04e 62bf 2322 303f
00000160: feb8 52be cfd2 41be e070 5cbe 24bd 9dbd
00000170: eb09 803d 8175 863d c8f5 363f 40fc f8bd
00000180: 57e8 34be fb6a a5be 6ab8 eabd adbe 233f
00000190: a0d1 32be 071c 593e b7f8 843c b7d3 83bd
000001a0: 3a9d 0ebe f53b 1d3d d687 29be 38c4 4bbf
000001b0: 9a97 debd f339 cebd 5995 cc3d 8a12 0e3e
000001c0: 95c2 f63e 19f8 0bbe b504 50be 5672 c5bd
000001d0: 6c1d e7bd 29ee 53be 14e2 f9bd 90bb 1a3f
000001e0: 8448 c43d 6949 69bd cd04 84bb 838b b3be
000001f0: 977a 50be b5a9 37be ffa7 59bf 36b4 733f
00000200: 418d c3be b741 4abe 3f0a 193e f79b 9ebd
00000210: afdf afbe 35a0 043d 7de3 a0be 1c80 3c3d
00000220: 0854 c1bd 4ea5 1abf b202 9d3d 3e00 fa3d
00000230: 9436 9dbe d2b3 883d e100 49bd 640f ffbc
00000240: ff02 22be 2522 9bbe 93d0 04bf 73af 2ebd
00000250: fbd2 0e3c 079d 433e 7d62 57bd d084 00be
00000260: b217 eabe 71d5 1bbf 92c9 3b3f a33f 06be
00000270: 61d2 4f3d 5417 06be ee26 54bd 2eed 8fbc
00000280: 2f55 4fbe 94f5 bc3e dd55 a23f 72b4 2bbe
00000290: 8196 b4be dcd7 3a3e cbbd 593e bf6a 34be
000002a0: c5b5 ebbb 269b 9bbe 95ce 53bd e62c 613e
000002b0: 845d 47be 41c2 f3bd 9168 8bbd b6fa 493f
000002c0: f91c 00bf f8ec 333d 3e0b d23d ad70 d43c
000002d0: 7170 833e c66b 0bbf 820c 99be e2d8 4dbe
000002e0: cc9b 873d 93b3 2b3e 2df6 b4bd 2b45 a43a
000002f0: 53d3 05bf 305f 90be 824a 4fbe 8d20 48be
00000300: e8ec 5ebd 0dc1 bc3d 1612 f13d 9129 a1be
00000310: 51c6 9a3f d3af 3a3f 557c b73d 8dc8 133e
00000320: d7dd 8a3d 4d28 8d3d d8dd 443f d09d 813e
00000330: 61bb 5ebf b28f 9cbe baf4 c93b 9218 ae3e
00000340: a450 f13e bc59 1dbd cc25 123c 904e 973e
00000350: aa79 8d3f 82bd 773e 8c4d b93d f14e a13c
00000360: 0d78 c0bd b67f 383e 3337 633f 230c d83e
00000370: fc2f 063f c1e9 763e 1aec 403d 0d4f d0bc
00000380: b6ec 6fbd 2ae6 023e dc45 173f f644 013e
00000390: c855 b13e d683 bb3e 6b9e 153e d0cf 93be
000003a0: f2a5 77bd bade 093f 4338 71bc 3760 803e
000003b0: 885c 1c3e 0569 c43e 2e40 083d f922 b63e
000003c0: 3884 dd3b d4b5 39be f0b0 b73d cea3 f3bd
000003d0: 4c68 dc3d ca5d 173e 4b5a 8b3d 34fe 6e3f
000003e0: 2944 e43e 99b6 143f f217 863f 53bf 7abd
000003f0: 16b3 cf3d de51 8e3e 377c ccbc fd7d 223e
0.07075615 -2.0095384 0.39970323 -1.3841141 -1.0297753 -0.08926946 -0.43401912 0.4006698
-1.1045723 -0.72335416 -0.7047792 -0.3660077 -0.47656357 -1.12418 -0.25596192 0.02772341
-0.3162016 -0.552747 -1.2420188 -1.8798888 -0.6101587 -1.2831192 -0.5310886 -0.5222539
-1.3433725 -0.5044534 -2.1663065 0.063230075 -0.4626129 0.31265333 -1.5814527 -0.6184411
0.055975765 -0.122602746 -1.1299231 -0.21703914 -0.32427964 -0.19556753 0.40948334 -1.0350993
-0.9613475 -0.7510278 -0.58146906 -0.6921317 0.2275457 -0.5408803 0.37635168 -0.31570205
-1.4328918 -0.8973192 -1.4332371 0.029896693 -1.016938 0.10589234 -0.1368968 -0.16194442
-1.311965 -1.2521026 -0.18384407 -1.6149286 -0.48246 0.3031436 -0.98534983 -1.1890485
0.054671194 0.4908366 -0.13230693 0.72635823 -1.0667359 -0.12503237 0.1936242 0.08951934
-0.13695061 -0.1011755 -0.12442842 -0.12933467 0.67019457 0.67394304 -0.12876199 -0.08817395
-0.16171873 -0.15504442 -0.15185003 1.097055 0.2054539 -0.24466035 -0.8840132 0.6880209
-0.20578381 -0.18928073 -0.21527433 -0.07702091 0.06251892 0.06565381 0.7146878 -0.12157488
-0.17666756 -0.32308182 -0.114609554 0.63962823 -0.17462778 0.21202098 0.016231878 -0.06436866
-0.13927165 0.038387258 -0.16555724 -0.7959628 -0.108687595 -0.10069647 0.09989423 0.1387426
0.4819533 -0.1366886 -0.20314296 -0.096409485 -0.11284909 -0.2069632 -0.12201324 0.6044245
0.09584144 -0.056954775 -0.0040288926 -0.35067376 -0.20359264 -0.17935832 -0.85021967 0.95196855
-0.38193706 -0.1975163 0.14945315 -0.07744592 -0.34350345 0.032379348 -0.3142356 0.046020612
-0.09439856 -0.60408485 0.0766653 0.122070774 -0.30705702 0.06674923 -0.049073104 -0.031135269
-0.15821455 -0.30299488 -0.5188076 -0.04264779 0.008717294 0.1910287 -0.05258416 -0.12550664
-0.45721203 -0.6087256 0.73354447 -0.13110213 0.050737742 -0.13094836 -0.05179494 -0.01756915
-0.20247339 0.3690611 1.2682453 -0.16768053 -0.35271075 0.18246406 0.21263807 -0.17618845
-0.0071932995 -0.30391806 -0.051710684 0.21989784 -0.19469267 -0.11902285 -0.06807054 0.7889818
-0.5004421 0.043927163 0.102560505 0.025932634 0.25671723 -0.54461324 -0.29892355 -0.20102265
0.06621513 0.16767721 -0.08836017 0.0012532821 -0.5227558 -0.28197622 -0.20243266 -0.19543667
-0.05442515 0.09216509 0.11771028 -0.31477025 1.2091771 0.72924536 0.08959261 0.14431973
0.06780594 0.068924524 0.76901007 0.25315714 -0.8700467 -0.3057838 0.006163207 0.3400312
0.47131836 -0.038415655 0.008920144 0.29552126 1.1052754 0.24193385 0.09047994 0.019690963
-0.09397898 0.18017468 0.887561 0.4219676 0.5241697 0.24112608 0.047100164 -0.02542832
-0.058575355 0.12783113 0.5909097 0.12623963 0.34635758 0.3662402 0.14611213 -0.28869486
-0.060460992 0.5385548 -0.0147228865 0.25073406 0.15269673 0.38361374 0.03326433 0.35573557
0.0067601465 -0.18135768 0.08969295 -0.11896478 0.107620806 0.14781871 0.068043314 0.93356633
0.44583252 0.5809112 1.0476058 -0.061217617 0.1014158 0.27796835 -0.024961574 0.15868373

encoder.dcrnn_cells.0.gate.bias_pool f4 [2, 128]
00000000: 0b53 943e b773 d6bd 7346 033f 52c8 893e
00000010: f1f8 9e3d 4c5e e4bb dc70 44be 976e 5b3b
00000020: e9f6 a73e 79c3 433e b776 9d3d 3d5e e83e
00000030: f7b5 31bf 7fe3 283e 5f23 aa3e e78e 00bd
00000040: dc24 ea3d bbac 0f3e 200d d13e 63dc b7be
00000050: f5b7 d2bc dba2 f4be 1d27 3cbf 38f0 87bd
00000060: 3a18 813e dd45 7dbe 5977 983d 6cab 733e
00000070: 66d1 173e 3020 073d aa11 33bb 04ec e03e
00000080: 2e0e 88bd 93c2 dc3e 27a8 793e 8b96 6e3e
00000090: f633 e3bc bddc efbd 2190 d13c 4031 e7bc
000000a0: 4cd1 a63e c594 5bbe 34f4 0a3d 4fb4 bb3e
000000b0: 4f60 433e 2830 af3e cb01 e0bd a9ee acbc
000000c0: 10c6 413e 6188 ef3e ff6d 02be 4048 da3d
000000d0: ceab 943e 1fd1 3c3e 25ff e33d 84fa 183d
000000e0: b437 aebd b4b6 b23e 1c81 363f 64df 0d3e
000000f0: 3bd6 fb3e 797d f83d 73cf 963e 4831 3a3e
00000100: 99d8 71be 029c 13be ec3e 11be ebbb 87be
00000110: 2c57 6bbf e758 c5bd 8b11 ea3d 55e3 b0be
00000120: f141 0bbe c7be afbe 8fb8 2dbe 51c2 95be
00000130: b2fd 54be d1ee d33d 0635 ddbd a978 75be
00000140: b486 9ebe d644 4fbe 5216 a7be c825 adbe
00000150: 08c4 b13e a6f5 9fbe fb67 45be e0e7 debd
00000160: ab68 873e d3fb 8ebd 0063 38be af36 2bbe
00000170: da28 6fbe 92c1 04bf 7389 a63d 65be c1bd
00000180: 55c8 f7bd a549 303d af4c f9be f057 57bd
00000190: 6916 f9be 923b 9b3d 4ddf 81bb fb6d f2be
000001a0: ec23 c8be 20e5 50be bc7e b2be e9b5 333e
000001b0: a89e b5be 6ac4 a7be 67b7 05be 7ebb bd3e
000001c0: f4f8 50be fe9e 9fbe 5890 36be 7119 3cbd
000001d0: 1d47 adbe 80d0 70be 8df2 5fbc 1c69 bfbe
000001e0: e60d 3abf e251 42bf 8432 42bf 4c8c 243e
000001f0: 9477 87be 3da4 cbbc e648 903e c48c 8f3d
00000200: e00c 9c3d ad98 943c 3abd 8c3e 63a0 d8bd
00000210: c536 02be 10a4 1e3e 1a1f 563d 198b 433e
00000220: ec0b 5d3e 0e56 13be efa9 debe abec 6ebe
00000230: e625 623e 9130 b33d 6759 f83d cf4e 6a3d
00000240: 4807 d5be 9e88 2a3d 9988 efbd 2217 8bbe
00000250: b809 3dbe 9f65 6dbe a41a b73e 5cc8 3ebe
00000260: 6776 3abe 7322 ca3e 7a10 e6be bf70 683e
00000270: b769 bf3d 53d1 923d 6c02 bcbd 219d 0f3e
00000280: 7836 9c3e 3da1 64be 4fd2 c5be c824 cc3d
00000290: bb72 c23d b4a7 95be 7f74 59be f4d9 d8bd
000002a0: d0ce 943e b42a 563d ce25 abbc aa3b 03bf
000002b0: c324 123e a448 363e 51da 02be 301f e1be
000002c0: 957b 15be 8969 7d3d 6cdc 51be a531 893e
000002d0: 1af9 153e 4e5b 58bd 53c1 793e 787f 2dbe
000002e0: 9aad a5be c75f 61be 6049 d1be d540 85be
000002f0: 2a4b 3bbe 2085 ee3e 2b49 613c f43f e83d
00000300: 7499 fdbd 63d9 5bbe 33c8 e6be 3326 ecbe
00000310: 4132 1d3e 16f5 dd3d a483 54be ca23 04bf
00000320: 8ce3 8f3b 5777 d2bc b599 93be e596 bfbd
00000330: 9dc9 e5bd 04fb d2be da24 173e 1e20 ddbe
00000340: ad09 2abf 0a42 a93d 0362 af3e d7cb a6be
00000350: 5a10 c6be 1f42 0a3e e55c eabe cc93 5f3e
00000360: 5b2e 09bf 80ac f7bd 7ba2 f1bd ea6d 9fbe
00000370: 41d2 02bf f5f8 46bf 7ef2 f0be 0762 b7be
00000380: 09fd c03e dca6 873d f1ac 0a3e 6888 6ebf
00000390: f39f 2ebf 7b70 0dbf 186d c53e e5bb 82bf
000003a0: c075 833e d161 ccbe 9057 93bd fdd9 8dbf
000003b0: 1c34 c2be 8a93 1ebd c182 bebe 2b4b d5be
000003c0: 559a 62be 5115 7b3e 0604 c3be 889c aabe
000003d0: 7908 5a3e f10b 5bbe a529 bcbe f1d0 99be
000003e0: d851 553f 7b70 eabd 383b 833d bc2a 73bf
000003f0: 4fee cfbe 0f37 0abf d4af fabf 6a53 5abc
0.28969607 -0.104712896 0.5127937 0.26910645 0.077623256 -0.006969249 -0.19183677 0.0033482665
0.32805565 0.19117536 0.07688659 0.45384398 -0.6941828 0.16493033 0.3323011 -0.031386282
0.114328116 0.14030735 0.40830326 -0.3591033 -0.025722483 -0.477805 -0.7349718 -0.06637615
0.25213796 -0.24733682 0.07444639 0.23795861 0.14825973 0.03298968 -0.002732376 0.43930066
-0.066433296 0.43117198 0.24380551 0.23299615 -0.027734738 -0.11712024 0.025581421 -0.028221726
0.32581556 -0.2144347 0.033924296 0.36661002 0.19079708 0.34216428 -0.10937842 -0.021109896
0.18923211 0.46783736 -0.12737273 0.10658312 0.29037327 0.18439148 0.11132649 0.037348285
-0.08506718 0.34905016 0.71290755 0.13854748 0.49186882 0.12133307 0.29455146 0.18182862
-0.23617782 -0.14414981 -0.14184159 -0.26510558 -0.9192989 -0.096360974 0.11429127 -0.3454844
-0.13599373 -0.3432524 -0.16964935 -0.29249814 -0.20799902 0.10348285 -0.10801129 -0.2397181
-0.30962145 -0.20241103 -0.32634217 -0.33817887 0.34719872 -0.31242102 -0.19277947 -0.108840704
0.26447043 -0.069816254 -0.18006516 -0.16720079 -0.23355427 -0.51857865 0.08131685 -0.09460143
-0.12098757 0.043038983 -0.48691317 -0.052574098 -0.4864991 0.075797215 -0.003963387 -0.47349533
-0.39089906 -0.20399904 -0.34862316 0.17549862 -0.35472608 -0.3276704 -0.13058244 0.37057108
-0.20407468 -0.3117599 -0.178285 -0.0459227 -0.33843318 -0.23517036 -0.013668668 -0.3738488
-0.7267746 -0.75906193 -0.7585833 0.16069144 -0.26458418 -0.024858588 0.28180617 0.07009271
0.07619643 0.018139208 0.27488118 -0.10577466 -0.12716205 0.15492272 0.052275755 0.1909603
0.21586579 -0.14388296 -0.43489024 -0.23332469 0.2208477 0.08749498 0.12126427 0.057204064
-0.41607118 0.041634195 -0.11695976 -0.27166086 -0.18460739 -0.23183297 0.35762513 -0.18631119
-0.1820923 0.39479408 -0.44934446 0.22699259 0.093463354 0.07168832 -0.091801494 0.14024784
0.30510306 -0.22327133 -0.38637015 0.09967953 0.09494539 -0.2922951 -0.21235846 -0.10588446
0.29064035 0.05228682 -0.02089205 -0.51262915 0.14271836 0.17801148 -0.12778594 -0.43969107
-0.14597924 0.061868224 -0.2049424 0.26795688 0.14645806 -0.05282145 0.24390154 -0.16943157
-0.3235901 -0.22009192 -0.40876293 -0.26026025 -0.18290392 0.4658594 0.013750355 0.11340323
-0.123827845 -0.21469645 -0.45074615 -0.46122894 0.15351202 0.10837762 -0.20753342 -0.5161711
0.0043911394 -0.025691671 -0.28828207 -0.09354953 -0.11220095 -0.41207135 0.14760152 -0.43188566
-0.66421014 0.08264549 0.34254465 -0.32577392 -0.3868435 0.13501786 -0.45773998 0.21833724
-0.5358636 -0.12093449 -0.11798569 -0.31138545 -0.5110207 -0.7772363 -0.47060007 -0.35816976
0.3769305 0.06623623 0.13542534 -0.9317689 -0.68212813 -0.55249757 0.38559794 -1.0213591
0.25675774 -0.39918378 -0.071944356 -1.108215 -0.3793038 -0.038714923 -0.37209132 -0.4165891
-0.22129185 0.2451985 -0.38089007 -0.3332255 0.21292295 -0.21391274 -0.36750522 -0.30042222
0.8332801 -0.11447235 0.064077795 -0.9498708 -0.40611503 -0.5399026 -1.9584908 -0.0133255515

encoder.dcrnn_cells.0.update.weights_pool f4 [2, 2, 65, 64]
00000000: c68a de3d 1623 453f 825a 8c3e 656d c2be
00000010: 3c3c bc3f 5588 393e 0339 cabf 68e5 183f
00000020: 4a2e cfbd da0b 543e e643 e73d 0086 28be
00000030: 5d7b ee3f 8cd6 8dbe 8e0f 0bbe 550c a0be
00000040: 06be 73be 2f16 d53c b53a b03d 5258 a33e
00000050: 50df f4bc 8bc1 393c b950 0cc0 300f 553e
00000060: e12a d2be aa2d f13f cd5f 833f cb98 0bbe
00000070: 0f7b b2be 9294 0f3f 60e5 c23e 2fb4 193e
00000080: 948d 603d abcc 6c3e 771a b9bf a484 0ebf
00000090: d164 30be 5b82 adbf ef5c 463e ce13 6cbf
000000a0: aac3 093e 3a4c e73f e339 e73d 35e5 49bf
000000b0: 3f3f dfbd c92e 3bbe d527 603e 6e98 b43f
000000c0: 317b b93e 6c23 47be 4887 353d 7c11 c3bd
000000d0: f324 f23d e670 7cbe ad12 e53d 08e8 4abf
000000e0: c6c7 a03c b1b8 a33f 4c40 93bf aa70 513f
000000f0: a3bb c1bd 1f10 0d3e 93fe 6abf ddc3 c13e
00000100: 7156 893f e62a be3e 4a94 cdbe 6fe6 c13d
00000110: 653e 8fbe b1df fe3d 96c4 3ebe e1da 1fbf
00000120: 5250 673e 8949 6dbe 2187 b93d 9450 fd3d
00000130: a005 cdbd 5b84 41bd 33f7 953d 9f75 39be
00000140: 2a74 09be d97c aabe d8fa 3dbe 6922 dcbe
00000150: f7a5 c8be 0639 66bd 73a8 833d b4b6 1ebe
00000160: 6662 3c3e 4a3a 32bd 8fd3 853e f372 6f3e
00000170: 28b6 ccbd 08e9 5ebe 1508 5cbe 868c 7d3d
00000180: a426 bbbe 9b6a 06bf e077 b73e a946 f6bc
00000190: 77b5 f63c 831e 283f 0a91 91bf 108b 6f3f
000001a0: e0ca 143d 9397 0cbe 55e7 28be 840a 15bd
000001b0: 0db8 a63e 2460 383e ae51 02be a4ba 14bf
000001c0: 24ad 28be 2c28 353e 6211 693e 1526 193f
000001d0: 6c43 34be 9ce6 253f 660e 293d 48aa 13bf
000001e0: debb 08be 2fb0 07bf c407 aa3e 3cf0 ae3e
000001f0: 761d e2bd 7928 4cbe 0f3d 513f 5760 87bd
00000200: 62fb 4dbd 9816 9a3e 68e0 053e 6e6a 18be
00000210: 9eb6 c33e 4569 bd3e 1e9d 983e 96d5 163e
00000220: 9769 73bd 5774 863c 6bec b53e b586 b33b
00000230: 921e fcbe 8870 18be 084b b0bd 50c7 10be
00000240: 84d4 cabe bf7b 293d 0c2b 6d3d 3571 cdbc
00000250: 8d2b eebc 8739 b6be 790e c33e 42df 133e
00000260: b159 733d 9e45 abbd 258f e13e aceb e0bd
00000270: 8572 8cbd be3a c23d bdf6 6e3d 05e0 a83e
00000280: 40c0 ef3c 2702 453f 1b66 22bf ba4e b9be
00000290: 6ae9 1dbe 7cdd 42bf 820f 903e 240d 9ebe
000002a0: 940e 58bd 7359 74be 1f9d 0a3d 2c05 00bf
000002b0: 9fe6 c5bd ca77 b4be 724d 37be d9a7 633f
000002c0: 0143 b33d cd9d eb3a 90f4 23bf beb7 19be
000002d0: 9285 6a3d b749 bbbe be18 203e 5ac6 51bf
000002e0: 0ff2 7dbe 0772 d13e 6b5d b4be 28b4 c53e
000002f0: 14b5 d1be af14 ea3d a2b5 60be cb16 e13d
00000300: fa9c 153f d54d 443e c402 fd3e 6d2e 283e
00000310: ce57 95be b382 493e d80c 873e d407 56be
00000320: a44c 5cbe 2e41 c83e d71f c53d 98b6 edbe
00000330: bc27 3cbe 2254 2a3e d7df c8be 0c67 4abe
00000340: 6f28 153d 6889 473e 93e8 823e 39a9 e3be
00000350: 828b 2dbe f582 96be c09b 473e dba9 26be
00000360: f7a8 a53e 91ba 0ebe 5dad 603e 5f92 63be
00000370: 8614 29bd a4d8 653e 34b7 dabd 7ca9 683e
00000380: 29c6 313e b662 983e ede9 b03e 9e7c b0bd
00000390: a145 1cbe eaf0 d33e 9dbc 5f3e dad9 c6be
000003a0: a1cc ab3e ae34 9bbd 4abb 843e 3ab6 82bf
000003b0: e2b0 d4be 063f 8ebe 8473 4f3f 7997 5abe
000003c0: 20cf 4dbe f39e b1be a7cb 55be b64f 15bf
000003d0: ec1b b93e 8c2a a0bf 443f a53e fd0e 3ebe
000003e0: 71ef 01bf e8d5 65be 60de 073f c163 713f
000003f0: c0bd a6be ee87 483f baed 703d 2952 99be
0.10866313 0.7700666 0.27412802 -0.37974086 1.4705882 0.18118413 -1.5798649 0.59725046
-0.10116251 0.20707646 0.112922475 -0.16457367 1.8631397 -0.2770275 -0.13580152 -0.3125941
-0.23802957 0.026011555 0.086049475 0.3190332 -0.02989164 0.011337648 -2.192427 0.20806575
-0.4104834 1.884206 1.0263611 -0.13632505 -0.3485951 0.56086075 0.38065624 0.15010141
0.05482252 0.2312495 -1.4461201 -0.55671144 -0.17225958 -1.3555406 0.19371389 -0.9221772
0.13453546 1.8070138 0.11290338 -0.7886537 -0.10900735 -0.18279566 0.21890195 1.4109018
0.362268 -0.19447106 0.044318467 -0.09524819 0.11823454 -0.24652442 0.11185203 -0.792603
0.01962651 1.2790738 -1.1503997 0.81812537 -0.09459617 0.13775681 -0.917947 0.37844744
1.0729505 0.37142104 -0.40152198 0.0946778 -0.2797729 0.124450095 -0.18629679 -0.6244336
0.22589234 -0.23172583 0.09058977 0.12368885 -0.100108385 -0.047245365 0.0732254 -0.18111275
-0.1342322 -0.33298376 -0.1855272 -0.42995003 -0.3918912 -0.056206726 0.064286135 -0.15499383
0.18396911 -0.04351262 0.2613797 0.23383693 -0.09995681 -0.21768582 -0.21487458 0.06190159
-0.36552918 -0.5250642 0.35833645 -0.03006299 0.030115826 0.6567156 -1.1372387 0.9357157
0.03632629 -0.13729696 -0.16494496 -0.03638698 0.32562295 0.18005425 -0.12726471 -0.5809729
-0.16472298 0.17691106 0.22760537 0.59823734 -0.17603844 0.64805007 0.041273497 -0.57681704
-0.13352916 -0.5300321 0.3320905 0.3416766 -0.110407755 -0.19937314 0.81733793 -0.06610172
-0.050288565 0.30095363 0.13073885 -0.1488435 0.38225263 0.36994377 0.2980737 0.14729914
-0.05942687 0.016412897 0.35531935 0.005478705 -0.49242073 -0.14886677 -0.08608061 -0.14138532
-0.39615262 0.04137778 0.05790238 -0.025078395 -0.029073501 -0.35590765 0.3809698 0.14440635
0.05941171 -0.08362888 0.44054523 -0.10982451 -0.0685778 0.094838604 0.058340777 0.32983413
0.029266477 0.7695641 -0.6343705 -0.36192876 -0.15421072 -0.7611921 0.28136832 -0.308694
-0.052748278 -0.23862247 0.03384125 -0.5000789 -0.09663128 -0.35247642 -0.17900637 0.8892799
0.08753014 0.0017976105 -0.6404505 -0.15011498 0.05725629 -0.36579677 0.15634438 -0.81943285
-0.2479937 0.40907308 -0.35227522 0.3861401 -0.40958464 0.11429726 -0.21944287 0.109906755
0.5844265 0.19170316 0.49416173 0.1642396 -0.29168552 0.19678764 0.26376987 -0.20901424
-0.21513611 0.39112228 0.096252136 -0.4642837 -0.18374532 0.16633657 -0.39233276 -0.19765872
0.036415514 0.1948601 0.25568065 -0.44465044 -0.1694775 -0.29396787 0.19493008 -0.16275732
0.32355472 -0.13938357 0.21941133 -0.22223805 -0.04127934 0.22445923 -0.106794745 0.22720903
0.17360748 0.2976281 0.3455347 -0.08617519 -0.15260936 0.4139474 0.21849294 -0.38838083
0.33554557 -0.07578407 0.2592414 -1.0211861 -0.415412 -0.27782458 0.8103564 -0.21346845
-0.20098543 -0.3469158 -0.20878468 -0.58324754 0.36154115 -1.2512984 0.3227483 -0.18560405
-0.50755984 -0.2244488 0.5307369 0.9429284 -0.32566643 0.7833241 0.058820464 -0.29945496

encoder.dcrnn_cells.0.update.bias_pool f4 [2, 64]
00000000: 4e49 b1be 9dfe 59be 7c04 72be 7bde 08bf
00000010: 7bd4 0f3b 9497 06be fad4 6a3e 9abd 14be
00000020: 8706 dc3e fc9b a0be f18d 7cbd 6707 873e
00000030: f116 afbe 9d4b 97be a65b 8d3e 3eda 773e
00000040: 61b4 0b3f f72e 78be 00d4 d5be 48ea d63e
00000050: a2de c0bd 2e08 023e 4fa7 8a3e 4987 663d
00000060: cd6d 86be 10f4 3b3e d6d8 733d b9d5 5d3e
00000070: 10e6 af3a 6449 55be 6e39 f93e 7c92 eabe
00000080: cf87 d6be 7f70 a0bc 3997 08be f14b 813e
00000090: d63f 0f3e 4d81 dbbb 80d5 27be 4aea a73d
000000a0: 3382 f6be ce88 07be 2e77 c6be 87e7 f1bd
000000b0: b3fc 9d3e 214e 613e fd63 aabd ba3d 293e
000000c0: f884 dc3e ff0e b43e 03c3 8eba fa64 e93d
000000d0: ffa7 f6be f4bc c33e eba9 2abe 0bc8 cfbe
000000e0: 1951 9c3e 6913 d23d cc78 1abc 1788 563e
000000f0: 52c2 b53e fa57 8ebe 371c 26be 1527 d33e
00000100: 84da a4bd b191 bfbe 1f62 683e 696a d53d
00000110: 8ff4 383f 9817 e13e 8beb 85bd 9058 ae3e
00000120: cd4d 9dbe d0f1 013f 9ab6 f23e 4497 12bf
00000130: fde2 49be 487e 0c3e 1070 23bf 0251 30bc
00000140: 28a2 50be 3fdd c53e bece 0e3f 609a 01be
00000150: 372d 90be 79b9 b9be 0952 0d3e 81f5 c2be
00000160: 2744 37bf 0334 87be 7af7 193f 3131 413d
00000170: 22f8 0abf 5e2a 923e 59e9 15bd 8e59 593e
00000180: 4955 023f a433 9c3e 300f 0dbf 69c3 b23e
00000190: 5773 44be dd2f 23bf ce11 753e 1709 9abe
000001a0: 7b83 1a3f 23ad 00bf 73dc ed3e e1df babe
000001b0: 7e8d e3bd b6c0 9dbe 36bf 3d3d 2093 503f
000001c0: 737c b1bd b0cd 02bf 00b3 9ebe 1a19 a2be
000001d0: 8a09 013f 5fd4 263c 3b19 953e 2c3c 3f3d
000001e0: 3a2a 8a3d 677d e93e d8f6 1ebf c155 6e3c
000001f0: cd94 04be 61b6 003e edd7 f5be 9e27 42be
-0.3462624 -0.21288534 -0.23634523 -0.5346448 0.0021946717 -0.1314376 0.22932807 -0.14525452
0.4297373 -0.31369007 -0.061658803 0.26372835 -0.3419719 -0.29549876 0.27608985 0.24204347
0.5457211 -0.24236666 -0.41763306 0.41975617 -0.09417464 0.12698433 0.2708077 0.05628136
-0.26255646 0.18354821 0.059532963 0.2166356 0.0013420004 -0.20828778 0.48676628 -0.45814884
-0.4190049 -0.019584892 -0.13338937 0.2525325 0.13989195 -0.0066987635 -0.16390038 0.08198984
-0.4814621 -0.1323578 -0.38762802 -0.118117385 0.30856857 0.2200246 -0.083198525 0.16527453
0.43070197 0.3516769 -0.0010891858 0.11396213 -0.48175046 0.38230097 -0.16666381 -0.40582308
0.30530623 0.102576084 -0.009428214 0.20950352 0.35499817 -0.27801496 -0.162217 0.41240755
-0.08049491 -0.3741584 0.2269368 0.10420687 0.72248167 0.43963313 -0.06539067 0.34051943
-0.3072342 0.507596 0.4740494 -0.57262063 -0.19715495 0.13720047 -0.6384287 -0.010761501
-0.20374358 0.3864536 0.55784214 -0.12656546 -0.28159496 -0.36274317 0.13800825 -0.3807793
-0.7158837 -0.2640687 0.60143244 0.047166053 -0.5428487 0.2854795 -0.03659949 0.21225569
0.50911385 0.3050815 -0.551013 0.3491471 -0.19184624 -0.6374491 0.23932573 -0.3008506
0.60356873 -0.50264186 0.46457252 -0.3649893 -0.11110972 -0.3081109 0.04632493 0.81474495
-0.08666315 -0.51095104 -0.3099594 -0.31659776 0.5040518 0.010182469 0.29120812 0.046688244
0.06746335 0.45603487 -0.62095404 0.0145468125 -0.12947388 0.12569572 -0.480163 -0.18960425

encoder.dcrnn_cells.1.gate.weights_pool f4 [2, 2, 128, 128]
00000000: 0f7a 20bf 6484 8a3d 9d63 1a3f 8631 963c
00000010: 5c47 52bf 43de ebbe 0a9c 5c3f 94ac f1be
00000020: a8ff e4bd cd84 4d3f c6c1 02be 1b20 10bd
00000030: dfce 15bf bcc5 92be 8be5 e53d 98ae b9be
00000040: 558d a63f b4f6 40be 1517 393f 6025 893e
00000050: ecca f4bd 5735 833d 437b edbe 042a 38bf
00000060: a757 d2bd d1c6 66be f9fd 9abd 0c0b 7d3f
00000070: 7aae f8be a53e 51bf 9c4d 413f eb23 823f
00000080: 3cd3 0dbe 18a4 63c0 d245 353f f050 b63f
00000090: be45 053f d3cc b7bf e52f a7be 8d79 503f
000000a0: 7575 313d 143c ab3d d015 96bd e473 433f
000000b0: 7333 ac3e 01ae f63e 6c7d 9dbf 7454 023f
000000c0: 8cd6 eb3f df34 7ebe 36ae 573f 539c c5be
000000d0: e59b debf 68d0 91be c2b6 7dbd 3eca 1a3d
000000e0: 2854 f93d 36a5 e1bd 70a6 03bf 934f 1c3f
000000f0: 81a0 87bf 156c d13f 0207 da3e 8970 1abe
00000100: c972 2e3f f5f2 52be fb12 183f bef4 1b3f
00000110: d827 e3bb e4d8 093e a5bd 853e 7542 e93e
00000120: dd85 87be dc85 4a3e 5dc9 9cbc 3394 42bc
00000130: 1d1f 2dbd d6ec b6ba 0574 093e 0947 533e
00000140: 82f7 593e c987 2d3b acea fa3e 12ed 543f
00000150: 1b1b 333f 210a 36bf 27f8 803e 01f8 23be
00000160: 8215 1b3f e351 983e 1231 5f3d 6b76 ad3f
00000170: e2f0 893e 2f18 243e 0e2d ce3e 7f32 633f
00000180: 79c4 9a3f 03cc f63e 7672 c63e 7e23 e83e
00000190: ba76 21bf e552 243e ce5d 1a3f ff7c dd3e
000001a0: e356 d1be 2e23 14be 9583 0f3e bb9a 8a3e
000001b0: b63b 963e e780 b5bd 9d32 a83e 3b91 5c3f
000001c0: 28aa 013f 09d1 953e 28e4 a63f 6a77 16be
000001d0: 76c4 483f fd7d ae3e e2bd 3b3f 4b9a a23e
000001e0: bb14 863f e89a 633e 83e6 463e 7dd0 443f
000001f0: ea80 313e ba6b 053f 3e13 9b3e 6d7c 513e
00000200: ae32 36bd a4de 42bd 9a9a b53e 7d99 013e
00000210: 8281 30bf 674b debe 7179 143f 8d6a c0be
00000220: 4d85 b3bd 987f 5a3e 7ddf 77be b6db 99bc
00000230: b7c3 babe 58b2 0ebf 86b6 643f c1d1 10bf
00000240: 67ac 5dbf 543e 8fbe 93c8 b7be 24ef 49bf
00000250: 49fd a4be bb23 86be b34c 8cbe b659 08bf
00000260: e965 adbe aa47 04bf fc84 86bf ed57 013f
00000270: 1dc5 a9be 1a12 9cbf 70c1 463f 7d4a 6b3f
00000280: d32f babd 4904 8cbe 6c96 363f a281 8d3e
00000290: c505 b53f f784 93bf a251 9f3d dd85 13be
000002a0: 7c5e 1abf 5221 9c3c 815a 92be 279a 1e3f
000002b0: ce48 00bd 04be 45be 7795 313f 03e8 16bf
000002c0: 4f22 443f 2ee7 233f 443d 11be ea61 72be
000002d0: d475 9cbf fd15 cb3b 3dcc 5abd 596d fe3d
000002e0: 2c53 99be fa8c e83e 8310 e5be 66d7 3cbf
000002f0: d4fa 99bc 256d 9b3e a4b7 90bf 732f eebe
00000300: f51c e23e 2799 e03e 9341 debe d232 9cbd
00000310: 132c fe3d 8736 863e f712 5fbe 7ed8 833d
00000320: 70bb 26bf ff8a 38bd 9d06 d13e 189c bd3e
00000330: 9a47 8a3e ed16 c53e 84da 57bf 651e 1b3f
00000340: dbfd f9be cec6 8e3e 1027 d5be 098b 9b3e
00000350: 1652 8d3e db04 983e b152 f5be 659e 363e
00000360: 6656 f2bd b8ad f8be f694 923e c0cc 023f
00000370: 16ce 98be 6c14 713f ee35 85be b410 bcbe
00000380: e416 16bf 1a6e 5a3d ca71 38be af9a 82be
00000390: a342 923e 719f 06bf 5fb3 9d3e 45f3 5a3e
000003a0: 8e31 f9bc a3b6 8c3d f808 613e 2f8d e0bd
000003b0: 3598 3d3e 7a0d cf3e 12b6 7dbe f7b0 093e
000003c0: c7cc 68be 5c4a bcbe a8d3 c03d a0e3 5bbe
000003d0: 1697 dbbe e7ad 1ebf 04ae 18be 8c71 9dbf
000003e0: 146b 3dbf b4e5 cbbe 7b41 edbd 5e23 143c
000003f0: 87f5 023e d82e 933e 916e a2bd 9ac4 5bbd
-0.62686247 0.06763533 0.6030825 0.018334161 -0.82140136 -0.4606801 0.86175597 -0.4720198
-0.11181575 0.8028076 -0.12769231 -0.03518687 -0.58518785 -0.28666484 0.112254225 -0.36266017
1.3011881 -0.1884411 0.72300845 0.26786327 -0.11952767 0.06406658 -0.46383104 -0.7193911
-0.102706246 -0.2253678 -0.07567973 0.9884498 -0.48570615 -0.8173621 0.7550905 1.0167211
-0.13850111 -3.5568905 0.7080966 1.424345 0.52059543 -1.4359382 -0.32653728 0.8143547
0.043324906 0.08361068 -0.07328379 0.7634871 0.33633003 0.4817963 -1.2303901 0.50910115
1.842485 -0.24824856 0.842502 -0.38595828 -1.7391325 -0.28479314 -0.06194187 0.03779053
0.12174255 -0.110178396 -0.5142584 0.6105892 -1.0595857 1.6361109 0.42583472 -0.15081991
0.681439 -0.20600493 0.5940396 0.6092032 -0.00693224 0.13461643 0.2612125 0.45558515
-0.26469317 0.19777626 -0.019138986 -0.011876154 -0.042266 -0.0013956081 0.13423164 0.20632567
0.21285823 0.002647864 0.49007165 0.8317424 0.69963235 -0.71109205 0.25189325 -0.16012575
0.60579693 0.29749975 0.054490156 1.3551763 0.26941592 0.1602485 0.4026875 0.88748926
1.2091209 0.48202524 0.38759202 0.45339578 -0.6307179 0.16047247 0.60299385 0.43259427
-0.40886602 -0.14466545 0.14015038 0.27071175 0.2934243 -0.08862477 0.32851115 0.86159104
0.5065026 0.29261044 1.3038378 -0.1469399 0.78424776 0.34080496 0.73336613 0.3175834
1.0475076 0.22227061 0.1942387 0.7688063 0.17334333 0.521175 0.30288118 0.20457621
-0.044481926 -0.047575608 0.35469514 0.12656207 -0.68947613 -0.43416902 0.57997805 -0.37581292
-0.087656595 0.21337736 -0.24206348 -0.018781524 -0.36477444 -0.5574088 0.8934101 -0.5657006
-0.8659119 -0.2797724 -0.35895213 -0.78880525 -0.3222449 -0.26199135 -0.27402267 -0.5326189
-0.33866814 -0.5167185 -1.0509334 0.5052479 -0.33158198 -1.2193024 0.7763891 0.91910535
-0.09091153 -0.2734702 0.71323276 0.27637964 1.4142386 -1.1524953 0.07779242 -0.14406534
-0.6030042 0.019058857 -0.28584674 0.6195397 -0.031319432 -0.19310766 0.6936869 -0.5894777
0.7661485 0.6402463 -0.14183527 -0.23670164 -1.2223458 0.0061976896 -0.053417433 0.124232
-0.29946268 0.45420057 -0.4473916 -0.7376617 -0.018796362 0.30356708 -1.1306043 -0.46520576
0.44162717 0.43866846 -0.43409404 -0.07626881 0.1241075 0.26213476 -0.21784578 0.06437777
-0.65129757 -0.045054432 0.40825358 0.37033153 0.27007753 0.38494053 -0.84317803 0.60593253
-0.4882649 0.2788605 -0.41631365 0.30379513 0.2760169 0.29691204 -0.4791465 0.1783386
-0.118328854 -0.48570037 0.28629273 0.51093674 -0.2984473 0.94171786 -0.26017708 -0.36731493
-0.5862868 0.053327657 -0.18012157 -0.2550864 0.28566465 -0.5258704 0.30800912 0.21381862
-0.030419137 0.06870773 0.21976078 -0.10964429 0.18515094 0.4043997 -0.24776486 0.13446413
-0.22734366 -0.36775482 0.0941537 -0.21473551 -0.42888707 -0.61984104 -0.14910132 -1.2300277
-0.73991513 -0.39823687 -0.11584755 0.009041635 0.12788974 0.28746676 -0.07931245 -0.05365429

encoder.dcrnn_cells.1.gate.bias_pool f4 [2, 128]
00000000: 016e 463f 4caf 80bb c118 0f3f 5c5e db3c
00000010: 620e 713e 2740 8e3e 549f 263e b775 073f
00000020: 7846 0abf 7f52 47be 1962 933e e7bf c5bd
00000030: 1710 c9bd d188 053e 3153 a03e 6ca3 97bd
00000040: 1287 2bbf ed99 393e 9214 d03e 42a7 d9be
00000050: b207 a5bd d0a7 e2bb 4e91 443e 5ec2 5d3e
00000060: 984a 753d 2c13 1a3f 20ec 70be bd77 9c3c
00000070: 68bb edbd dd5f f83d 89dd df3d 5787 aa3d
00000080: fd98 2bbe 4c4e f1bd 501c 813d eeba d53e
00000090: e0e8 673e eaf6 923e 5fe4 9a3e f90a d5bd
000000a0: df72 db3d 9457 253d 862d 03bd 534f 28bd
000000b0: 41e0 08be 6ac7 70be d7d2 523d b739 51be
000000c0: 6b49 cd3e 8ee2 69bd dfa3 debd 2bd1 a13c
000000d0: 8946 2bbe c962 dabc 4140 913e 4c12 b7bd
000000e0: dd92 943e d4a8 04be 1d93 6d3e 5dc8 923e
000000f0: c858 efbd 0d2e 00bd 3d36 b63c bfd3 313e
00000100: 6e5e c6be a1e8 1f3d f58e c0bf bd21 2ebe
00000110: d623 043f 18c9 9cbe d798 b2bf 5bee fabe
00000120: 56cd babe d49c b0bd 735e 2abf d44a ec3e
00000130: 96d1 8bbe f54c 33bf c623 7abe 83db 16bf
00000140: 12e1 83bf f80c 6a3a b133 81bf e4b3 6d3e
00000150: a8f6 71be bf16 15bf 3357 e5be bc06 fa3e
00000160: 472b f43c 4536 843e 73a0 e5be 2dac 773d
00000170: f53d 0fbf 38c5 08be a315 27bf cdcb 9cbf
00000180: 700c d53e b335 86bf 341f 68bf 74db 82bf
00000190: c1af 7c3e 39f7 a7be ce05 9cbf ed4c 69bd
000001a0: b97f c03e 79d7 4e3e ee1a 053e db68 27bf
000001b0: 943f 4d3e 3dc9 223e 1d24 8fbf d93a 23bf
000001c0: 5016 bbbf 7362 a1bf 3aea 5d3f 92d4 28be
000001d0: f3ad 8cbf 65ac e13f 89e5 7abf 31f5 0f3f
000001e0: cbe9 81bf b49b 1ebf 3426 27bf 0096 8abf
000001f0: 91b7 11be c084 adbe 8e21 04be d611 fe3d
00000200: 89e9 833e 516c 0bbd b2c8 f4be 0058 a63d
00000210: d004 223d 0ecd 69be 4da9 633e 60dd 05bd
00000220: 4a51 203e fb08 6e3d 6a19 61be b2e3 483e
00000230: a5f2 903d 7947 b7bd 7b06 313d fcfc 113e
00000240: 46db 0cbe a0ff 7b3d 3413 e6be 46a4 9c3e
00000250: 5b89 2d3e 40d6 50be 0dc2 8c3d 3916 1b3e
00000260: ece4 f3bd 893b 473e ebb3 ad3e e182 0a3e
00000270: b715 07be 1f90 023e 93ca efbd 0f6b 22be
00000280: 24f4 1f3e d16c 983c ee7e 6cbe ba15 bfbe
00000290: 16dd dbbd f406 82bc c837 c53c 22e7 69be
000002a0: a9b1 8e3e ad6f fa3d af43 783d 4612 323d
000002b0: da36 aa3e ade2 a43e aa17 833d 4bb1 1b3d
000002c0: b231 313c 34cf bbbd 5821 8e3d d502 dabd
000002d0: 7c19 663c 2ef4 87be c7fd 83be 59dc cc3c
000002e0: 6f62 89be 2d3c 22be f801 51be 60c3 babe
000002f0: b620 afbc 6125 b33e afac 22be da84 47be
00000300: 14e5 b63e b02a ac3e 3153 833f 216f 973f
00000310: f353 923f 7849 293e 4f4a 193f 307f aa3f
00000320: d956 fe3f 70d2 023f b642 523f a292 aabe
00000330: 58df ab3e f161 073f bdc4 d23f c085 e53e
00000340: 2008 903f 2d2c b93f 5432 a83f 5b50 f03d
00000350: 2ad9 c83e cae7 ac3e ac82 31bf 78af d53f
00000360: 2bf1 413f 2855 583e b6a1 f43e 9082 093f
00000370: b59e 853f c15f e8bc a17c 253f 32cd c63f
00000380: f0b7 abbd 696e 043f fae1 7f3f 97d8 9a3f
00000390: af93 963e 2eb2 82bd 0674 5b3f 7afa 353f
000003a0: dae3 9f3e c889 543f 742c f03e 3ebd af3f
000003b0: 3bce de3e e831 18be 7e9b 7b3f 8f31 213f
000003c0: 466d 943f 4f27 263f c45f 46be b8d2 58be
000003d0: 2632 613f 625c f23c 6841 ce3f 3369 26bb
000003e0: dda6 463f 9f16 df3f eee7 ac3f 2ddb 693f
000003f0: 0ff4 abbd 369f c33f 86ed ac3e 36cb c83e
0.775116 -0.003927147 0.55897146 0.026778392 0.23540643 0.2778332 0.16271716 0.52913994
-0.54013777 -0.19465064 0.2878578 -0.09655743 -0.09817522 0.13040473 0.3131347 -0.07404217
-0.67002976 0.18125124 0.40640694 -0.4251042 -0.080581084 -0.0069169775 0.19196054 0.21656176
0.05988559 0.60185504 -0.23527575 0.019100064 -0.116080105 0.121276595 0.10930926 0.08326595
-0.16757579 -0.11782512 0.06304228 0.4174418 0.22647429 0.28704005 0.30252358 -0.104024835
0.10715269 0.040366724 -0.032025836 -0.041091274 -0.13366796 -0.2351357 0.051470604 -0.20432173
0.40095076 -0.057100825 -0.108711 0.01975306 -0.16726126 -0.026658433 0.28369334 -0.08939037
0.29018298 -0.12955028 0.2320065 0.2866849 -0.116868556 -0.031293917 0.02224266 0.17365931
-0.3874392 0.03904021 -1.5043627 -0.17005058 0.5161718 -0.30622172 -1.3952893 -0.49009976
-0.36484784 -0.086236626 -0.6655037 0.4615084 -0.2730834 -0.700393 -0.24427709 -0.589287
-1.0303061 0.0008928324 -1.00939 0.23213154 -0.23629248 -0.5823783 -0.4479309 0.48833263
0.029805792 0.25822654 -0.44848976 0.060466934 -0.55953914 -0.13356483 -0.6526739 -1.2249695
0.41611052 -1.0485138 -0.9067261 -1.0223222 0.2467642 -0.32805803 -1.2189271 -0.056958128
0.37597445 0.20199384 0.12998554 -0.6539437 0.20043784 0.15897079 -1.1182896 -0.6376167
-1.4616184 -1.2608169 0.86685526 -0.16487339 -1.0990585 1.7630736 -0.9800649 0.5623351
-1.0149473 -0.61956334 -0.6529267 -1.0827026 -0.14230181 -0.33890343 -0.12903425 0.12405746
0.2576411 -0.034038845 -0.47809368 0.081222534 0.03955537 -0.22832128 0.22232552 -0.032681823
0.1565601 0.058114033 -0.21982351 0.19618109 0.07077531 -0.08949179 0.04321907 0.14256662
-0.13755521 0.06152308 -0.44936526 0.3059408 0.16946928 -0.2039423 0.0687295 0.15145196
-0.11908898 0.19456305 0.3392633 0.13526489 -0.13191877 0.1275029 -0.1170856 -0.15861152
0.15620476 0.018606575 -0.23095295 -0.37321264 -0.10735528 -0.015872456 0.02407445 -0.22842076
0.2786992 0.12228332 0.060611423 0.04347446 0.33244973 0.3220419 0.06400998 0.038010877
0.010815071 -0.0917038 0.069399536 -0.106450714 0.014044162 -0.26553482 -0.25779554 0.025007414
-0.2683291 -0.15843268 -0.20410907 -0.36477184 -0.021377902 0.34989455 -0.15886186 -0.19484273
0.35721648 0.33626318 1.0259763 1.1830789 1.1431869 0.16531932 0.5987901 1.3320065
1.9870254 0.5110235 0.8213304 -0.33314997 0.33568835 0.5288382 1.646629 0.44828606
1.125248 1.4466606 1.3140359 0.117340766 0.39228183 0.3377059 -0.69340014 1.6694174
0.7575862 0.21126235 0.47779626 0.5371485 1.0439059 -0.028365972 0.64643294 1.5531371
-0.08384693 0.5173097 0.9995419 1.2097348 0.2940955 -0.06381641 0.8572391 0.7108532
0.31228524 0.8302274 0.46908915 1.3729627 0.43516716 -0.14862788 0.9828414 0.62966245
1.1595848 0.6490373 -0.19372469 -0.21174133 0.87967145 0.029585067 1.611371 -0.0025392293
0.77598363 1.7428778 1.3508279 0.9135006 -0.0839616 1.5282962 0.33774966 0.39217538

encoder.dcrnn_cells.1.update.weights_pool f4 [2, 2, 128, 64]
00000000: f7b7 e93d e6c3 5bbe 384b bc3e 31e8 11be
00000010: 072c 763e 4fb0 7abd 4705 a43d 9faf 7ebd
00000020: c760 97bd bfc2 cb3c dc48 f83c ac39 4cbd
00000030: 5dae 8b3e bb53 763c 256a 50be 5571 90bc
00000040: 9ce8 af3e 8d0a 263e 0b85 fa3a c5ed 963e
00000050: c302 da3e 8f74 543f 8456 d53d 274f 9dbe
00000060: b5ce 86be fa5d 8b3a 93cc 223e bd16 903e
00000070: a575 21be b293 90be ecc7 c33d d6b3 25bf
00000080: 037a cf3d 04b6 3abd e911 043e a256 753e
00000090: ce66 fdbd 7297 b3bd 88dc c43e 57cc 27be
000000a0: 7f91 0fbd 38c2 95be e5f4 293e 0a45 f8be
000000b0: bba1 4cbe aa50 293c efdb 31be c112 21bf
000000c0: be09 223f ff7a f33d 05a6 b0be 675b 3fbe
000000d0: c0f8 9e3f afec 74be a92a 373d 210a e4be
000000e0: 1b6e 9abe 387d c33d 5948 ddbe 3e52 d1be
000000f0: ff54 b0bc 0e87 8d3d b8ee bd3e 934a 163e
00000100: 4b6a 283e 8fa0 47be af87 4e3e 96be 86be
00000110: b394 993e 09d2 a9be 1995 0c3f 71cb 05be
00000120: 4d26 dc3b f6bf ffbd 8b08 c5bc cd6c 803e
00000130: 37cc 19bf 0473 163f 5f0e f1bd 74b0 60be
00000140: 30db 523e 684f 24bf 41cf 9bbb e14f 103f
00000150: 59f8 443f 2429 00bf a1de 1e3d abe6 9f3e
00000160: 1d68 3ebe 5aa4 043e 7e2c 0f3e d55c e33e
00000170: d6a9 99be beb1 1cbe deed aabe 3dea 85be
00000180: 49d0 abbe e5bb 523e 3e46 9fbb 924f 7b3e
00000190: 1f2f b9bb 47d0 93be e43e e33e 9adb 0abf
000001a0: 3996 2cbe abb1 fdbe d9af 4bbc 7ff8 77be
000001b0: 77ce 16be 645d a63e bba8 7abe ef66 9dbe
000001c0: a871 313e 8008 cbbd 5bd1 92be c022 d73d
000001d0: 4239 7b3f 7c85 603b ddda 453e 141f 0cbc
000001e0: 4676 6b3d c747 303e 3c05 abbe 4195 8dbd
000001f0: 794c be3c 7de4 bfbd 04d3 a03b d6d3 503e
00000200: 1c72 603d 95cb 10bd 8864 a63e af09 52be
00000210: 323d f03b 540b 1dbe 62f6 de3e 3195 cb3a
00000220: 5695 febd 89ac fdbd b7fe 443d ebe3 563e
00000230: c86c c93d a0b7 403e f880 babd f425 743e
00000240: 7755 843e 2090 d5bd 8bd1 853e 83f7 c83e
00000250: f318 1f3e 4de1 5e3e df4b 613e 37ea 03be
00000260: a06f 11be c43e be3d f62e 17be a5e0 4f3f
00000270: ccba 4bbf c1e9 a4be acfb d93e d632 eb3e
00000280: 62f4 aabd fc3e d4bd 4119 bf3e aff4 573f
00000290: fda9 17bd 2975 8cbe 271e 593b 1742 9fbe
000002a0: 182b c43d 71dc bfbd 9af4 a63c 35bd 2ebf
000002b0: 2780 5dbe 43df 4d3d 75c2 2abf 180c 39bf
000002c0: 8569 d13e 9faf 97be 340d 08bf 18fc a8be
000002d0: 565a 6f3a b3cb 1fbe 6186 ed3e 2f9f 16be
000002e0: bcf3 05be e39e 713f 34f2 eabe 4808 87be
000002f0: 6fa1 923d 432a afbd d105 243f 3b8b abbb
00000300: f4f8 193e a000 f6bd ed1d fd3e bc85 4cbe
00000310: 4454 37bc b9bc a6bd e722 b33e c173 63be
00000320: 054a a33d d0f9 303e 1df4 153f 0307 cc3e
00000330: 7fcb 503e 78ef 883e 2e1e a4bc 9bc9 213f
00000340: 72ee 8f3d dcc0 b0bd 52d8 e73e 83af 823d
00000350: 5843 223d 186f b93e 3fc2 35bf e207 46be
00000360: 4590 04bb ff8b cbba 2f85 65bd 62e6 0a3e
00000370: 6bd4 03be e45c 34bf ee43 2c3f f171 b83e
00000380: b271 273e 8e40 03be 123d 843f 0c59 043f
00000390: 53c3 48bf 4172 c4bd a6d3 60be 2139 4abe
000003a0: bec5 b9be 95e6 94bd 69ea dcbc 3884 40bf
000003b0: d041 293e c465 84bf 0339 26bf b364 bdbe
000003c0: 1e1c 233f 7aea 93bf 79c4 a4be 49e5 d9bc
000003d0: 0127 0e3e 5c6c 103e 2159 b93e cb9b 2e3d
000003e0: 5f67 1d3d 5ec4 bf3e e05d dbbe a01a 1abf
000003f0: 5438 34bf da54 0f3f 637e b93e f050 983e
0.11412042 -0.21461448 0.36776137 -0.1424873 0.24040233 -0.061203297 0.08008819 -0.062179204
-0.07391506 0.024873136 0.03030818 -0.049859688 0.27281466 0.015034611 -0.20352991 -0.017632166
0.34357154 0.16214962 0.0019113136 0.2947828 0.42580232 0.82990354 0.10416892 -0.3072445
-0.2632958 0.0010632866 0.15898351 0.28142348 -0.15767534 -0.28237683 0.095596164 -0.6472753
0.10130694 -0.04558374 0.12897457 0.23958829 -0.12373124 -0.0876912 0.38449502 -0.16386543
-0.035050865 -0.2924974 0.16597326 -0.48490173 -0.1998357 0.010334173 -0.17369054 -0.6291924
0.63296115 0.11888694 -0.34501663 -0.18687211 1.2419662 -0.23918413 0.04471842 -0.44538978
-0.3016213 0.09545368 -0.4321926 -0.40883058 -0.021524904 0.06910525 0.3709619 0.14676885
0.16446798 -0.19494842 0.20168947 -0.2631728 0.2999626 -0.33168057 0.54915005 -0.13065888
0.006718433 -0.124877855 -0.024051925 0.25083008 -0.6007723 0.5876925 -0.11770319 -0.21942312
0.20591426 -0.64183664 -0.004754931 0.56371886 0.7694145 -0.50062776 0.038786534 0.31230673
-0.18594404 0.1295332 0.13981816 0.44406763 -0.30012387 -0.15302178 -0.33384603 -0.26155272
-0.33557346 0.20579489 -0.0048606684 0.24542072 -0.005651369 -0.2886984 0.4438392 -0.54241335
-0.1685418 -0.49549612 -0.012432062 -0.24215887 -0.14727198 0.32493126 -0.24478428 -0.30742595
0.17328513 -0.099137306 -0.2867535 0.10504675 0.98134243 0.003425925 0.19321771 -0.0085523315
0.05748584 0.17214881 -0.3340243 -0.069132335 0.023229824 -0.093697526 0.0049079675 0.20393309
0.054796323 -0.0353504 0.32498574 -0.20511506 0.007331514 -0.15336353 0.4354735 0.0015532133
-0.12430827 -0.12386424 0.048094478 0.20985381 0.098352015 0.18820047 -0.0910663 0.23842603
0.25846455 -0.1042788 0.2613643 0.39251336 0.15536861 0.21765633 0.22001599 -0.12882315
-0.14202738 0.09289315 -0.14764008 0.81202155 -0.79581904 -0.3220959 0.42574823 0.45937222
-0.083473936 -0.10363576 0.37323955 0.8435773 -0.037027348 -0.27433136 0.0033129544 -0.3110511
0.09578532 -0.09368218 0.020380307 -0.68257457 -0.21630917 0.050261747 -0.6670297 -0.7228408
0.40900818 -0.29626176 -0.53145146 -0.33004832 0.00091305876 -0.15605049 0.46391585 -0.14709161
-0.13081259 0.94383067 -0.4588791 -0.26373506 0.07159697 -0.08552983 0.64071375 -0.0052351034
0.15036374 -0.12011838 0.49436894 -0.1997289 -0.011189524 -0.08141465 0.34987566 -0.22212125
0.079731025 0.17282796 0.5857561 0.398491 0.20390128 0.267452 -0.020033922 0.6319825
0.07027902 -0.08630535 0.45282227 0.063811325 0.039615005 0.3621757 -0.7099952 -0.19338945
-0.0020227593 -0.0015529393 -0.056035217 0.13564447 -0.12874 -0.7045424 0.6729115 0.3602443
0.16351965 -0.12817594 1.0331137 0.51698375 -0.7842304 -0.09592105 -0.21955737 -0.19748355
-0.36283678 -0.072705425 -0.026967244 -0.7520175 0.16529012 -1.0343556 -0.6493074 -0.3699089
0.6371478 -1.1555932 -0.32181147 -0.02659859 0.13882066 0.14103836 0.36200812 0.042629045
0.03842866 0.37454504 -0.42845058 -0.60196877 -0.7039845 0.5598885 0.36229238 0.2974925

encoder.dcrnn_cells.1.update.bias_pool f4 [2, 64]
00000000: 1065 133e 4966 843c 9de2 38bf 7506 a43e
00000010: 4d25 a13e 1b88 6abe 3ca8 60bf 37f7 e43e
00000020: 072b 0ebe de66 09be 9fc4 39bd c4db 85be
00000030: 4c38 0e3e 67d8 b5bc 266c 093f fbd6 9fbd
00000040: 3dd6 efbe e702 cbbe 60ff 39bf 64da 52bb
00000050: ff5f 903e aa4e 8b3d eb0b b53e 0782 8b3e
00000060: fe45 0abe 8dfd c2be 7d11 e8bc a7f8 03be
00000070: 0613 3f3f 274f 4a3d 2227 0fbf c882 29bf
00000080: 7b3c c9bd 3b95 90be 786d 57bf 5686 13bf
00000090: 74d4 793e 3747 cdbc 3f27 0abe 22f9 5e3e
000000a0: d699 263e 9e18 f3bd 8ba5 b63e 3b82 3e3f
000000b0: 084e fc3d 9bd4 e1be a3f9 7f3f f116 073f
000000c0: a8af 81bf 5156 803f 39f8 a63e d57b a1bd
000000d0: d254 2dbf dd03 aa3e ab6f 92be b693 cd3e
000000e0: d79c 183e 2d06 16bf eb48 093f d453 4c3f
000000f0: db0c c1bd 3d98 88be 710f 7ebd 39a2 c53e
00000100: 6ec5 73be b27e 6ebe b3f2 873f c803 afbe
00000110: c6d1 3c3d e828 fe3d 0af3 253e 805d c3bd
00000120: 84c0 c63d 120e 773e d6f5 20bd 3dc9 833f
00000130: e00c 043e 126a 66be cef0 1ebf d81d 1d3e
00000140: 5c6a 3d3e ac67 b03d 7128 5c3f c9d9 013f
00000150: be6f acbe da6b 4a3e 405d 893e 0e33 783d
00000160: 9d02 6f3c 0af7 8dbe abc0 a53e 3913 a83e
00000170: 82bb 13bf 2be5 5cbe 8ea7 bf3e 6373 253f
00000180: 30fb ebbb 4a1f 9bbe 6b3b 4e3f 31a0 c63e
00000190: 85b6 dcbe 8aa1 643e a887 2e3e 9ddf 38be
000001a0: b8a8 0bbe 9c36 8d3e d3fc ba3d 480b 1ebf
000001b0: c280 e03c e4cf 7dbc 8a2b 1cbf 8e6d 013e
000001c0: e090 513f 7b9e 15bf 0f17 91be e3e8 cfbd
000001d0: 8ffc 463f 400b e23e 926c 383f 2550 843e
000001e0: daa7 83bf 63bc af3e e79e 78bf 8a51 edbd
000001f0: 9f0e 78be 18ce 803e 5484 db3e 4e5e b2bd
0.14394021 0.016162055 -0.72220784 0.32036176 0.3147377 -0.22903483 -0.87756705 0.4471986
-0.13883601 -0.13418147 -0.045353528 -0.2614423 0.13888663 -0.022197915 0.53680646 -0.07804676
-0.46843138 -0.39650652 -0.72655296 -0.0032173628 0.2819824 0.06802113 0.35360655 0.2724764
-0.13503262 -0.3808407 -0.028328652 -0.12887822 0.746384 0.04939189 -0.55919087 -0.6621518
-0.09825989 -0.28238854 -0.8415141 -0.57626855 0.2439745 -0.025058372 -0.13491534 0.21774724
0.16269621 -0.1186993 0.35673174 0.74417466 0.12319571 -0.44107518 0.9999029 0.5276938
-1.0131731 1.0026342 0.32611254 -0.07884947 -0.6770755 0.33206072 -0.2860082 0.40151757
0.1490358 -0.58603173 0.5362689 0.7981541 -0.0942628 -0.2667865 -0.062026445 0.3860033
-0.23805782 -0.23290518 1.0620941 -0.34182572 0.046098493 0.12410146 0.16205993 -0.09539318
0.09704688 0.24126461 -0.039296947 1.0295788 0.12895536 -0.225014 -0.6208619 0.15343416
0.18497604 0.08613524 0.8599921 0.5072294 -0.33679003 0.19767705 0.26828957 0.060595565
0.014588025 -0.27727538 0.32373556 0.32827166 -0.5770799 -0.21571796 0.37432522 0.6462919
-0.0072015747 -0.3029731 0.80559415 0.3879409 -0.43108 0.22327247 0.17043936 -0.18054052
-0.1363858 0.27580726 0.09130254 -0.61735964 0.027405147 -0.0154914595 -0.61003935 0.12639448
0.81861687 -0.58444947 -0.28337905 -0.101518415 0.77729124 0.44149208 0.72040665 0.25842395
-1.0285599 0.34323415 -0.97117466 -0.11587818 -0.24224328 0.25157237 0.42874396 -0.087093934
