model/experiments/PEMSD8/20211029082512/best_model.pth (torch, 638404 bytes, 11 tensors)

node_embeddings f4 [170, 2]
-0.69558954 -0.72479415 -0.47940347 -0.6202204 0.0794583 -0.54100776 -0.42167717 -0.4697815
-0.07401698 -1.0647538 -0.7579903 -0.3602655 0.021074694 -0.76650697 0.38040882 -0.60626435
0.43882456 -0.087929055 -0.09942985 -1.4391809 -0.39274332 -1.0668224 0.13227272 -0.5101013
-0.66490376 -0.37794903 -0.6224416 -1.143177 -0.4906625 -0.5624092 -0.7999175 -0.59816474
0.5565521 -0.06648982 -0.66083676 -0.36974344 -0.74965817 -0.565274 -1.1642058 -0.87116736
-1.0970892 -0.7139256 0.09102859 -0.48380035 -0.36781448 -0.6134517 0.05633582 -0.5386254
0.6800293 0.11156274 0.08682059 -0.47053486 0.057990704 -0.8187101 -0.6564799 -0.84802556
-0.66490537 -0.37794808 0.11058697 -0.7532855 0.13557683 -0.69326127 0.14853823 -0.60544777
0.13360241 -0.4038828 0.30754387 0.260551 0.26514196 0.5494874 -0.8708512 -0.8597199
0.0708378 -0.56672966 0.46588895 -0.72949976 0.47144756 -1.4723116 -0.62201136 -0.40654808
-0.8714923 -0.31154865 0.028839907 -0.8436952 0.1351484 -0.3922692 0.016727531 -0.70395786
0.14849572 -0.5153606 -0.0034997275 -0.5696869 -0.5670834 -0.52097315 0.05028983 -0.6148148
-0.08617239 -0.87186074 0.3153218 -0.53029186 -0.8453153 -0.14862971 0.13501668 -0.4212414
-0.3510181 -0.8900006 -1.6742655 -0.7957168 0.12175402 -0.4966543 -0.5894696 -0.3663048
-1.0548602 -0.6109154 -0.73175055 -0.22314537 0.46532845 -1.2242335 0.21205598 -0.8040315
0.36311835 -0.35896492 -0.086171165 -0.8718639 0.52377176 0.06843316 -1.7593169 -1.2609183
-1.0818058 -0.44097078 0.2703736 -2.136995 -0.9404026 -0.23829386 0.19593495 -0.692095
0.2957819 -0.22520182 0.06547526 -0.49362305 -0.5894721 -0.36630815 -0.784152 -1.7608109
0.24270913 -1.6697248 -0.58947116 -0.36630434 0.13501945 -0.42123523 0.1350228 -0.4212297
0.09470902 -0.736518 -0.9572678 -1.6712779 -0.58860797 -0.10263835 0.6282177 -0.38202015
-0.08617103 -0.87186325 -0.5894709 -0.36630532 0.15450132 -0.41901028 -0.58946913 -0.36630517
-0.5894697 -0.36630315 0.3431849 -0.41170543 -1.2172327 -1.0651411 0.15692985 -0.114456475
0.2566098 -0.62406665 0.23355919 -0.31421733 0.13502409 -0.4212348 0.1350216 -0.4212358
0.4826689 0.24168605 0.03408914 -0.5114346 0.13059825 -0.28035524 0.32448342 -0.5169006
0.28762096 -0.62199086 0.19672313 -0.49833512 0.34418508 -0.09962105 0.120954044 -0.16863589
0.4853762 -1.2913784 -0.64194185 -0.19171956 0.68904173 0.11559419 0.67922 0.11190033
0.14763749 -0.5317002 0.45707494 -0.32079494 -0.37488928 -0.17592077 0.24033743 -0.7990726
0.37650174 0.22132145 0.5237738 0.068433784 0.2802124 0.051478546 -1.2307354 -0.6192186
0.45381248 -0.11142229 0.61894774 -0.023550201 0.13279517 -0.027419206 0.13502134 -0.42123637
0.17288469 0.88349575 -0.43551812 -0.1938123 0.16995227 -0.63929987 -1.4238802 -0.56385183
0.048962034 -0.29300898 -0.08617095 -0.8718617 -0.086170174 -0.8718627 -0.086171195 -0.8718627
-0.5609454 -0.36781478 -0.44273284 -0.52667105 -0.6274282 -0.69341254 -0.8969436 -0.7140456
00000000: 2812 32bf 1c8c 39bf 5f74 f5be c4c6 1ebf
00000010: 08bb a23d 7c7f 0abf 12e6 d7be 3387 f0be
00000020: 3796 97bd da49 88bf a70b 42bf b874 b8be
00000030: d6a4 ac3c cd39 44bf f2c4 c23e 2434 1bbf
00000040: 9dad e03e 2614 b4bd e1a1 cbbd 1437 b8bf
00000050: a715 c9be a38d 88bf 8072 073e 0096 02bf
00000060: 2237 2abf 8982 c1be 5558 1fbf a053 92bf
00000070: 1d38 fbbe 0dfa 0fbf 65c7 4cbf 5321 19bf
00000080: 337a 0e3f d12b 88bd 992c 29bf 034f bdbe
00000090: 99e9 3fbf ccb5 10bf b204 95bf d304 5fbf
000000a0: 6b6d 8cbf d4c3 36bf 336d ba3d aeb4 f7be
000000b0: 2e52 bcbe 2c0b 1dbf 64c0 663d 5be3 09bf
000000c0: 6616 2e3f 017b e43d fece b13d f2e9 f0be
000000d0: a987 6d3d fc96 51bf 110f 28bf 3418 59bf
000000e0: 3d37 2abf 6982 c1be 6c7b e23d 52d7 40bf
000000f0: a7d4 0a3e 9279 31bf 681a 183e a0fe 1abf
00000100: 12cf 083e bac9 cebe 6476 9d3e f166 853e
00000110: b0c0 873e 35ab 0c3f 1bf0 5ebf 9a16 5cbf
00000120: 6913 913d 3215 11bf ff88 ee3e 7fc0 3abf
00000130: 9361 f13e b574 bcbf 233c 1fbf 1227 d0be
00000140: 1f1a 5fbf 4e83 9fbe ab41 ec3c 69fc 57bf
00000150: 5864 0a3e 82d7 c8be 2d08 893c 9536 34bf
00000160: 430f 183e acee 03bf af5b 65bb 00d7 11bf
00000170: 612c 11bf 7f5e 05bf b5fc 4d3d 8164 1dbf
00000180: 267b b0bd 4432 5fbf dc71 a13e 35c1 07bf
00000190: 9566 58bf 6332 18be d041 0a3e f4ac d7be
000001a0: a5b8 b3be 14d7 63bf 554e d6bf 19b4 4bbf
000001b0: 2c5a f93d 7949 febe 7be7 16bf 4e8c bbbe
000001c0: a905 87bf f464 1cbf 0154 3bbf 3880 64be
000001d0: 883f ee3e afb3 9cbf 3425 593e 02d5 4dbf
000001e0: a6ea b93e 40ca b7be 827a b0bd 7932 5fbf
000001f0: e815 063f af26 8c3d 4c31 e1bf c565 a1bf
00000200: 9d78 8abf ecc6 e1be 696e 8a3e 87c4 08c0
00000210: 3abe 70bf 4e03 74be 2ca3 483e 232d 31bf
00000220: ba70 973e 4e9b 66be e517 863d 29bc fcbe
00000230: a5e7 16bf be8c bbbe 2fbe 48bf 4062 e1bf
00000240: be88 783e 8bb9 d5bf 95e7 16bf 3e8c bbbe
00000250: 8a42 0a3e 25ac d7be 6b43 0a3e 6bab d7be
00000260: cdf6 c13d 728c 3cbf 810f 75bf 6fec d5bf
00000270: 03af 16bf 0e34 d2bd e0d2 203f 2598 c3be
00000280: 707a b0bd 6e32 5fbf 91e7 16bf 5f8c bbbe
00000290: 9835 1e3e 8488 d6be 73e7 16bf 5a8c bbbe
000002a0: 7ce7 16bf 168c bbbe eeb5 af3e 0ecb d2be
000002b0: 48ce 9bbf 8b56 88bf 38b2 203e 2868 eabd
000002c0: 5c62 833e d5c2 1fbf 242a 6f3e 18e1 a0be
000002d0: c143 0a3e 16ac d7be 1a43 0a3e 38ac d7be
000002e0: 6120 f73e 8c7c 773e 0ea1 0b3d 61ed 02bf
000002f0: 8cbb 053e b98a 8fbe b122 a63e 9953 04bf
00000300: 0e43 933e cb3a 1fbf ca71 493e c825 ffbe
00000310: 0739 b03e 1f06 ccbd c1b6 f73d e3ae 2cbe
00000320: 3b83 f83e e34b a5bf 4d56 24bf 2252 44be
00000330: 0a65 303f a6bc ec3d 5de1 2d3f 002c e53d
00000340: 482e 173e 811d 08bf ba05 ea3e 3c3f a4be
00000350: 7df1 bfbe 9324 34be 041b 763e 0690 4cbf
00000360: d6c4 c03e 17a2 623e 0a16 063f 0327 8c3d
00000370: 0078 8f3e 2bdb 523d bd88 9dbf 1c85 1ebf
00000380: 1c5a e83e 5f31 e4bd 5c73 1e3f 5aec c0bc
00000390: 75fb 073e 3e9e e0bc 0943 0a3e 4bac d7be
000003a0: af08 313e c72c 623f 3bfc debe bb76 46be
000003b0: f807 2e3e 28a9 23bf b541 b6bf 9858 10bf
000003c0: 6a8c 483d 4605 96be 657a b0bd 5432 5fbf
000003d0: fd79 b0bd 6532 5fbf 867a b0bd 6532 5fbf
000003e0: 1e9a 0fbf 3852 bcbe e1ad e2be ead3 06bf
000003f0: 229f 20bf 7c83 31bf 199e 65bf b1cb 36bf

encoder.dcrnn_cells.0.gate.weights_pool f4 [2, 2, 65, 128]
-0.6882383 -0.7451377 -0.38477546 0.1896032 -1.4327716 0.5656866 -0.37974182 -1.3730391
-0.692244 -1.4176736 -0.038022295 -0.7887364 -0.41452304 0.9160253 -0.3199503 -0.62725395
-0.20348199 -0.67272025 -0.91688716 1.6709489 -0.034381215 -0.19256438 -0.6354198 -1.1024375
1.2616509 -0.616802 -0.50897384 -0.25516266 -0.2275147 -0.24636969 -0.2544015 -0.7760544
-0.5784185 -1.4222096 -0.021380056 -0.3493688 -0.5419205 0.36920303 -1.005889 -0.819836
-0.7427685 -0.581457 -0.8502797 0.21891785 0.29852867 -0.6697537 -0.44320926 1.272691
-0.4557466 -0.7890583 -0.12260674 -0.9488704 -0.61716807 -0.04758357 -0.8475606 -0.8594869
-0.26480067 0.31561068 0.9166378 -0.20304719 -0.6564379 -0.6200339 0.56191206 0.27196193
1.9645641 -0.336829 1.0920874 -1.1186844 3.3277283 0.29577884 1.3545892 0.9868854
1.8915318 1.366392 0.039708268 0.976284 -0.0097239055 1.1945469 0.60227823 1.7658042
1.4507157 1.0074661 1.0747361 -2.4293942 -0.09106976 0.8358519 -0.35521185 0.5282412
-1.433636 0.1519631 1.4911557 1.7731498 0.23910378 0.79617494 -0.2943105 1.455688
1.0680217 0.8925684 0.1377461 0.5508045 1.060125 3.1328456 1.8126223 0.11682078
1.4450111 -0.3017627 1.1074716 0.2961641 1.5150905 1.0466933 1.4119588 -1.3286016
-0.9691864 1.0761454 0.7069588 0.7337879 1.1974752 1.8455544 0.9174507 2.1368806
-0.9193115 -0.7275842 0.9606094 -0.2816974 1.6172726 1.6455374 1.5741837 1.6852012
-0.51633245 -0.6065955 0.12126534 -0.14016068 -0.39249748 -0.18937857 -0.0785492 -0.031625688
0.072686486 -0.22452345 -0.1706163 -0.115198486 -0.09387459 -0.5656884 -0.19617228 0.11712315
0.026434578 -0.2746772 -0.21564755 -0.8782859 -0.39117736 0.30150488 -0.26566556 0.20599663
-0.72134566 -0.19865224 -0.3257685 0.32673916 -0.11522619 -0.09120878 0.048746295 0.37955922
-0.27835423 0.15712059 -0.33791566 0.19925584 -0.14713849 -0.39887583 -0.07989751 -0.8144522
-0.34897536 0.30732 0.04795393 0.19215237 0.07374875 -0.051000837 -0.1841416 0.3897517
-0.22665794 -0.0773702 -0.03676884 -0.0426411 0.08610093 -0.3612148 0.04266351 -0.27549243
-0.31994066 -1.2334522 -0.03611294 -0.13901728 -0.23030461 0.21828333 -0.6618361 -0.09334823
-0.08675788 0.12958069 -0.19804142 -0.3128785 -0.06730437 0.016181583 -0.28921652 -0.34202492
0.10263228 -0.054755215 0.47056344 -0.20389643 0.4060228 0.4271394 0.36050597 -0.0010161601
0.42127702 -0.40212324 -0.17455833 -0.096726604 0.31120917 0.5655118 0.1388424 -0.17876004
0.95071566 -0.19192128 -0.3590541 0.03500135 0.3209973 -0.26207882 0.060581215 0.16669442
0.057409763 -0.4664722 0.08740724 -0.28376383 -0.26159737 -0.032849073 0.25584957 1.4100618
0.23307374 0.2067161 -0.5715538 0.023816532 -0.279744 -0.37073943 -0.55834246 1.0052309
-0.22920132 -0.49732515 -0.12322244 -0.32435018 -0.47758025 0.01926572 0.12529619 -0.101039425
-0.32700065 0.599765 0.039834958 -0.25413227 -0.45381126 0.24033618 0.5146662 0.3010236
00000000: 6330 30bf 58c1 3ebf 4a01 c5be 5727 423e
00000010: 0f65 b7bf d6d0 103f 856d c2be bfbf afbf
00000020: e736 31bf 5476 b5bf 44bd 1bbd a1ea 49bf
00000030: 5d3c d4be a280 6a3f 87d0 a3be b793 20bf
00000040: 955d 50be 6537 2cbf 1eb9 6abf a7e1 d53f
00000050: 51d3 0cbd 992f 45be dfaa 22bf ac1c 8dbf
00000060: c77d a13f bce6 1dbf 1c4c 02bf aea4 82be
00000070: 9df9 68be 5648 7cbe ea40 82be 80ab 46bf
00000080: 3c13 14bf f70a b6bf 3a25 afbc 78e0 b2be
00000090: 4dbb 0abf 2e08 bd3e f9c0 80bf c6e0 51bf
000000a0: 1426 3ebf 5eda 14bf eeab 59bf 002c 603e
000000b0: c0d8 983e fa74 2bbf 53ec e2be 8ae7 a23f
000000c0: 9e57 e9be baff 49bf 3e19 fbbd 2ce9 72bf
000000d0: bafe 1dbf fde6 42bd bbf9 58bf 5507 5cbf
000000e0: f493 87be b997 a13e c6a8 6a3f 9aeb 4fbe
000000f0: 500c 28bf 8bba 1ebf 78d9 0f3f 983e 8b3e
00000100: d676 fb3f da74 acbe 85c9 8b3f 0d31 8fbf
00000110: 80f9 5440 5370 973e 2e63 ad3f 86a4 7c3f
00000120: b71d f23f efe5 ae3f 23a5 223d c0ed 793f
00000130: 0451 1fbc eae6 983f e82e 1a3f df05 e23f
00000140: 0db1 b93f a6f4 803f f490 893f 327b 1bc0
00000150: c882 babd 64fa 553f 54de b5be d13a 073f
00000160: 6281 b7bf 379c 1b3e 31de be3f 93f6 e23f
00000170: 9fd7 743e 1fd2 4b3f deaf 96be fc53 ba3f
00000180: efb4 883f 5d7f 643f 500d 0d3e 8601 0d3f
00000190: 2db2 873f 8b80 4840 0204 e83f bc3f ef3d
000001a0: 20f6 b83f a480 9abe a1c1 8d3f d2a2 973e
000001b0: 7cee c13f 0cfa 853f 11bb b43f 9e0f aabf
000001c0: 9a1c 78bf 22bf 893f 40fb 343f 86d9 3b3f
000001d0: de46 993f 203b ec3f 0dde 6a3f a7c2 0840
000001e0: 0058 6bbf f542 3abf 7fea 753f a43a 90be
000001f0: ca02 cf3f f8a0 d23f da7e c93f acb4 d73f
00000200: 5d2e 04bf d849 1bbf f659 f83d 4886 0fbe
00000210: 6ef5 c8be 75ec 41be 67de a0bd f089 01bd
00000220: a7dc 943d 7ae9 65be 0ab6 2ebe 2fed ebbd
00000230: 5241 c0bd f4d0 10bf 63e1 48be 43de ef3d
00000240: 548d d83c 7da2 8cbe b6d2 5cbe 58d7 60bf
00000250: 6648 c8be d95e 9a3e 5105 88be c8f0 523e
00000260: 1caa 38bf 7e6b 4bbe 21cb a6be 5b4a a73e
00000270: b5fb ebbd abcb babd 32aa 473d 9655 c23e
00000280: 7284 8ebe 38e4 203e 4803 adbe b909 4c3e
00000290: 79ab 16be 7439 ccbe 4ea1 a3bd f07f 50bf
000002a0: e6ac b2be 0c59 9d3e 576b 443d 97c3 443e
000002b0: 9609 973d 41e6 50bd 9e8f 3cbe 898d c73e
000002c0: 0519 68be 4474 9ebd ec9a 16bd 6fa8 2ebd
000002d0: af55 b03d 25f1 b8be efbf 2e3d 580d 8dbe
000002e0: 43cf a3be c3e1 9dbf 2aeb 13bd 8c5a 0ebe
000002f0: f9d4 6bbe aa85 5f3e 176e 29bf 5b2d bfbd
00000300: 1eae b1bd cdb0 043e 5fcb 4abe 9c31 a0be
00000310: e0d6 89bd 3d8f 843c 3014 94be e41d afbe
00000320: df30 d23d 0147 60bd b1ed f03e 3aca 50be
00000330: 38e2 cf3e 04b2 da3e 3d94 b83e ad30 85ba
00000340: 9fb1 d73e 19e3 cdbe 6bbf 32be 9918 c6bd
00000350: cf56 9f3e 62c5 103f b42c 0e3e df0c 37be
00000360: 1a62 733f 0387 44be f0d5 b7be 935d 0f3d
00000370: c259 a43e 322f 86be 0224 783d f1b1 2a3e
00000380: 8026 6b3d 72d5 eebe 9102 b33d 7e49 91be
00000390: 17f0 85be c08c 06bd b7fe 823e e87c b43f
000003a0: e2aa 6e3e 63ad 533e 5a51 12bf e31a c33c
000003b0: 9b3a 8fbe 8fd1 bdbe 88ef 0ebf 68ab 803f
000003c0: c0b3 6abe 67a1 febe 0c5c fcbd 3a11 a6be
000003d0: 6685 f4be 25d3 9d3c a54d 003e c2ed cebd
000003e0: a16c a7be 338a 193f fb29 233d a01d 82be
000003f0: f359 e8be b01a 763e 2ac1 033f c41f 9a3e

encoder.dcrnn_cells.0.gate.bias_pool f4 [2, 128]
0.40125903 0.34189165 0.4409317 0.39499575 0.17392193 0.21909809 0.4868843 0.33246675
0.29166672 0.09801646 0.16127856 0.6120559 0.16723728 0.06052166 0.4643593 0.17870313
0.34713808 0.47020954 0.43424997 0.30935708 0.35154465 -0.015598925 -0.41736048 -0.083671406
0.39698496 -0.21750559 -0.08532368 0.40657172 0.30222157 0.19750571 0.26717654 0.3102052
-0.18424645 0.29478896 0.095795035 -0.030397363 0.19142228 -0.103903145 -0.06509162 -0.11082435
0.44829428 0.6926618 0.10279296 0.35587552 0.2252599 0.43266925 0.18280949 0.42360848
0.43885568 0.45439726 0.41447553 0.44472897 0.3259838 0.22186173 0.19409074 -0.29141572
0.18197763 0.3564986 0.35948315 0.06939522 0.51162624 0.010561684 0.33177269 0.03054789
-0.052420214 -0.059624825 -0.21019931 -0.5599022 -0.38384283 0.6950195 -0.023621185 0.24796082
-0.23906375 0.7016997 0.34852117 0.9815949 0.15288441 0.37484473 0.90048224 -0.6087436
-0.30216333 0.6010509 0.384998 -0.37691903 0.15192991 0.34755045 0.5370777 0.30310944
-0.17892031 0.09817195 0.019690529 -0.44385934 -0.24990399 0.11777794 -0.20019402 -0.66878736
0.8011098 -0.66449463 -0.7537146 -0.089814335 -0.43442634 -0.33647433 -0.3756788 -0.15948856
-0.2764725 -0.5611625 -0.31509823 -0.28757694 -0.8762453 0.19002725 -0.7728905 -0.51139045
-0.54718834 0.1699324 -0.09325401 0.18195325 0.118202716 -0.122738644 -0.520637 -0.31852558
-0.25063643 -1.1213354 -0.09074994 -0.3236302 -0.72067124 -0.53488064 0.21847384 0.30949554
-0.009779514 0.07453258 0.22491996 -0.017302835 -0.13688326 0.2767955 -0.13673444 0.31023312
0.7906393 0.05784089 -0.21062484 -0.012784874 0.23247066 0.04526912 0.14958572 0.17393653
-0.028533353 0.044105038 0.058173683 -0.18506286 -0.0009892603 0.13659275 -0.13090299 -0.28959814
-0.009427796 -0.109440185 -0.11031302 0.3256965 0.12075128 0.40633062 -0.003021856 0.5659829
0.120930865 0.23250186 -0.6346401 0.09471798 0.4956244 0.13187572 0.108454406 -0.22896463
0.50913894 -0.39448565 0.20833655 -0.24389946 0.13006727 0.4752601 0.05191029 -0.50945544
-0.31404993 0.513846 0.04685478 0.42570797 0.55014735 0.06996199 0.48399323 0.028322
0.08376581 -0.15827988 0.025837962 0.016904403 0.097326025 0.5894948 0.26784733 0.12769671
-0.1573525 0.47403368 -0.3596326 0.29353085 -0.5619081 0.9970753 0.10063044 -0.29510352
-0.37430504 -0.09135978 0.1715585 -0.26066023 0.36414054 0.5895519 -0.03337847 -0.6238182
-0.1474828 0.044253733 0.12295872 0.9326808 0.20485777 1.1417584 0.25173736 0.2230793
0.09638903 -0.017858967 -0.4206438 -0.3413793 -0.14935419 -0.2531889 0.4462212 -0.72716033
0.042824235 -0.60027623 0.63761705 0.71619046 -0.40796834 -0.17750262 -0.4855372 -0.21475224
-0.13011484 0.57691073 -0.29635233 0.033093538 -0.57477254 -0.026261706 -0.3858103 0.38702837
0.7341684 -0.020666182 0.28265473 -0.47811434 -0.29304293 -0.08053764 -0.1082684 -0.9408753
0.52000904 0.28281668 0.3791168 -0.17064537 -0.7488577 -0.7353455 0.87697047 0.54142666
00000000: d371 cd3e 6c0c af3e cdc1 e13e e23c ca3e
00000010: 9718 323e 405b 603e e648 f93e 1539 aa3e
00000020: 5755 953e dbbc c83d 3526 253e b2af 1c3f
00000030: 4040 2b3e 8fe5 773d 81c0 ed3e f4fd 363e
00000040: 15bc b13e 4ebf f03e 0356 de3e 0d64 9e3e
00000050: a9fd b33e a292 7fbc 46b0 d5be ea5b abbd
00000060: 9d41 cb3e c9b9 5ebe 2ebe aebd 2b2a d03e
00000070: c9bc 9a3e f03e 4a3e 5dcb 883e 37d3 9e3e
00000080: 1aab 3cbe 94ee 963e 3030 c43d e403 f9bc
00000090: 3404 443e 2ccb d4bd c14e 85bd e0f7 e2bd
000000a0: d486 e53e 4952 313f 1e85 d23d 5135 b63e
000000b0: 88aa 663e d386 dd3e 6932 3b3e 36e3 d83e
000000c0: b1b1 e03e c2a6 e83e 2336 d43e 84b3 e33e
000000d0: 59e7 a63e b92f 633e b9bf 463e 7134 95be
000000e0: 5858 3a3e fc86 b63e 2d0e b83e 151f 8e3d
000000f0: f0f9 023f ea0a 2d3c 1cde a93e 923f fa3c
00000100: 94b6 56bd 2939 74bd 7d3e 57be c055 0fbf
00000110: 0c87 c4be ccec 313f 3781 c1bc 71e9 7d3e
00000120: 21cd 74be 97a2 333f 5e71 b23e ce49 7b3f
00000130: bb8d 1c3e a6eb bf3e 0186 663f 9fd6 1bbf
00000140: 27b5 9abe 79de 193f 751e c53e 88fb c0be
00000150: 8493 1b3e 22f2 b13e ed7d 093f 2931 9b3e
00000160: e336 37be 600e c93d 084e a13c 8841 e3be
00000170: d5e6 7fbe 9035 f13d a9ff 4cbe a635 2bbf
00000180: 8815 4d3f 521c 2abf 71f3 40bf 94f0 b7bd
00000190: 216d debe 5d46 acbe f958 c0be f850 23be
000001a0: ce8d 8dbe 58a8 0fbf 8e54 a1be 493d 93be
000001b0: 9d51 60bf 8196 423e 27dc 45bf 7cea 02bf
000001c0: 8914 0cbf c202 2e3e f5fb bebd f451 3a3e
000001d0: 4414 f23d 665e fbbd 7748 05bf c915 a3be
000001e0: 6b53 80be eb87 8fbf 1bdb b9bd dcb2 a5be
000001f0: e97d 38bf f0ed 08bf 9bb7 5f3e 3376 9e3e
00000200: 413a 20bc 8aa4 983d 6b51 663e adbe 8dbc
00000210: 202b 0cbe 24b8 8d3e 1d04 0cbe e0d6 9e3e
00000220: 5667 4a3f 92ea 6c3d 0aae 57be a677 51bc
00000230: ca0c 6e3e 1d6c 393d 002d 193e 6b1c 323e
00000240: c7be e9bc 7ca7 343d 8747 6e3d 1e81 3dbe
00000250: 11aa 81ba f8de 0b3e 6f0b 06be 3546 94be
00000260: 0b77 1abc 2d22 e0bd cbeb e1bd b1c1 a63e
00000270: 724c f73d 910a d03e 550a 46bb 41e4 103f
00000280: 9aaa f73d f814 6e3e c677 22bf 80fb c13d
00000290: 7bc2 fd3e 6e0a 073e 581d de3d b475 6abe
000002a0: ee56 023f 06fa c9be 2d56 553e c8c0 79be
000002b0: 5b30 053e 4b55 f33e e29f 543d ac6b 02bf
000002c0: 27cb a0be 698b 033f ccea 3f3d 65f6 d93e
000002d0: 75d6 0c3f 3b48 8f3d f6cd f73e 8a03 e83c
000002e0: 698d ab3d 1f14 22be 22aa d33c 1a7b 8a3c
000002f0: de52 c73d 22e9 163f 4923 893e edc2 023e
00000300: 0421 21be 8bb4 f23e c421 b8be ad49 963e
00000310: 36d9 0fbf 5440 7f3f 5517 ce3d cf17 97be
00000320: e9a4 bfbe d61a bbbd 08ad 2f3e 4275 85be
00000330: a170 ba3e e0ec 163f ddb7 08bd 8db2 1fbf
00000340: bb05 17be 6743 353d c8d1 fb3d 2bc4 6e3f
00000350: 3cc6 513e 2425 923f b8e3 803e e66e 643e
00000360: 9d67 c53d f84c 92bc a05e d7be 45c9 aebe
00000370: 4ef0 18be faa1 81be 1b77 e43e 2e27 3abf
00000380: 7768 2f3d b4ab 19bf df3a 233f 4258 373f
00000390: 3ae1 d0be 3fc3 35be 5598 f8be 03e8 5bbe
000003a0: d33c 05be 6cb0 133f 7ebb 97be 178d 073d
000003b0: 4b24 13bf ca22 d7bc ed88 c5be 9528 c63e
000003c0: 76f2 3b3f 204c a9bc 1fb8 903e 67cb f4be
000003d0: b909 96be ebf0 a4bd d3bb ddbd 34dd 70bf
000003e0: 501f 053f 59cd 903e 991b c23e a9bd 2ebe
000003f0: 23b5 3fbf 9a3f 3cbf 2381 603f f09a 0a3f

encoder.dcrnn_cells.0.update.weights_pool f4 [2, 2, 65, 64]
0.6958925 0.5290297 0.6774349 0.024168862 0.944883 0.5266792 -0.3598143 0.57850444
-0.74058694 0.54572946 1.04335 -0.4649431 0.12864387 0.5715882 -0.49981293 -0.63913184
-0.7132761 0.5315012 0.58520395 -0.72321624 -0.63679755 0.009915723 -1.3656723 0.026895614
-0.0035013705 -0.5876685 0.6848731 -0.6211556 -0.37903178 0.57216805 -0.4360111 0.7673005
0.675189 0.49935552 0.6030749 -0.59201086 -0.60444516 -0.9355871 0.6533295 -0.034060635
0.69825774 0.6765476 0.4661199 -1.2376734 -0.64629954 -0.57009757 0.64877033 -0.08181384
-0.04678187 -0.7205783 -0.38226476 -0.50297934 0.5475671 -0.59046775 0.33507663 -0.8378464
-0.56240046 0.010860058 -1.5615213 0.6042323 -0.63459176 0.6041714 -1.8555452 -0.61228085
-0.58175117 0.34494513 0.024205105 0.20972571 0.14959008 0.37198037 0.10117708 -0.6307173
-0.20119044 0.33114022 0.56757843 -0.4741978 -0.12292952 -0.087792054 -0.4443954 -0.1545836
-0.3949256 0.87061614 0.3621266 0.33835125 -0.8731456 -0.46272495 0.4077989 -1.6138042
-0.08093254 -0.24873866 -0.04658582 -0.041768193 -0.38254097 0.21901412 -0.24180214 0.19238555
0.45884457 -0.52790976 -0.10491286 0.10516054 0.1382003 -0.40060043 0.46338883 -0.16058533
0.30445132 -0.09250192 0.29138795 -1.1714026 -0.14221644 -0.8996403 -0.6648553 0.09776866
-0.1272194 -0.8470589 -1.0273665 -0.41239488 0.08584163 0.019107206 0.33561656 -0.11657096
0.12901993 -0.04471475 0.41604966 0.80837107 -0.28491473 1.1273007 -0.16419539 -0.6488573
-0.049215764 0.7596049 0.11721057 0.12527339 0.06021183 0.66203994 0.36955705 -0.017771844
-0.34082732 0.22682746 0.49497765 0.20591405 -0.54119855 -0.17216216 -0.65186304 -0.30247107
-0.28127256 0.0073913313 -0.33239174 -0.10490564 -0.42636028 -0.6401825 -0.19220045 -0.94038117
-0.11167888 -0.0007862935 0.4030353 -0.3798761 -0.15187353 -0.1541884 0.191026 0.70841956
0.4958908 -0.023299655 0.1699635 -0.12934156 -0.06217568 -0.22229 0.24392341 0.29210803
0.15942605 0.7503653 -0.028650602 -0.41746047 -0.12942925 -0.08014306 0.1372523 0.14547679
-0.27040893 0.06763109 -0.7507696 0.069569394 0.1869285 -0.5915178 0.57140416 -0.019940214
0.3180275 -0.19972458 -0.21019787 0.47128218 -0.2879395 0.14047126 -0.1432442 -0.36299127
0.19493553 0.067928314 -0.40469745 0.39468274 -0.11432183 0.23662136 0.7927015 -0.45078743
0.5101639 0.0938713 -0.8365039 -0.44795907 -0.14613792 0.15158077 0.19450797 -0.18129557
-0.6676379 -0.38297388 -0.59761214 -0.14665721 0.36204576 -0.36432102 0.112263955 -0.07004499
-0.032323338 -0.26576573 0.380504 -0.27678695 1.0022956 -0.8937177 0.041776367 -0.029224863
0.27483243 -0.27897748 -0.7203773 -0.020256246 0.107989065 0.43359008 0.505248 -0.79191184
-0.030320339 0.78768843 0.4572282 0.81247365 -0.18890966 0.47577494 0.47208384 -0.05475601
-0.22777738 0.9021757 -0.6517196 -0.16270703 -0.30347484 -0.8189732 0.4239321 0.16920735
-0.27542388 0.15072426 0.118672006 0.71346253 -0.23385006 0.8388327 0.6938836 -0.48347193
00000000: 0326 323f 7e6e 073f 606c 2d3f c7fd c53c
00000010: dae3 713f 73d4 063f 9439 b8be de18 143f
00000020: 1b97 3dbf edb4 0b3f 7e8c 853f 060d eebe
00000030: 38bb 033e 9b53 123f 7be7 ffbe 259e 23bf
00000040: 4399 36bf 7610 083f edcf 153f b324 39bf
00000050: 2a05 23bf 8f75 223c 5ace aebf 3154 dc3c
00000060: 4077 65bb 7171 16bf d853 2f3f 0e04 1fbf
00000070: 7410 c2be 9b79 123f d93c dfbe ce6d 443f
00000080: 30d9 2c3f 87ab ff3e 1e63 1a3f 068e 17bf
00000090: ebbc 1abf a382 6fbf 9a40 273f 2a83 0bbd
000000a0: 05c1 323f 3932 2d3f 44a7 ee3e 156c 9ebf
000000b0: e373 25bf eaf1 11bf d015 263f 048e a7bd
000000c0: 599e 3fbd d277 38bf 35b8 c3be 41c3 00bf
000000d0: 5c2d 0c3f e528 17bf 2a8f ab3e 1a7d 56bf
000000e0: 7af9 0fbf 62ee 313c eedf c7bf f8ae 1a3f
000000f0: 9b74 22bf faaa 1a3f 8182 edbf 70be 1cbf
00000100: a5ed 14bf a69c b03e c949 c63c 56c2 563e
00000110: 242e 193e 3674 be3e ee35 cf3d b076 21bf
00000120: de04 4ebe 368b a93e d24c 113f 0eca f2be
00000130: 79c2 fbbd 52cc b3bd cb87 e3be 2a4b 1ebe
00000140: b033 cabe b3e0 5e3f a868 b93e 603c ad3e
00000150: 7886 5fbf 49ea ecbe 04cb d03e 2391 cebf
00000160: f6bf a5bd 59b5 7ebe c6d0 3ebd 2015 2bbd
00000170: 69dc c3be 3d45 603e fb9a 77be b800 453e
00000180: aded ea3e 1825 07bf 8edc d6bd 695e d73d
00000190: 6184 0d3e 801b cdbe 4d41 ed3e 7b70 24be
000001a0: 0be1 9b3e a671 bdbd cd30 953e 85f0 95bf
000001b0: 30a1 11be d44e 66bf f533 2abf ef3a c83d
000001c0: cd45 02be dad8 58bf bf80 83bf 6c25 d3be
000001d0: bdcd af3d b786 9c3c efd5 ab3e c1bc eebd
000001e0: cd1d 043e d026 37bd 7604 d53e 68f1 4e3f
000001f0: 58e0 91be 644b 903f d622 28be 831b 26bf
00000200: 7896 49bd 7775 423f 180c f03d ab47 003e
00000210: aea0 763d 737b 293f 9536 bd3e 4296 91bc
00000220: eb80 aebe 7545 683e b66d fd3e 22db 523e
00000230: fd8b 0abf 474b 30be 7fe0 26bf 7ddd 9abe
00000240: f502 90be fb32 f23b 402f aabe c5d8 d6bd
00000250: e54b dabe 00e3 23bf 32d0 44be d2bc 70bf
00000260: e6b7 e4bd 431f 4eba a55a ce3e 1f7f c2be
00000270: bc84 1bbe 90e3 1dbe 529c 433e fc5a 353f
00000280: 66e5 fd3e ebde bebc e90a 2e3e 1d72 04be
00000290: edab 7ebd fd9f 63be 0fc7 793e 2f8f 953e
000002a0: 9540 233e f117 403f abb4 eabc 61bd d5be
000002b0: 1a89 04be 0b22 a4bd de8b 0c3e def7 143e
000002c0: 0a73 8abe 2b82 8a3d 7032 40bf 667a 8e3d
000002d0: 2f6a 3f3e b66d 17bf 8b47 123f a959 a3bc
000002e0: 80d4 a23e 9a84 4cbe 1c3e 57be e64b f13e
000002f0: ce6c 93be b3d7 0f3e 9cae 12be fed9 b9be
00000300: 2e9d 473e 001e 8b3d 8134 cfbe db13 ca3e
00000310: 9021 eabd df4c 723e 7cee 4a3f 9ccd e6be
00000320: 1a9a 023f 993f c03d 1f25 56bf e45a e5be
00000330: 2ea5 15be fd37 1b3e 192d 473e 8ca5 39be
00000340: 51ea 2abf 2715 c4be 1cfd 18bf 4f2d 16be
00000350: 105e b93e 4988 babe a5ea e53d bf73 8fbd
00000360: 7a65 04bd 7212 88be 6cd1 c23e 05b7 8dbe
00000370: 394b 803f afca 64bf b21d 2b3d fb68 efbc
00000380: d6b6 8c3e 23d6 8ebe a66a 38bf 6df0 a5bc
00000390: 5f29 dd3d 85ff dd3e ef57 013f bcba 4abf
000003a0: 5c62 f8bc f3a5 493f d119 ea3e 46fe 4f3f
000003b0: 8971 41be c698 f33e f9b4 f13e d747 60bd
000003c0: 793e 69be fdf4 663f 19d7 26bf ac9c 26be
000003d0: 0e61 9bbe 3aa8 51bf a10d d93e b144 2d3e
000003e0: 5c04 8dbe 7657 1a3e 4f0a f33d 7ba5 363f
000003f0: 6476 6fbe bdbd 563f 5ba2 313f a289 f7be

encoder.dcrnn_cells.0.update.bias_pool f4 [2, 64]
-0.45564827 -0.7819895 -0.37264794 -0.6345835 0.37974477 0.77933097 0.8467765 -0.363825
0.5168333 -0.53919786 0.41906017 0.25844342 -0.801209 -0.44378287 0.2428057 0.6498779
0.72121865 -0.24220738 -0.3617033 0.33675992 -0.17580573 -0.78710186 0.6443305 -0.38152927
-0.85832256 -0.1377937 0.07152468 0.61648756 -0.19259411 -0.24205878 0.72343904 -0.5319134
-0.72570646 -0.2809501 -0.47856623 0.792546 0.31838682 -0.36777097 -0.38840693 -0.30546263
-0.6220806 -0.5025991 -0.53882223 -0.27898893 0.5398769 0.20044658 -0.34767452 0.9418174
0.5189724 0.27303198 -1.2747334 0.35066384 -0.6232747 0.6137543 -0.56609344 -0.18135686
0.5790018 0.46552387 0.39981332 -0.1478327 0.5872049 -0.5983156 -0.31823447 0.5352132
-0.10418639 -0.27490067 0.075547665 0.0069803377 0.035829242 0.94598764 0.14588329 0.13596311
-0.1573367 0.16159122 0.6217173 -0.18810861 -0.36788598 -0.20417218 -0.38782117 0.01066302
0.17102641 0.16156021 0.249616 0.25686166 -0.48551828 -0.7066346 0.29973012 -0.13036022
-0.37513623 -0.2862163 0.033924934 -0.010457239 -0.32392812 0.15084164 0.009118434 0.12817666
0.28300056 0.04738584 -0.3531271 0.1396202 -0.13770299 -0.11309751 0.023263372 0.06068571
0.25041547 -0.44060263 0.24392332 -0.27401066 -0.010940264 -0.19294554 -0.03026238 0.21865521
-0.11329571 -0.19579795 -0.42632553 -0.1268808 0.22606432 0.20814815 0.11749809 0.037077013
0.053165056 0.3647854 -0.18469101 -0.034917712 -0.018719174 -0.0028470014 -0.48502535 0.16132402
00000000: bb4a e9be 7730 48bf b6cb bebe 1074 22bf
00000010: e86d c23e 3c82 473f 58c6 583f 4547 babe
00000020: 304f 043f df08 0abf 0e8f d63e b252 843e
00000030: 081c 4dbf 8237 e3be 0fa2 783e 665e 263f
00000040: c9a1 383f 3605 78be 2d31 b9be cc6b ac3e
00000050: 6b06 34be 827f 49bf d8f2 243f ce57 c3be
00000060: 07bb 5bbf cb19 0dbe 887b 923d 21d2 1d3f
00000070: 6437 45be 42de 77be 4d33 393f 7a2b 08bf
00000080: e6c7 39bf b1d8 8fbe a206 f5be 4be4 4a3f
00000090: 9903 a33e 7a4c bcbe 46dd c6be 9965 9cbe
000000a0: ad40 1fbf 56aa 00bf 41f0 09bf a3d7 8ebe
000000b0: 5f35 0a3f de41 4d3e 6502 b2be f21a 713f
000000c0: 60db 043f d9ca 8b3e 772a a3bf 368a b33e
000000d0: ee8e 1fbf 001f 1d3f 80eb 10bf 9db5 39be
000000e0: 7639 143f 2559 ee3e 55b4 cc3e 7561 17be
000000f0: 0f53 163f 362b 19bf a1ef a2be bb03 093f
00000100: ad5f d5bd c8bf 8cbe bcb8 9a3d 51bb e43b
00000110: afc1 123d 3f2c 723f 6e62 153e ea39 0b3e
00000120: df1c 21be 2b78 253e dd28 1f3f 8b9f 40be
00000130: 8d5b bcbe 8312 51be 7f90 c6be f3b3 2e3c
00000140: 8c21 2f3e 0a70 253e 569b 7f3e 5f83 833e
00000150: da95 f8be 01e6 34bf 3a76 993e 267d 05be
00000160: db11 c0be f18a 92be dff4 0a3d d754 2bbc
00000170: e8d9 a5be 3b76 1a3e 7c65 153c be40 033e
00000180: 73e5 903e a817 423d 13cd b4be 99f8 0e3e
00000190: 0302 0dbe ab9f e7bd d492 be3c 9491 783d
000001a0: 7536 803e ab96 e1be 09c7 793e 204b 8cbe
000001b0: cb3e 33bc 8493 45be d0e8 f7bc 27e7 5f3e
000001c0: 9507 e8bd 427f 48be 5747 dabe 0aed 01be
000001d0: 687d 673e ca24 553e d7a2 f03d 11de 173d
000001e0: 9ac3 593d 27c5 ba3e a41f 3dbe e005 0fbd
000001f0: f458 99bc c294 3abb 3e55 f8be 2032 253e

encoder.dcrnn_cells.1.gate.weights_pool f4 [2, 2, 128, 128]
-0.5147717 -0.64478654 -0.46020812 -1.5714064 -0.29457077 -0.3065759 -0.26196137 -0.24418299
-0.73447484 0.22544256 0.33497736 -0.33404672 0.008353191 -0.4390112 -0.32507363 -0.14042181
0.47969002 -0.64677477 -0.43760228 0.13205013 -0.59179777 -0.039145406 -0.2654378 -0.6390982
0.46852368 -1.0643817 -0.33368483 -0.53261226 -0.1238379 -1.8227283 -0.02187559 -0.6530284
-0.077650584 0.07229398 -0.051094584 -1.1978902 0.628266 -0.136416 -0.7147415 -0.47575358
-0.17497027 -0.5818244 0.16516283 -0.5004807 -0.67149806 -0.5570316 -0.12860042 -0.022686927
-0.43639085 0.24420466 0.051018346 -0.76911855 -0.47449964 -0.0023033887 -1.7135441 -0.26233435
-0.36925575 -0.70768017 0.035820413 0.18338817 -0.6198454 -1.0665587 -0.26343074 -0.5858972
-0.12967765 0.040885728 0.7753461 0.22725719 0.5976113 -0.10804376 0.011313407 -0.77806115
-0.5130876 0.16621068 -0.01792822 0.062690414 -0.4357362 0.101068735 0.31270888 -0.15685362
0.48955557 0.51500815 0.3527897 0.0024714617 0.37008864 -0.19562577 0.4856391 0.08938531
-0.37471217 -0.03664413 -0.12208138 0.12066004 0.20406406 0.22994591 0.018868122 0.16115417
-0.048429817 -0.106618255 -0.10720602 -0.13073938 0.0008955902 0.93149835 -0.009852234 0.54910415
-0.18200669 0.31172103 -0.43814287 0.38691625 0.06083091 0.26675275 -0.3276403 0.081479214
-0.072614305 -0.299499 0.2656039 -0.17568843 0.39309394 -0.13142335 0.401263 0.36697233
-0.035194647 -0.028812744 0.23418377 0.017989144 -0.74540305 0.3998285 -0.45424253 -0.051250484
-0.6653696 1.8995086 0.24585117 -0.21847111 -0.27883494 0.8011298 0.11719082 0.111228436
-0.331974 0.68053454 0.7687784 0.20552817 -0.17821838 -0.38635084 0.82257456 0.016172202
0.9923609 -0.13119859 2.0569782 0.9494424 -1.2957138 -0.32346386 1.7372199 0.07479712
0.82118833 -0.4188102 0.22073084 -0.30436417 -0.44839635 0.45832825 -0.027487947 -0.23369832
-0.33113268 -0.41223612 0.08330708 -0.5933433 -0.68817973 -0.10788786 0.13069336 -0.53298664
-0.24377617 -1.59341 0.0572732 -0.6169119 0.222543 2.1344986 -0.7316566 0.5257834
-0.24305195 1.1941068 -0.18995859 -0.86856145 1.0594594 0.24029206 0.4244607 0.20280217
0.8772028 -0.03406379 -0.22302464 0.5652643 0.4737632 -0.14999901 0.18943693 -0.37630203
0.414418 0.15134093 1.1840067 0.51738715 0.13706866 0.58666486 0.303084 0.11653541
0.37503344 0.113773264 1.4163886 0.0914026 0.09224404 0.066567 0.0766928 0.149379
1.4393212 1.164168 0.34802577 -0.11838859 0.6225066 0.97084445 1.0351254 0.69381326
0.030093556 0.44687814 -0.2690425 0.5020321 -0.34952414 -0.07415846 0.3040537 0.19914496
0.23718464 0.25020686 0.30253005 0.74139553 -0.055036206 0.22887747 0.86553234 1.0379428
0.6997722 0.6155173 -0.0051529054 0.86357236 0.33078724 0.4164528 0.71896714 0.40773872
0.79069877 0.32124174 0.7086001 1.4431403 0.9958995 0.77100563 0.83941746 0.7040629
-0.20456244 0.6562776 0.20423526 0.52087194 0.2862376 1.1761823 -0.22371389 0.71696985
00000000: 14c8 03bf bb10 25bf 66a0 ebbe d823 c9bf
00000010: fbd1 96be 84f7 9cbe cd1f 86be 1b0b 7abe
00000020: 8b06 3cbf 6ada 663e 2782 ab3e 2c08 abbe
00000030: d3db 083c 13c6 e0be 0d70 a6be bcca 0fbe
00000040: ee99 f53e 0893 25bf 680d e0be 2638 073e
00000050: 0f80 17bf ef56 20bd 77e7 87be f19b 23bf
00000060: 56e2 ef3e a93d 88bf bdd8 aabe 4759 08bf
00000070: ba9e fdbd 294f e9bf 7034 b3bc df2c 27bf
00000080: 4507 9fbd de0e 943d 8e48 51bd 7754 99bf
00000090: 0ad6 203f a3b0 0bbe 4df9 36bf f995 f3be
000000a0: 682b 33be 72f2 14bf 7220 293e 811f 00bf
000000b0: 4ce7 2bbf 9f99 0ebf d4af 03be efd9 b9bc
000000c0: 9f6e dfbe c910 7a3e 9df8 503d f4e4 44bf
000000d0: 9ef1 f2be 73f4 16bb 6a55 dbbf b050 86be
000000e0: 170f bdbe 872a 35bf 6db8 123d 1cca 3b3e
000000f0: 30ae 1ebf ff84 88bf 65e0 86be 5cfd 15bf
00000100: 38ca 04be cb77 273d 157d 463f 1cb6 683e
00000110: 0efd 183f 0c46 ddbd de5b 393c 042f 47bf
00000120: b559 03bf 2233 2a3e 34de 92bc d563 803d
00000130: d118 dfbe 20fd ce3d 611b a03e 3c9e 20be
00000140: 07a7 fa3e 93d7 033f daa0 b43e 3ff8 213b
00000150: 427c bd3e 1f52 48be b0a5 f83e a50f b73d
00000160: 46da bfbe 2818 16bd cd05 fabd 9c1c f73d
00000170: 2bf6 503e f176 6b3e 5291 9a3c 9905 253e
00000180: 585e 46bd ac5a dabd d48e dbbd 8be0 05be
00000190: 0ac6 6a3a ad76 6e3f 446b 21bc 1792 0c3f
000001a0: f65f 3abe e699 9f3e 4354 e0be e319 c63e
000001b0: d529 793d d193 883e 78c0 a7be 93de a63d
000001c0: cfb6 94bd ef57 99be 3cfd 873e abe7 33be
000001d0: 9c43 c93e d893 06be 5872 cd3e cce3 bb3e
000001e0: 4328 10bd b408 ecbc dfcd 6f3e f85d 933c
000001f0: bcd2 3ebf 52b6 cc3e 7a92 e8be 07ec 51bd
00000200: a955 2abf 1923 f33f 69c0 7b3e e4b6 5fbe
00000210: 74c3 8ebe d816 4d3f be01 f03d bccb e33d
00000220: 7ff8 a9be 8337 2e3f a9ce 443f fa75 523e
00000230: e17e 36be c7cf c5be 3f94 523f 917b 843c
00000240: 5d0b 7e3f ec58 06be 88a5 0340 a80e 733f
00000250: f3d9 a5bf 0e9d a5be 395d de3f 3c2f 993d
00000260: 6639 523f 4a6e d6be 4407 623e 9fd5 9bbe
00000270: 3594 e5be 00aa ea3e 672e e1bc 9d4e 6fbe
00000280: 398a a9be 9d10 d3be e79c aa3d 59e5 17bf
00000290: 8c2c 30bf 4ff4 dcbd 7bd4 053e d071 08bf
000002a0: 76a0 79be dcf4 cbbf 4e97 6a3d f0ed 1dbf
000002b0: 50e2 633e a09b 0840 d94d 3bbf be99 063f
000002c0: 9ce2 78be 7ed8 983f 8184 42be 0b5a 5ebf
000002d0: 5e9c 873f 1f0f 763e ea52 d93e 5fab 4f3e
000002e0: 5d90 603f 7986 0bbd 9260 64be 29b5 103f
000002f0: 1791 f23e 5799 19be c1fb 413e a9aa c0be
00000300: 992e d43e 1ef9 1a3e 888d 973f 7c73 043f
00000310: ba5b 0c3e ab2f 163f d32d 9b3e 1eaa ee3d
00000320: 6204 c03e f501 e93d 394c b53f 4931 bb3d
00000330: 71ea bc3d 4754 883d 1d11 9d3d cff6 183e
00000340: ad3b b83f 7503 953f 6f30 b23e b875 f2bd
00000350: 985c 1f3f 4389 783f fd7e 843f bf9d 313f
00000360: c386 f63c 36cd e43e f0bf 89be 2d85 003f
00000370: d4f4 b2be 64e0 97bd edac 9b3e a8ec 4b3e
00000380: 88e0 723e 1d1b 803e 38e5 9a3e 19cc 3d3f
00000390: a56d 61bd db5e 6a3e 8793 5d3f 4fdb 843f
000003a0: 4524 333f 8b92 1d3f b4d9 a8bb 1413 5d3f
000003b0: f25c a93e 4d39 d53e 3b0e 383f 21c3 d03e
000003c0: 3c6b 4a3f cc79 a43e d166 353f d2b8 b83f
000003d0: 45f3 7e3f a060 453f 10e4 563f 773d 343f
000003e0: d178 51be cf01 283f 0c23 513e dd57 053f
000003f0: bc8d 923e 248d 963f 4115 65be 568b 373f

encoder.dcrnn_cells.1.gate.bias_pool f4 [2, 128]
0.28315607 0.33710197 0.30808553 0.42911804 0.1985451 0.4071919 0.19251883 0.40595904
0.0023766588 0.020845512 -0.2546182 0.13436724 -0.18638687 -0.2468484 0.23753577 -0.047915854
-0.035602964 0.039933387 0.45848832 -0.17669608 0.3865828 0.094984405 0.18086672 0.4082314
0.102113694 0.39081162 -0.09395535 0.2037506 0.07170241 0.37885943 -0.12725604 -0.13823237
-0.068707965 -0.18528956 0.07536287 -0.071018524 0.3533834 -0.09721293 0.2824661 0.20091182
0.39466447 -0.09098696 0.057093997 -0.043655533 0.4112685 0.3484439 0.3045086 0.35940626
-0.09592298 -0.23587586 0.21315926 0.381678 -0.030643772 0.29272977 1.0474372 -0.034003586
0.4872696 -0.1671247 0.22203909 0.30907592 0.13357256 -0.0072764945 0.041188862 -0.034924064
0.85453755 0.9433154 -0.13357079 1.1553984 0.29420236 -0.0272604 -0.13844426 1.6390182
1.4305643 0.19827388 -1.1581169 0.6798741 0.88794464 0.5891689 1.8995107 -0.09886363
1.1808149 -1.1774125 -0.467823 0.12203855 0.40738973 -1.6098629 -0.7148452 0.75441337
0.4323304 0.36995396 -1.2137331 2.3211365 1.0924731 -0.944099 1.1011816 0.54897004
-0.09612851 0.93056834 0.65352726 0.53633225 -0.005580197 -0.1958245 0.88874763 0.64783704
0.774842 0.34437585 -1.6610396 0.17786895 0.7951017 0.3399971 0.47915784 -1.0051717
-1.4136527 -0.6434771 -0.51108587 0.20254932 0.2502815 0.42864066 -0.9960248 1.246994
0.5711898 0.66306347 0.5492055 -0.62243664 -0.58658224 0.52903134 0.043820776 -0.84472877
0.18505895 0.29152834 -0.16371968 0.20998575 -0.059858277 0.041294664 0.0780202 -0.26097706
0.092292964 -0.021402098 -0.161024 -0.064785175 0.039428852 -0.19584924 -0.14936864 0.3758474
-0.37629902 -0.1477824 0.10647976 0.075848214 0.36612618 -0.9013456 0.28874907 -0.10707918
-0.3164242 0.1585457 0.14650261 -0.08638106 -0.22283813 -0.04315025 0.20726259 -0.27422175
-0.253127 0.05913425 -0.09557194 -0.5025498 0.13692304 0.06699373 0.054143224 -0.075527914
0.32242092 0.15599173 0.078919455 -0.24503337 0.04244777 0.36062804 0.18670763 0.22623645
-0.036627177 -0.16389772 -0.11398576 0.47017017 0.005681596 -0.22194742 -0.19400685 -0.16224842
-0.17785093 0.17222422 -0.283005 -0.060776126 -0.17592762 0.06555694 0.0020437113 -0.34148777
1.1515667 1.0187658 0.5106642 -0.108903565 0.27913812 0.35146794 0.12032774 1.247922
1.0842382 0.1140992 0.9408581 0.7651469 1.2879044 1.004352 1.5647252 0.7361829
-0.08979119 1.2855659 0.18942596 0.33489197 0.78343225 0.7187203 -0.28964284 0.9148393
0.7480015 0.018769026 3.424175 2.0673413 -0.92537034 -0.25067025 1.2759064 0.6175896
-0.8148586 0.73487216 0.27373844 0.46697512 0.1717126 -0.6557798 1.0003762 -0.08145765
0.4629965 1.3600143 0.43249172 -0.0033727097 0.9295926 0.099383734 0.33109114 -0.1346335
1.9872199 0.07030139 0.021957275 -1.4690661 0.14954019 0.6461806 1.5490069 1.1803147
0.7724951 0.6411231 0.817783 -0.13440059 0.28564584 0.57449126 0.56280226 1.9472053
00000000: d5f9 903e a198 ac3e 63bd 9d3e 5cb5 db3e
00000010: 684f 4b3e 757b d03e a823 453e ddd9 cf3e
00000020: b8c1 1b3b 35c4 aa3c 515d 82be 9197 093e
00000030: 33dc 3ebe d4c5 7cbe 943c 733e 6a43 44bd
00000040: 6ad4 11bd 3191 233d fbbe ea3e d1ef 34be
00000050: 2eee c53e 2f87 c23d 2035 393e b503 d13e
00000060: fc20 d13d 7618 c83e aa6b c0bd ffa3 503e
00000070: b7d8 923d ddf9 c13e 684f 02be c98c 0dbe
00000080: c3b6 8cbd 8cbc 3dbe d957 9a3d 2972 91bd
00000090: abee b43e 9317 c7bd 669f 903e d4bb 4d3e
000000a0: 7611 ca3e 5f57 babd 65db 693d 25d0 32bd
000000b0: c991 d23e 3d67 b23e 8de8 9b3e 1904 b83e
000000c0: 4473 c4bd 7189 71be 6c46 5a3e 4c6b c33e
000000d0: a608 fbbc ade0 953e 6c12 863f 5847 0bbd
000000e0: 677b f93e bd22 2bbe 375e 633e 333f 9e3e
000000f0: 3fc7 083e a96f eebb a7b5 283d 890c 0fbd
00000100: f9c2 5a3f 1e7d 713f c8c6 08be 18e4 933f
00000110: b1a1 963e 3451 dfbc 55c4 0dbe 59cb d13f
00000120: bb1c b73f 4f08 4b3e 2d3d 94bf 3b0c 2e3f
00000130: 5750 633f c6d3 163f 2b23 f33f 0479 cabd
00000140: f124 973f 74b5 96bf 7f86 efbe 59ef f93d
00000150: 6395 d03e fd0f cebf 1800 37bf 3c21 413f
00000160: 695a dd3e 9b6a bd3e 9b5b 9bbf 808d 1440
00000170: 29d6 8b3f 79b0 71bf 85f3 8c3f 4d89 0c3f
00000180: 06df c4bd ba39 6e3f 904d 273f 124d 093f
00000190: 16da b6bb 3886 48be f784 633f a6d8 253f
000001a0: 0c5c 463f 0852 b03e f29c d4bf 4723 363e
000001b0: c98b 4b3f 1a14 ae3e 2d54 f53e 77a9 80bf
000001c0: 92f2 b4bf eaba 24bf 86d6 02bf 1769 4f3e
000001d0: e624 803e ca76 db3e 7bfb 7ebf 809d 9f3f
000001e0: 7f39 123f 87be 293f bb98 0c3f 0258 1fbf
000001f0: 412a 16bf 996e 073f 6a7d 333d 2540 58bf
00000200: 1880 3d3e 3443 953e 22a6 27be 8106 573e
00000210: f42d 75bd 9824 293d 0ec9 9f3d c99e 85be
00000220: 1804 bd3d 7453 afbc 7ae3 24be 17ae 84bd
00000230: 2680 213d b48c 48be 18f4 18be 126f c03e
00000240: 44aa c0be 4554 17be 0f12 da3d 4f56 9b3d
00000250: e474 bb3e 96be 66bf ebd6 933e 544c dbbd
00000260: 5a02 a2be ce59 223e c804 163e 8ee8 b0bd
00000270: ae2f 64be 51be 30bd a53c 543e cb66 8cbe
00000280: dd99 81be c136 723d 39bb c3bd 1ba7 00bf
00000290: 8e35 0c3e 0234 893d 49c5 5d3d 61ae 9abd
000002a0: 5b14 a53e 4cbc 1f3e 86a0 a13d 07ea 7abe
000002b0: b6dd 2d3d 3da4 b83e 4930 3f3e 87aa 673e
000002c0: 6106 16bd ced4 27be 5e71 e9bd 25ba f03e
000002d0: af2c ba3b 2f46 63be bba9 46be 7324 26be
000002e0: 8e1e 36be 8c5b 303e 08e6 90be 63f0 78bd
000002f0: 5f26 34be b842 863d c9ef 053b 7cd7 aebe
00000300: 8a66 933f eb66 823f e4ba 023f d508 dfbd
00000310: 31eb 8e3e 9bf3 b33e 646e f63d e8bb 9f3f
00000320: 51c8 8a3f d7ac e93d 14dc 703f abe0 433f
00000330: 0dda a43f 9b8e 803f ea48 c83f 7c76 3c3f
00000340: 72e4 b7bd 6c8d a43f e1f8 413e f676 ab3e
00000350: 048f 483f 0efe 373f 114c 94be e932 6a3f
00000360: 077d 3f3f 80c1 993c af25 5b40 524f 0440
00000370: 12e5 6cbf da57 80be e750 a33f 5a1a 1e3f
00000380: 939a 50bf 9520 3c3f 7227 8c3e 5d17 ef3e
00000390: 6ed5 2f3e 2fe1 27bf 540c 803f 45d3 a6bd
000003a0: e10d ed3e f314 ae3f 8e6f dd3e ae08 5dbb
000003b0: c8f9 6d3f b389 cb3d c784 a93e 5ddd 09be
000003c0: 395d fe3f 2dfa 8f3d bedf b33c 5c0a bcbf
000003d0: 1021 193e 186c 253f dc45 c63f 8d14 973f
000003e0: 3dc2 453f a520 243f 3a5a 513f 4fa0 09be
000003f0: 2c40 923e dc11 133f cf13 103f 063e f93f

encoder.dcrnn_cells.1.update.weights_pool f4 [2, 2, 128, 64]
-0.105687484 -0.12989339 0.032479033 -0.04327651 0.2053275 0.55108505 -0.01830515 -0.027674744
-0.2379198 0.13393615 -0.08248063 -0.27182874 0.40110257 -0.32290313 0.21194246 -0.005496188
0.025718784 -0.09571599 0.022111423 -0.4775245 0.29650995 0.13947813 0.05737992 -0.0727734
0.36448085 0.26796475 -0.20999578 -0.19067939 0.014478624 -0.32780436 -0.009966852 0.76556563
-0.032470047 0.38600776 0.0031479178 0.24472214 0.22122917 0.31389457 -0.11172771 -0.27580014
-0.1166136 -0.11472906 0.11034176 -0.046573784 0.13349883 0.32734847 0.52891463 0.02861801
-0.074951634 0.07940015 -0.034549884 -0.2219632 -0.67402065 0.11004533 0.016196107 0.07364465
-0.5227298 -0.011981603 -0.023452813 0.04781637 -0.2678443 0.26661876 0.023609439 0.14327793
0.17951967 -0.42764628 0.15392971 0.20294069 0.11971867 0.65236187 0.07489229 -1.0302854
-0.77407 0.53511614 -0.71109587 -0.42399567 0.3689796 -0.7988586 0.41674665 0.05879077
0.24824639 0.32186165 -0.104054846 0.68469965 -0.002335589 0.9673802 0.646674 -0.7481327
1.4069417 -0.43054086 -0.18831944 -0.45215264 -0.04287179 0.3002764 0.04373872 0.53184617
0.28301722 -0.5901297 0.31499726 0.25721323 0.5419213 -0.13289669 0.06167473 -0.43497956
-0.12619205 -0.79327756 0.46154675 0.02225174 0.07444839 0.8922509 0.22042073 0.43934262
-0.13250983 -0.8432946 -0.4024565 -0.04365362 0.19452356 -0.00055935077 0.3582531 0.71280366
-0.8376609 -0.037446067 -0.975181 -0.25077945 -0.59574234 0.37695444 0.62673056 0.17712474
-0.15944776 -0.7525652 -0.33930057 -0.06537227 -0.27202365 -0.181935 -0.039549403 0.11663074
-0.20348944 -0.2023251 0.07765701 -0.3206734 0.093800664 -0.13006148 0.50878245 0.09764456
-0.12530872 -0.10434562 -0.21788654 -0.26734295 0.22046271 -0.034729745 -0.18152763 -0.06995277
-0.11571553 -0.28334758 -0.24890095 -0.02006426 0.15191169 -0.13492419 -0.030014765 0.32961392
-0.19658798 0.19229013 -0.17138581 0.26855633 0.082987994 -0.036490686 -0.08401018 0.13806188
0.12538525 0.0014614274 0.15867299 -0.12866652 0.20861751 -0.19960809 0.31322423 -0.21562743
-0.13823834 0.23036717 0.18092158 0.04749143 0.080973156 0.15549627 -0.05156201 -0.064868264
0.4203075 0.28999844 0.04946656 0.18150164 -0.18846194 -0.21071981 0.50931835 0.28119576
-0.07566434 0.20176788 0.40960008 -0.120412454 -0.032179926 0.22005716 0.42481306 -1.2334659
-0.6637102 0.40450454 -0.23861188 0.050905295 0.83146465 -0.08926939 -0.07064193 0.46858332
0.4235412 -0.007112898 0.23370568 0.39328873 0.246921 -0.047978163 0.58955353 -0.447782
0.3458171 -0.8309662 0.013083429 -0.2675561 -0.3452051 0.21100694 -0.07520721 -0.11734151
0.22514696 -0.019455874 0.48350582 0.18164377 0.5166049 -0.085162655 0.045373674 -0.3300361
-0.35840333 -0.546333 0.20177023 0.07897711 -0.26533327 0.5609945 0.0968114 0.5463904
0.26118258 -0.608577 -0.18252748 -0.52784985 0.41010916 0.7720564 0.20665807 0.89386
-0.5590983 -0.2102933 -0.3985909 -0.041893244 -0.56274915 0.35808432 0.07974242 0.21612878
00000000: ae72 d8bd c602 05be bc08 053d b642 31bd
00000010: 5f41 523e e913 0d3f aff4 95bc 25b6 e2bc
00000020: 40a1 73be 8f26 093e 9beb a8bd 232d 8bbe
00000030: 515d cd3e 8f53 a5be 7207 593e 5e19 b4bb
00000040: 33b0 d23c bf06 c4bd 0423 b53c 177e f4be
00000050: 27d0 973e 5bd3 0e3e 3507 6b3d 380a 95bd
00000060: 3c9d ba3e ad32 893e 2209 57be 7541 43be
00000070: c037 6d3c f9d5 a7be 024c 23bc 1cfc 433f
00000080: 50ff 04bd cfa2 c53e 4c4d 4e3b 7198 7a3e
00000090: e689 623e cab6 a03e 7fd1 e4bd ad35 8dbe
000000a0: 1cd3 eebd 12f7 eabd dcfa e13d 27c4 3ebd
000000b0: ebb3 083e 389a a73e f366 073f 5170 ea3c
000000c0: 3e80 99bd 8c9c a23d 2e84 0dbd 524a 63be
000000d0: 9e8c 2cbf 725f e13d b3ad 843c 02d3 963d
000000e0: 9fd1 05bf 7c4e 44bc 1d20 c0bc 19db 433d
000000f0: e322 89be 4182 883e 9568 c13c 73b7 123e
00000100: 01d4 373e 74f4 dabe c09f 1d3e afcf 4f3e
00000110: 102f f53d 3001 273f 2161 993d 64e0 83bf
00000120: 7429 46bf 5ffd 083f 610a 36bf f615 d9be
00000130: e5ea bc3e ff81 4cbf d15f d53e 97ce 703d
00000140: 4d34 7e3e 0dcb a43e b51a d5bd 7a48 2f3f
00000150: ae10 19bb 3ba6 773f 6d8c 253f a085 3fbf
00000160: aa16 b43f da6f dcbe d0d6 40be 8d80 e7be
00000170: 549a 2fbd d4bd 993e 5f27 333d 1227 083f
00000180: a2e7 903e bd12 17bf 5247 a13e 74b1 833e
00000190: 5bbb 0a3f 1216 08be a49e 7c3d a4b5 debe
000001a0: 7d38 01be 3d14 4bbf db4f ec3e 4849 b63c
000001b0: 6678 983d 8e6a 643f f9b5 613e 84f1 e03e
000001c0: a8b0 07be 28e2 57bf c70e cebe 23ce 32bd
000001d0: 2f31 473e 65a1 12ba f36c b73e 4d7a 363f
000001e0: f270 56bf 0c61 19bd 76a5 79bf 2a66 80be
000001f0: 9282 18bf 2c00 c13e 6a71 203f 3060 353e
00000200: 4646 23be 1da8 40bf ceb8 adbe e6e1 85bd
00000210: af46 8bbe 2b4d 3abe 8efe 21bd 19dc ee3d
00000220: 895f 50be 502e 4fbe a30a 9f3d 4e2f a4be
00000230: 901a c03d d62e 05be 913f 023f dff9 c73d
00000240: ee50 00be 28b3 d5bd a61d 5fbe 2de1 88be
00000250: fac0 613e c740 0ebd 61e2 39be 6643 8fbd
00000260: 44fc ecbd ef12 91be e4df 7ebe ce5d a4bc
00000270: bd8e 1b3e 9129 0abe 86e1 f5bc 28c3 a83e
00000280: 5c4e 49be b4e7 443e c37f 2fbe 3780 893e
00000290: 9cf5 a93d 4277 15bd 870d acbd 1860 0d3e
000002a0: fe64 003e 5e8d bf3a 2c7b 223e 28c1 03be
000002b0: d49f 553e 1066 4cbe ed5e a03e 70cd 5cbe
000002c0: 5a8e 0dbe 5fe5 6b3e 8243 393e 6086 423d
000002d0: 41d5 a53d 6a3a 1f3e b032 53bd a7d9 84bd
000002e0: 8b32 d73e ad7a 943e 739d 4a3d 91db 393e
000002f0: 2bfc 40be efc6 57be b062 023f e4f8 8f3e
00000300: e8f5 9abd 3d9c 4e3e 1ab7 d13e ce9a f6bd
00000310: 19cf 03bd aa56 613e 1981 d93e 36e2 9dbf
00000320: e9e8 29bf 381b cf3e ac56 74be 1282 503d
00000330: deda 543f dfd2 b6bd b7ac 90bd 27ea ef3e
00000340: 64da d83e 5013 e9bb 8b50 6f3e 245d c93e
00000350: dcd8 7c3e c084 44bd fbec 163f af43 e5be
00000360: f00e b13e 33ba 54bf e15b 563c 1dfd 88be
00000370: b9be b0be 3412 583e 3d06 9abd bf50 f0bd
00000380: ed8c 663e ed61 9fbc 138e f73e d300 3a3e
00000390: 3840 043f c269 aebd bfd9 393d 7efa a8be
000003a0: a480 b7be 7bdc 0bbf db9c 4e3e c0be a13d
000003b0: c3d9 87be 569d 0f3f 0e45 c63d 3ee0 0b3f
000003c0: b9b9 853e b4cb 1bbf 7ce8 3abe 2b21 07bf
000003d0: d4f9 d13e 7da5 453f 2c9e 533e 02d4 643f
000003e0: 1121 0fbf 2057 57be 1b14 ccbe 4098 2bbd
000003f0: 5410 10bf d456 b73e fe4f a33d dd50 5d3e

encoder.dcrnn_cells.1.update.bias_pool f4 [2, 64]
0.061524715 0.9397634 0.23479262 0.08112923 0.72915536 -0.88861066 -0.63253784 -1.9136301
-1.3100154 -1.2506996 -1.1006752 -1.016249 1.5273824 0.79725325 1.8962867 0.09192084
-0.7222529 0.40743142 -0.3170149 -1.2940606 0.2512197 0.9920562 0.3330374 1.317665
-0.7514698 -0.0105506815 -0.2026801 -2.1277928 0.48588514 -0.19006531 -0.5640886 -1.3859929
-0.18348025 1.5676887 -0.44434908 -0.45699227 0.6894646 -0.18506618 -0.19872765 0.5878388
-0.27301943 -1.946144 1.7596892 0.45017838 0.48512933 -1.0220932 1.5456641 0.46951398
-0.35184535 0.33229357 0.495224 -0.029311372 -0.18433745 0.62296516 0.4642922 -0.046930946
0.99036884 0.3919627 -1.2009556 0.3533967 -0.3137943 -0.6772793 0.26454234 0.32520127
-0.324004 -0.001592173 -0.5267572 0.3052481 1.1868762 0.42533576 0.31444657 -0.44466022
-0.44159433 -0.30733904 0.85046554 -0.6303365 0.45251295 -0.598743 0.33803555 0.39821383
-0.5994782 -1.1584034 -0.27185637 -0.16615929 -0.37494758 -1.0189123 0.5886038 0.6089661
-0.082445405 -0.4363426 -1.9751083 -0.17068933 0.67828065 0.43858594 0.020604426 -0.09555901
0.09295827 0.48628137 0.06586103 -0.09323133 0.0074936473 0.2863804 -0.76626474 -0.13536802
-0.48293504 0.19170406 -0.7772157 0.25072074 -0.3368949 -0.56540257 0.10416246 0.36412728
-0.6403153 -0.10567214 -0.04588558 -0.87385553 0.10919844 0.32491815 -0.8133534 0.073331706
0.99386597 -0.21274452 -0.3420643 0.15697461 -0.5392139 0.5470716 0.37280214 1.0024062
00000000: 5701 7c3d 5694 703f 7a6d 703e 1527 a63d
00000010: eda9 3a3f fd7b 63bf 00ee 21bf d5f1 f4bf
00000020: 96ae a7bf ed16 a0bf ede2 8cbf 7214 82bf
00000030: 4481 c33f ca18 4c3f 86b9 f23f fe40 bc3d
00000040: 91e5 38bf da9a d03e c74f a2be c7a3 a5bf
00000050: de9f 803e 65f7 7d3f e183 aa3e 3fa9 a83f
00000060: 5360 40bf c4dc 2cbc 5f8b 4fbe c22d 08c0
00000070: f0c5 f83e 7ba0 42be 1c68 10bf 3768 b1bf
00000080: 3fe2 3bbe 06aa c83f b981 e3be e4fa e9be
00000090: c180 303f fd81 3dbe 437f 4bbe 9b7c 163f
000000a0: 34c9 8bbe 3f1b f9bf 7f3d e13f c87d e63e
000000b0: df62 f83e f3d3 82bf 52d8 c53f 2364 f03e
000000c0: 1325 b4be 6222 aa3e 008e fd3e 671e f0bc
000000d0: f5c2 3cbe a57a 1f3f b5b7 ed3e aa3a 40bd
000000e0: d088 7d3f 56af c83e eab8 99bf 6af0 b43e
000000f0: a6a9 a0be 2d62 2dbf 1872 873e c880 a63e
00000100: dae3 a5be 76b0 d0ba 8fd9 06bf 7b49 9c3e
00000110: 8feb 973f 9cc5 d93e 24ff a03e 81aa e3be
00000120: a718 e2be 8b5b 9dbe 1cb8 593f bc5d 21bf
00000130: c7af e73e 3947 19bf ff12 ad3e afe2 cb3e
00000140: 6777 19bf 9046 94bf c230 8bbe a925 2abe
00000150: 21f9 bfbe b86b 82bf bdae 163f 34e5 1b3f
00000160: 23d9 a8bd 4c68 dfbe 59d0 fcbf 2fc9 2ebe
00000170: cda3 2d3f 568e e03e 9dca a83c 71b4 c3bd
00000180: e860 be3d dff9 f83e 26e2 863d 11f0 bebd
00000190: 458d f53b 74a0 923e ed29 44bf ea9d 0abe
000001a0: 4343 f7be 124e 443e 9cf7 46bf 785e 803e
000001b0: 7d7d acbe 39be 10bf 2153 d53d e46e ba3e
000001c0: b4eb 23bf a36a d8bd 85f2 3bbd ffb4 5fbf
000001d0: 6fa3 df3d ac5b a63e ee37 50bf ef2e 963d
000001e0: 006e 7e3f b3d9 59be 0d23 afbe f4bd 203e
000001f0: ec09 0abf e20c 0c3f ecdf be3e d94e 803f
