model/experiments/PEMSD8/20211027084704/best_model.pth (torch, 604100 bytes, 11 tensors)

node_embeddings f4 [170, 2]
000000 a1 cb 3e 3f 98 2e 62 bf e0 57 9c 3f b0 f6 d8 be
       0.74529463 -0.88352346 1.2214317 -0.42375708
000010 28 d6 81 3f 78 00 aa be dd 3d 2d 3f e6 44 9a bf
       1.014348 -0.33203483 0.6767252 -1.2052276
000020 a3 03 b0 3f d3 fa f0 be 6a 1f 10 3d 06 37 b9 bf
       1.375111 -0.47066364 0.03518621 -1.4469917
000030 37 c1 9d 3f 83 1f be be 6b 10 60 3f 62 c3 52 be
       1.232459 -0.37133417 0.8752505 -0.20582345
000040 ed 64 9d 3f 97 70 e6 3d df 61 32 40 4b 38 2d bf
       1.2296425 0.112519436 2.7872236 -0.6766402
000050 91 8e d0 3f 05 a5 af bd 85 fb 76 3f 3d ff 85 be
       1.6293508 -0.08576397 0.9647754 -0.26171294
000060 ff 72 38 3f b7 08 3a bf 48 95 21 40 f0 b9 27 c0
       0.7205047 -0.7266955 2.5247364 -2.6207237
000070 0a 3d 28 3f 29 a7 98 bf a8 e8 7b 3f e3 94 c8 be
       0.6571814 -1.1926013 0.9840188 -0.39176092
000080 81 e7 86 3f b4 bb 39 3d ca af 36 3f d7 dc 39 bf
       1.0539399 0.045345023 0.7136198 -0.726026
000090 5f fc 6a 3e 27 b2 bb bf ee cc 11 3f ab a8 73 bf
       0.22947834 -1.4663743 0.5695332 -0.9517924
0000a0 e9 b6 88 3f df 40 9b be 80 7d 6f 3f b4 ab aa be
       1.068082 -0.3032293 0.9355087 -0.33334124
0000b0 b3 97 a0 3f 73 ee f1 be 39 ad 7d 3f a7 c4 d7 be
       1.2546295 -0.47252235 0.9909244 -0.4214222
0000c0 1d 77 1b 3f 29 41 80 be 69 7b 5e 3f 47 da c7 be
       0.6072863 -0.25049713 0.8690706 -0.3903372
0000d0 f9 89 bf 3f 34 05 1c be fc b5 97 3f a0 df a8 be
       1.4963981 -0.1523636 1.1852412 -0.32983112
0000e0 5b 73 38 3f ee 05 3a bf 1c cd c8 3f ac 7b 37 bd
       0.7205102 -0.726653 1.5687594 -0.044795677
0000f0 56 9a a6 3f 42 f9 ea bd e0 7a 8d 3f 02 b6 38 be
       1.301585 -0.114733234 1.1053123 -0.1803818
000100 63 a6 f5 be 21 2e b9 bf 06 9d 8a bd da 85 71 be
       -0.47978505 -1.4467202 -0.06768231 -0.23586217
000110 31 6c b6 3e 2b 68 11 bf f5 48 09 3f 27 5e 98 bf
       0.35629418 -0.5679957 0.5362695 -1.1903733
000120 b6 c4 83 3f 7d 72 ba be 32 a8 6d 3f 85 cb e5 bd
       1.0294406 -0.36415473 0.9283477 -0.11220459
000130 89 70 68 3f 09 e7 af be 5c 39 a9 3e 04 42 a3 bf
       0.90796715 -0.34355953 0.33051574 -1.2754521
000140 43 89 95 3f f8 9c 28 be 7c d7 a2 3f 65 3a ab be
       1.1682514 -0.16466129 1.2722011 -0.3344299
000150 2b 2e 20 bd 16 0f 99 bf 66 e7 93 3f fe 82 d4 be
       -0.03910653 -1.1957729 1.1554992 -0.4150619
000160 27 86 77 3f 4a 78 7f be 8c 8d 7c 3f 23 91 09 bf
       0.96689075 -0.2494823 0.98653483 -0.53737086
000170 73 97 ea 3e b5 5b b3 bf e1 6b 91 3f 5b fd ad be
       0.45818672 -1.4012362 1.1361047 -0.33982357
000180 17 fc 52 3f e7 ef 85 bf ea 64 4c bf 6c 78 c8 bf
       0.8241591 -1.0463837 -0.7984148 -1.566175
000190 f8 7c 20 3f 58 0c 15 bf 2b 7a 20 3f 00 0d 15 bf
       0.6269069 -0.5822196 0.62686414 -0.5822296
0001a0 f0 fd bb 3f e9 0e bc be 6c 74 87 3b ca 0d b0 bf
       1.468687 -0.36730126 0.0041337516 -1.3754208
0001b0 0b 61 6a 3f 01 20 c0 be 35 bd 3e 3f a1 0b 3f bf
       0.91554326 -0.37524417 0.74507457 -0.7462712
0001c0 17 4e ce 3e ed 4b 85 bf 49 bc a5 3e 46 e3 70 bf
       0.40293953 -1.0413796 0.32370213 -0.9409679
0001d0 59 6c 7b 3f 01 b7 13 be 45 b7 9a 3f 56 8c d9 bd
       0.982122 -0.14425279 1.208718 -0.1062247
0001e0 fb 13 d7 3f 78 b1 70 3d af fd 52 3f 32 ef 85 bf
       1.6802973 0.058762997 0.8241834 -1.0463622
0001f0 76 6a 0f 3f 44 16 b9 be 94 e8 ca 3f 01 ac 18 3c
       0.5602182 -0.361498 1.5852227 0.009318353
000200 08 bd 3a 3f 01 ad 43 bf 18 8e ad 3f b4 32 fa bd
       0.7294469 -0.7643586 1.3558989 -0.12216702
000210 49 28 92 3f 22 ba 20 be fc 31 91 3f 4d 02 fe bd
       1.1418544 -0.15696004 1.1343379 -0.124027826
000220 85 2f d1 3f 41 36 ac 3d c7 75 64 3f 51 3d de be
       1.6342627 0.084087856 0.89242214 -0.43406156
000230 4f bd 3e 3f 62 0a 3f bf f2 a7 2d 40 b3 72 2d c0
       0.7450761 -0.7462522 2.7133756 -2.7101257
000240 bb dd b0 3f 5e a5 be bd 50 bd 3e 3f 59 0a 3f bf
       1.3817667 -0.09308885 0.7450762 -0.74625164
000250 ea 79 20 3f ef 0c 15 bf f0 7c 20 3f 68 0d 15 bf
       0.62686026 -0.5822286 0.6269064 -0.5822358
000260 f8 7d ba 3f 42 df c7 bd 8b 95 e2 3f e5 63 47 c0
       1.4569693 -0.0975938 1.7701887 -3.115472
000270 ff 7a a8 3f 87 31 7c bd 82 bb a9 3f 6d 8b 21 3f
       1.3162535 -0.06157067 1.3260348 0.6310337
000280 12 fb 52 3f 22 ef 85 bf b9 bb 3e 3f c6 08 3f bf
       0.8241435 -1.0463603 0.7450519 -0.7462276
000290 66 41 47 be cd 46 a9 bf 1f bd 3e 3f 1e 0a 3f bf
       -0.19458541 -1.3224732 0.74507326 -0.7462481
0002a0 c6 bd 3e 3f dd 0b 3f bf 67 67 a0 3f 1d 13 00 3d
       0.7450832 -0.74627477 1.2531556 0.031268228
0002b0 b2 bd a6 3f 78 95 0e be a3 c0 e1 3f 50 6c a0 3e
       1.302664 -0.13924205 1.7636913 0.31332636
0002c0 15 40 81 3f 08 c0 c8 bd 74 ce a5 3f b9 ac 85 3c
       1.0097681 -0.09802252 1.295363 0.016317712
0002d0 53 7c 20 3f c0 0c 15 bf 34 7c 20 3f 44 0e 15 bf
       0.62689704 -0.5822258 0.6268952 -0.5822489
0002e0 b4 7d 8d 3e 34 fd 6f be 39 fd 78 3f bf 38 ea be
       0.27634966 -0.23436433 0.9726139 -0.4574642
0002f0 2f d7 ff bd d4 7d 95 bf df 08 31 3f e6 2a e4 be
       -0.12492215 -1.1679025 0.6915416 -0.4456398
000300 30 86 8e 3f b3 58 20 bd 7c ae cd 3e dd f1 5a bf
       1.1134701 -0.03914709 0.40172184 -0.85525304
000310 f2 c0 e4 3e c8 8d 0e bf ec 0a a0 3f 76 e0 d5 bc
       0.44678456 -0.5568509 1.2503333 -0.026108008
000320 cf e1 81 3f 7e f6 ea bd 62 2f d5 3e f8 bc 66 bf
       1.0147036 -0.11472796 0.41637713 -0.90132093
000330 62 8a 18 3f ab eb 80 be e7 26 1c 3f 04 df 80 be
       0.59586155 -0.251798 0.6099686 -0.25170147
000340 d3 a7 7e 3f 0f 5e 70 be a4 19 09 40 ce 9b 3d 3f
       0.9947483 -0.2347338 2.14219 0.74065864
000350 98 fd d0 3f 5c ec 99 3c a1 d2 aa 3f 77 ae d6 bc
       1.6327391 0.018789463 1.3345529 -0.026206238
000360 49 03 3e 3e 24 8d 65 be 8d 67 0f 3f 76 19 b9 be
       0.1855594 -0.22417122 0.5601738 -0.36152238
000370 33 6a 20 3d d9 c7 25 bf 55 4b 81 3f 67 f2 b0 be
       0.03916378 -0.6475807 1.0101115 -0.34559938
000380 fc 62 9d 3f 56 17 2d 3d e7 86 e5 3e ab c8 e3 be
       1.2295833 0.042258583 0.44829485 -0.44489035
000390 ab 20 6b 3f 4e 1c dd 3e 66 7b 20 3f 4b 0f 15 bf
       0.9184672 0.43185657 0.6268829 -0.5822646
0003a0 ca 2b 3c 3f 14 b8 99 be c1 af c2 3f 32 dd a7 bc
       0.73504317 -0.30023253 1.5209886 -0.020491216
0003b0 ed 4b 9a 3f 7a 79 dc bd 6d 11 6f 3f e6 cd c9 be
       1.2054421 -0.10765357 0.93385965 -0.394149
0003c0 c6 0f 5a 3f c2 5d cd be 67 fc 52 3f 04 f1 85 bf
       0.8518032 -0.40110594 0.82416385 -1.0464177
0003d0 f2 fb 52 3f 57 f0 85 bf 43 fc 52 3f 8a ed 85 bf
       0.8241569 -1.0463971 0.8241617 -1.0463116
0003e0 f0 ea 40 3f 00 c8 42 bf 0e 95 50 3f d9 74 5b bf
       0.75358486 -0.76086426 0.8147744 -0.8572517
0003f0 d6 8f 39 3f db b3 5a bf 0d 36 d9 3f da 96 b9 3b
       0.724851 -0.8543069 1.696962 0.005663735

encoder.dcrnn_cells.0.gate.weights_pool f4 [2, 2, 65, 128]
000000 ce 0f 0c 3c 8e f0 41 3c 67 0a a0 bb e7 64 5a 3c
       0.00854869 0.011837138 -0.0048840526 0.013329721
000010 52 e7 c0 bb 58 1e 1f bc 4b 4e 1a 3c 5e 7e 17 3c
       -0.0058869505 -0.009711824 0.009418081 0.009246437
000020 92 6f f9 3b eb 53 55 bc fe 31 20 bb c5 d3 1c 3c
       0.007612177 -0.013020496 -0.002444386 0.009571974
000030 29 11 85 3b ea ea 87 3b 3b 72 6d 3a 9b db e6 3b
       0.0040608835 0.004147877 0.0009057854 0.007045222
000040 1d 2b f0 bb 08 22 4e bb 72 ab 34 bc 70 58 2b bc
       -0.0073293583 -0.003145339 -0.011027204 -0.010458097
000050 9f 42 16 3b 76 6b 16 3c 4c 8a 23 ba 0e 2c 5b bc
       0.0022927893 0.009180894 -0.00062385644 -0.013377203
000060 38 c7 1b 3c 5c 5d d1 ba 74 d3 f4 bb 95 d3 90 3b
       0.009507947 -0.0015973258 -0.0074714962 0.004419754
000070 a4 ef cb bb 0c 25 c4 3a fb b7 15 3c 84 a0 0f 3c
       -0.0062236357 0.0014964654 0.009138103 0.008766297
000080 6e 7b 0f 3c 46 2a 46 3c c0 6c 47 bc 23 f4 2e bc
       0.008757455 0.01209504 -0.012171924 -0.010678324
000090 86 45 3a 3c ca da be bb e4 11 1b 3b 50 8b 08 3c
       0.011369115 -0.0058244215 0.0023661787 0.008333996
0000a0 90 77 05 3c 7f 28 38 3c 66 5f 44 bc a8 4e 92 3b
       0.008146182 0.011240124 -0.011985635 0.004464943
0000b0 0d 5b 85 ba ee 4d 3e 3c ef a6 47 3c 48 37 22 3c
       -0.001017423 0.01161526 0.012185796 0.009900875
0000c0 53 40 e0 bb d2 7b 5b 3c cb 0b 87 3b 7d f3 38 bc
       -0.0068436055 0.01339622 0.004121279 -0.011288521
0000d0 f8 8d 06 3c dd c4 2d bc 71 d2 43 bb c7 e9 2e bc
       0.008212559 -0.010606018 -0.0029880072 -0.010675854
0000e0 03 d5 3d bc 32 e0 fa bb b3 d8 25 bc ea 7a 35 3c
       -0.0115864305 -0.0076561207 -0.010122466 0.011076668
0000f0 e4 c5 3c 3c cf e6 03 3c dd ac 18 bc da 38 dd bb
       0.01152179 0.0080506345 -0.009318558 -0.006751162
000100 44 77 66 3e c2 43 d3 3e 2a 80 7d bf e2 fd 27 3e
       0.22506434 0.41262633 -0.9902369 0.16405442
000110 5d 88 62 3e 36 f4 5f bf 44 23 06 3e 26 09 31 be
       0.22122331 -0.8748201 0.1309939 -0.17288646
000120 5a 40 a4 be 9a fe d8 be a0 05 a2 bc 2c 29 e7 be
       -0.32080346 -0.42381746 -0.019778073 -0.451486
000130 db 1c 21 bf 30 1d c8 3e b4 11 db be 45 ff 68 be
       -0.62934655 0.39084768 -0.42786944 -0.22753628
000140 97 f8 e6 be f8 a8 0b be 02 d6 aa be 82 89 07 3f
       -0.45111534 -0.13638675 -0.333664 0.52944195
000150 9c 75 52 be e5 d1 86 3e d4 c3 9d bf e2 ed 0c bd
       -0.20552677 0.26332012 -1.2325387 -0.03440655
000160 06 f2 b5 bf 4c a4 b8 bd e4 5e 88 3f 56 79 50 be
       -1.4214485 -0.09015712 1.0653958 -0.20358786
000170 52 d6 76 3c 92 e8 9e bf 3e 9c e8 3d 2c 29 7a be
       0.015065746 -1.2414725 0.11357926 -0.24429768
000180 46 3e 26 bf 39 ec 03 bf fa 41 18 bf b2 ab e5 3d
       -0.6493877 -0.5153232 -0.5947567 0.11214389
000190 25 e9 5e be f4 60 76 bf 11 46 72 bd 6c b3 cf 3d
       -0.21768625 -0.9624169 -0.05914885 0.10141644
0001a0 9b 9c f6 be 88 6f 93 be 33 1c 21 bf 1b dc 77 3f
       -0.48166355 -0.2879603 -0.62933654 0.9682023
0001b0 6d fb 46 bd c5 6d 41 be b0 10 33 be a7 fd 9b bf
       -0.048579622 -0.1888953 -0.17486835 -1.2186784
0001c0 dd bd a4 3e 60 bf 92 be 67 8c ff be 02 79 e7 be
       0.32176104 -0.28661633 -0.49911806 -0.4520951
0001d0 f4 c9 b5 be 48 c3 69 3c 6d 7b ef be c8 ba cb be
       -0.3550564 0.01426775 -0.46773854 -0.3979094
0001e0 5d 42 79 3e b0 a2 93 3f 31 fc 44 3f 86 77 c2 3e
       0.24341722 1.1534023 0.76947314 0.37981814
0001f0 c9 0a 32 bf ea 4f 10 be 1e b0 a0 bf 80 22 15 3e
       -0.69547707 -0.14092985 -1.2553747 0.14563942
000200 98 48 da 3b 81 14 37 3a 2a 05 1c 3a 8f 8c 97 bb
       0.006661486 0.00069839513 0.0005951697 -0.00462491
000210 72 3e 45 bc 8f 24 2a 3c 49 18 1c 3a 08 57 0a b7
       -0.012038814 0.010384693 0.00059545465 -8.2457045e-06
000220 12 d3 03 bc b6 9e 1f bb 04 de 3d 3c e8 0d 02 3c
       -0.008045929 -0.0024356074 0.011588577 0.007937886
000230 d4 bd 14 bc 0e 14 26 3c 00 b8 2f 3c 15 21 c9 3b
       -0.009078462 0.010136617 0.010725021 0.006137977
000240 4d 08 cc bb b1 cf 4d 3c 5f 2e 48 3c 1e 5f 9b bb
       -0.0062265755 0.0125617245 0.012218087 -0.0047415635
000250 44 b1 44 bc a2 17 8b 3b 78 32 af bb 9b bb 86 bb
       -0.012005154 0.0042447606 -0.0053465925 -0.00411172
000260 0d 47 9c 3b 76 23 55 bc 8a 0c da bb be a9 a6 bb
       0.004769212 -0.013008943 -0.006654327 -0.005086153
000270 9f 8d b3 3b 25 b7 41 bc fe 4f 11 3c 92 6a fe bb
       0.005479529 -0.01182345 0.008869169 -0.007764169
000280 cf fb 54 bc ca bc ec 3b ca 75 02 3c 34 fc 05 3b
       -0.012999489 0.007224654 0.007962653 0.0020444514
000290 2e 54 13 3b 08 01 00 bc d6 63 d9 3b db db 12 bc
       0.0022480595 -0.007812746 0.006634216 -0.00896355
0002a0 52 29 94 ba 0a 4a 23 bc 90 a6 23 bc b5 a3 c6 3b
       -0.0011303818 -0.009966383 -0.009988442 0.006061996
0002b0 d7 8e 12 3c 30 eb 14 3c e4 03 83 3b 35 ed 0d 3b
       0.0089451885 0.009089276 0.0039982665 0.002165628
0002c0 1b ae 55 bb 8d a7 e7 3b 37 d1 f9 3a e7 a9 90 3b
       -0.0032604996 0.007069534 0.0019059543 0.004414785
0002d0 b6 8e 56 bc ad d5 6e b9 32 ca 1d 3c 74 84 c2 3b
       -0.013095548 -0.00022777049 0.009630727 0.0059362
0002e0 de 97 4a 3c 29 92 0f bc 56 a6 c1 bb 3f 20 0e 3c
       0.0123653095 -0.008762875 -0.0059097214 0.00867468
0002f0 ae 08 28 3b ca bb 97 38 b3 ca c5 bb 7e 60 f2 38
       0.002563994 7.2352195e-05 -0.0060361265 0.00011557432
000300 e9 4e 4c bc 0d 16 58 3c a4 36 bd bb a0 96 31 3c
       -0.0124699855 0.013188851 -0.005774336 0.010839134
000310 9e 07 e9 bb 01 5c 50 bc 53 9f c6 bb cc 9b 03 3c
       -0.0071115037 -0.012717248 -0.0060614734 0.00803275
000320 1b ea 2d 3b bf 56 29 bc ba 82 ab 3b 01 58 4b bc
       0.0026537243 -0.010335623 0.0052340897 -0.0124111185
000330 42 ea 15 3c 68 12 a9 3b 76 b3 e1 3b 24 38 45 3a
       0.00915009 0.005159665 0.0068878485 0.0007523319
000340 58 1e 4a 3a df d2 43 3b e9 99 57 3c 40 1a 6a bb
       0.000771021 0.0029880328 0.013159254 -0.0035721213
000350 c3 f1 17 3c da 69 6d ba ca 02 29 bc 9e 31 2c bb
       0.009273949 -0.00090566056 -0.010315606 -0.0026274691
000360 69 b7 10 3c fb 7d 3f bc ac a7 0f bb 0c 79 0c 3c
       0.008832791 -0.011687751 -0.0021920009 0.008573782
000370 13 fc 33 bc c2 d5 9d 3b f0 b8 53 bc 33 5f 48 3c
       -0.010985392 0.0048167417 -0.0129225105 0.0122297285
000380 7e ab 18 3b 3c 14 12 3c 97 ae bd bb 20 e3 e0 39
       0.0023295577 0.008915957 -0.005788635 0.0004289383
000390 36 a8 7c 3b 9f b2 15 bc e9 50 6a bb e0 88 84 3b
       0.003855241 -0.009136825 -0.0035753793 0.004044637
0003a0 f7 e4 47 bc 41 d2 1b bc 4f c3 ca ba c1 b6 3f bc
       -0.012200586 -0.009510578 -0.0015469583 -0.011701287
0003b0 91 51 9c bb 1e b4 59 3c 58 e6 85 3b c9 32 43 3c
       -0.0047704657 0.013287572 0.004086297 0.011913964
0003c0 99 a5 4e 3c 30 26 36 bc c3 d9 d7 bb c7 bd 0b 3c
       0.012612724 -0.011117503 -0.0065872385 0.008529133
0003d0 31 0e 4d 3c d4 f3 37 3c e3 57 ad 3b c7 be 04 bc
       0.0125155905 0.011227567 0.005290018 -0.0081021255
0003e0 a2 e8 2e bc 54 2f 0d bc 51 fa 2a bc d1 b8 1b 3c
       -0.010675581 -0.008617241 -0.010435657 0.009504513
0003f0 17 8d 59 bc 2a 42 06 bc c0 7f 0e 39 71 51 22 bc
       -0.013278267 -0.008194486 0.00013589766 -0.009907112

encoder.dcrnn_cells.0.gate.bias_pool f4 [2, 128]
000000 d4 eb a2 3d 4c d7 f4 bd b7 98 42 3e e9 b1 71 3d
       0.07955137 -0.11955127 0.19003569 0.05900756
000010 6a 20 55 3e 64 4c ba 3c c3 d5 86 3d 73 c9 95 bd
       0.20813146 0.022741504 0.065837406 -0.07313814
000020 ad d3 84 3d dd b8 04 be b1 98 83 3d f1 92 95 3d
       0.064856865 -0.12961145 0.06425608 0.073034175
000030 cf 7f 22 be 2a 5d 8f bd 75 e9 4e 3e 94 e3 e6 bd
       -0.15869068 -0.070001915 0.20206244 -0.11273876
000040 28 76 d6 bc 3a 23 55 bb 46 7c ad 3d af 8e 51 be
       -0.026179388 -0.0032522217 0.08470969 -0.20464586
000050 8b 16 f6 3d da 4e 24 be 40 7a ce bc a4 16 f4 bd
       0.120160185 -0.16045704 -0.025204778 -0.11918381
000060 24 fb 01 3e a6 9d ed bd cc 74 d8 bd 05 d8 2f 3e
       0.12693459 -0.11602335 -0.10569152 0.17172249
000070 dc 9f 02 3e e7 08 0f be ab 6d a3 3d 4e 6a 59 3e
       0.12756294 -0.1396824 0.07979902 0.21231958
000080 ef 70 30 be 0d 54 e2 3c ac b4 f5 3d a4 a9 26 bd
       -0.17230581 0.02762797 0.11997351 -0.040689126
000090 21 aa e2 bd ba 93 3d be df 61 0f be aa 0a 4e be
       -0.11067606 -0.18513384 -0.14002179 -0.20121256
0000a0 ef a0 e1 3d d3 77 3e 3e 7d 2d 4e be 45 df 10 3e
       0.11017024 0.18600397 -0.2013454 0.1414767
0000b0 b1 4e 82 3d 0e 0a 91 3d 17 3f 35 be 37 11 b2 3d
       0.063626654 0.07081996 -0.17699848 0.0869469
0000c0 01 3c 3d 3e 9a b6 3a 3e f4 1b 17 3e 88 3f a8 3d
       0.18479921 0.1823372 0.14756757 0.082152426
0000d0 78 88 15 3d 40 46 98 bc fb 43 1d bd 24 ec 56 be
       0.0365071 -0.018588185 -0.03839491 -0.20988518
0000e0 e8 59 3d bd b9 4b 3b 3e 0b 6c d5 3d 6d 1a 98 3d
       -0.04622832 0.18290605 0.10420998 0.07426915
0000f0 9b 3f 55 3e d6 c0 2f bd 99 45 39 3d 9d e2 27 bd
       0.20825045 -0.042908512 0.04523239 -0.0409876
000100 90 52 a2 bf 13 f9 a9 3e b5 b2 a0 3f f3 af 97 bf
       -1.2681446 0.3319784 1.2554537 -1.185057
000110 8c 3f 20 bf 4b 5e f9 3e 4e 92 e2 be ab b6 18 bf
       -0.62596965 0.48704752 -0.44252247 -0.5965373
000120 67 85 2c 3f 09 66 b0 3d b1 79 9a 3f c3 7a 4c 3f
       0.67391056 0.08613212 1.2068387 0.7987482
000130 a0 be 80 3f 3e f6 bc bf e0 68 66 3f 1e 2b 2c 3f
       1.0058174 -1.4762647 0.90003777 0.6725329
000140 2b 62 34 bf 26 20 1f bf b1 cf db be 94 9a 26 bf
       -0.7046229 -0.6215843 -0.42931893 -0.6507962
000150 5d 4a 06 be 24 5d f3 bf 61 77 8d 3e 24 3c b4 be
       -0.13114305 -1.9012799 0.2763014 -0.35202134
000160 af ae 8f bf c1 41 03 bf 7b f3 eb be 10 41 1a bf
       -1.1225184 -0.5127221 -0.46084198 -0.6025553
000170 21 f6 ac 3f 8c 53 06 bf 5c b9 cb bf 77 27 2a 3f
       1.3512613 -0.5247123 -1.5915942 0.6646647
000180 b4 eb 54 3e 5d 23 88 3f 5f 8e b8 3e d8 86 71 bf
       0.20793039 1.0635792 0.3604612 -0.9434638
000190 f9 f4 bf bf 61 a6 48 3e 7c 8a 02 bf 76 a5 72 bf
       -1.4996635 0.19594719 -0.5099256 -0.94783723
0001a0 2b d2 cc be 4b d2 41 bf 28 5e 54 3e f2 ab 2c bf
       -0.40004095 -0.75711507 0.20739043 -0.6744987
0001b0 85 88 76 bf 18 0c 69 bf 18 7c 60 bf b0 ab 29 3f
       -0.9630206 -0.9103408 -0.8768935 0.662776
0001c0 88 b0 b8 bf 4e a7 03 bf 10 e2 29 3e e7 73 64 3f
       -1.4428873 -0.5142716 0.16590142 0.8923935
0001d0 7c ff 82 be 2f 5b a7 bf bb fb 24 3f 1f 07 ec 3e
       -0.25585544 -1.3074702 0.6444661 0.46099183
0001e0 53 b1 b4 bf 56 cc d4 bf 42 07 43 be 3d 0d ad bf
       -1.4116615 -1.6624858 -0.19045737 -1.3519665
0001f0 84 d3 66 3f c5 cf 56 bf 73 d7 a0 3e f3 b0 83 bf
       0.901665 -0.8391078 0.31414375 -1.0288376
000200 76 10 0a 3c 7c 19 de 3d 87 aa 53 be 94 43 fd 3d
       0.008426776 0.108447045 -0.2067052 0.12366405
000210 4c c2 2d bd 8e af 1f 3e 67 d2 a0 bd 22 8e 61 3c
       -0.042421624 0.15594313 -0.07852631 0.013766797
000220 fe 8a 2e 3e 63 d6 e4 bd 02 4a 58 be 32 04 e3 bd
       0.17045209 -0.111737035 -0.21121982 -0.110847846
000230 c0 7e 3d 3e d1 03 30 3e 91 18 9c 3d 35 66 64 3b
       0.18505383 0.17188956 0.07621873 0.003485096
000240 f1 41 dd bd 65 ef c2 bd 27 4d 36 be de cd 43 be
       -0.10803593 -0.09518317 -0.17802869 -0.19121501
000250 13 1b 1a be 63 98 b9 3d 84 7b d1 3d d2 22 a7 3d
       -0.1504939 0.090622686 0.10228637 0.08160938
000260 88 21 3c 3e 8e c6 1b 3e 7a 04 ed bd 2a e1 94 3d
       0.18372166 0.15212461 -0.115731195 0.07269509
000270 2d a5 4c 3e ff ed c5 3b 79 86 d1 bb 6f 65 a0 3d
       0.19984885 0.0060403342 -0.006394204 0.07831847
000280 3b c7 11 3e 56 0f 33 3c 08 09 2f be be 6a c2 3d
       0.14236157 0.010928949 -0.17093289 0.09493016
000290 99 e8 43 bd 7d 12 8a bd 15 b0 37 be ce aa 9d 3d
       -0.047829244 -0.067418076 -0.17938264 0.07698594
0002a0 e6 a3 35 3d 82 1a 2c be 84 5d 25 be fa ca 1d be
       0.04434576 -0.16806987 -0.16148955 -0.1540946
0002b0 61 af c8 bd 6d c0 2e 3e 97 c8 3e be 8d 22 4c be
       -0.09799076 0.17065592 -0.18631206 -0.19935055
0002c0 5a d4 de bc f1 3e a8 3d ad b1 ce bd 15 3f 1e 3e
       -0.027200866 0.0821513 -0.10092483 0.15453751
0002d0 4d 10 09 3e fc 7f 97 bd f8 a2 2c 3d 78 a1 15 bc
       0.13385125 -0.07397458 0.042147607 -0.009132735
0002e0 da 6d c6 bd 51 c5 5f bd 3a f4 3d be 75 91 d2 bd
       -0.09688921 -0.054631535 -0.18550196 -0.1028165
0002f0 60 69 14 be 7c 95 f6 3d dc 2b 18 3e b8 28 52 3e
       -0.14493322 0.12040231 0.14860481 0.20523345
000300 38 62 bb 3f 67 b2 18 3f 33 82 02 be ee 33 19 3f
       1.4639349 0.5964722 -0.1274498 0.59844863
000310 be 0f 9a 3e 69 fc 75 be f8 f8 80 3e ea 3b 19 3f
       0.30090135 -0.24022068 0.25189948 0.59857047
000320 41 a1 2a bf dd ca 3a 3d 8e 74 4d bf 8b b7 55 bf
       -0.66652304 0.04560362 -0.80255973 -0.8348319
000330 be 88 55 bf b3 40 e7 3f 70 e0 1a bf 36 41 87 bf
       -0.83411777 1.806662 -0.60498714 -1.0566776
000340 b9 aa ab 3e 37 a7 97 3f af 01 67 3f e0 b4 11 3f
       0.3352869 1.1847905 0.90236944 0.5691662
000350 85 04 44 3e a7 a5 87 be ac d6 c8 be aa 73 05 3f
       0.19142349 -0.2649357 -0.39226282 0.52129614
000360 94 0e 1e 3f ec b2 0d 3f fc f1 af bd ce ec 57 3f
       0.61740994 0.5535114 -0.08591077 0.8434571
000370 26 46 60 bf 97 50 9d 3f f8 47 a0 3f b3 6e 71 bf
       -0.8760704 1.2290219 1.2521963 -0.9430954
000380 a2 0b 88 3e 63 a2 6d bd 21 65 8c be 7f 64 87 3f
       0.26571375 -0.058016192 -0.27420905 1.0577544
000390 fa 42 90 3f e5 ee 58 3e 7a fc 35 3f d3 85 dd 3e
       1.127044 0.21184881 0.71088374 0.43266162
0003a0 eb cc 0c 3f 4a cc 7c 3f 53 7a e3 bd 5d 4f 93 3e
       0.5500018 0.9874922 -0.11107316 0.28771487
0003b0 73 49 5a 3f 8a 8b 0f 3f e7 2d 7b 3f b0 7f 48 3e
       0.85268325 0.56072295 0.98116916 0.19579959
0003c0 5a 0d cc 3f 0c c8 5d 3f 0d 74 3b be 12 2f 57 bf
       1.5941575 0.8663337 -0.18305989 -0.840562
0003d0 65 00 02 3f 71 16 a6 3f 16 7f bf be e0 dd 04 bf
       0.5078185 1.2975599 -0.37401646 -0.51901054
0003e0 90 05 9c 3f 39 55 f2 3f d3 ef 1f 3f 1a 05 99 bd
       1.2189198 1.8932258 0.6247532 -0.07471676
0003f0 2a 1b 2e bf a4 a8 75 3f c9 c8 4b bf 4c ee c2 3f
       -0.680102 0.9596045 -0.7960325 1.5228972

encoder.dcrnn_cells.0.update.weights_pool f4 [2, 2, 65, 64]
000000 0a 47 fc be d9 cc fc 3d ad 9c e1 bd 0e 9a ac bd
       -0.49272949 0.12343759 -0.11016212 -0.08427821
000010 1c 40 47 be 59 26 7c be a7 fa f0 bd 77 1a 5a bd
       -0.1945805 -0.24624003 -0.11766558 -0.053247895
000020 fd bf b4 3d e4 5e 2f be 8a ec c4 bf 07 b3 90 3d
       0.08825681 -0.17126042 -1.5384686 0.07065397
000030 5f a7 56 be 94 b2 4c bf df 25 d9 3d 08 0b 5b bc
       -0.20962285 -0.7995999 0.106029265 -0.013369329
000040 df a7 b3 3e 38 c9 c8 be b8 26 13 be 80 12 18 bf
       0.35089013 -0.39216018 -0.14370239 -0.5940323
000050 c4 d3 d1 3e 7d 54 1f 3f 1d 3d e4 3e 10 8c a0 3c
       0.40981877 0.62238294 0.44577876 0.019598037
000060 73 80 65 bf f9 05 41 3e 6d f8 23 3d ec c7 44 3e
       -0.8964912 0.18849935 0.04003184 0.19216889
000070 35 9d 08 3f f7 69 c5 3d 93 3c 82 3f 5d 59 c2 bb
       0.5336488 0.09639352 1.0174736 -0.005931063
000080 9f 29 d7 bd 47 80 e6 bf 8f 72 49 bf a8 ad 15 3e
       -0.105059855 -1.8007897 -0.7869043 0.14617026
000090 3f b3 2d bf ef ed c1 3e a6 41 da bd c7 f3 a7 3e
       -0.6785163 0.3787684 -0.10657053 0.32803175
0000a0 65 31 e2 bd c9 8b 1f be 6e cb 87 bd 40 b3 f4 3e
       -0.110445775 -0.15580668 -0.06630598 0.47793007
0000b0 14 ae 2d 3e 76 5a 6c 3d b3 d1 f8 be a0 dc e9 3e
       0.16960937 0.057703458 -0.48597488 0.45676136
0000c0 79 36 bb 3e 74 a8 2a 3e 99 f3 77 3f ed dd 5d 3e
       0.36564997 0.16665822 0.96856076 0.21666689
0000d0 e7 ce 35 be 64 8e 7a be c8 3c 9c bd 79 77 b7 3d
       -0.17754708 -0.2446838 -0.076287806 0.089583345
0000e0 3b 96 2b 3f 10 98 63 3f 8a 0a cb 3e 87 69 11 bf
       0.6702611 0.88903904 0.39656478 -0.56801647
0000f0 02 0c 32 3d 05 14 58 3f 21 c3 ef be 72 73 ef 3d
       0.043468483 0.8440555 -0.4682856 0.11691941
000100 21 b0 30 bc b2 22 04 3c 8c 8b 5c 3b 70 6c be 3a
       -0.01078418 0.008064913 0.0033652512 0.0014528167
000110 fb 53 4f bc cb 72 58 ba 9f 64 00 bb 5c 82 36 bc
       -0.0126543 -0.00082568516 -0.0019591225 -0.011139479
000120 89 76 56 3b 93 a0 97 bc 44 1a bb b9 78 ea 52 3c
       0.003272446 -0.018509185 -0.0003568699 0.0128732845
000130 25 65 2d 3c 99 9d fd 3b bb 6b b4 3b 90 59 0e bc
       0.010583197 0.0077397344 0.0055060065 -0.008688346
000140 9e 61 93 bb 72 ab 2f bc a4 09 1f bb c6 de 82 3c
       -0.004497721 -0.010722028 -0.002426722 0.015975367
000150 fa d2 8e bc 79 3f 17 bc af b1 35 3c 6a c5 63 3c
       -0.017434586 -0.009231442 0.011089726 0.013902048
000160 e2 0f 80 bc 29 49 41 bb 7b 24 da 3b 62 fd 57 bc
       -0.015632574 -0.002949307 0.006657181 -0.01318297
000170 97 58 ff 3b 82 3b 2e bb cb e9 0f bc ef 9a 8f bb
       0.007792543 -0.0026585762 -0.008783768 -0.004382483
000180 b3 d9 21 bc 75 aa b7 3b 6d 6e 34 3c 0e 28 86 3b
       -0.009878564 0.005605037 0.011012656 0.0040941304
000190 7f bb bf bb 98 b9 51 bc 3c 4a cb bb 15 6a 77 3c
       -0.0058512087 -0.012800597 -0.006203918 0.0151009755
0001a0 27 87 28 ba 75 f9 0d bc 03 1b 19 bc b5 52 3e bb
       -0.00064288307 -0.008665432 -0.009344819 -0.0029040996
0001b0 97 39 6f 3c 96 e6 3b b9 a9 2b 5d 3c b8 28 ee bb
       0.014601133 -0.0001791961 0.013499179 -0.0072680376
0001c0 31 c4 f8 bb dd c5 8e 3c 7e 8d 86 b8 17 cb f0 3a
       -0.007591747 0.017428333 -6.415973e-05 0.0018371072
0001d0 72 19 3f bb 0c 1f 61 3a 5c 2e 89 3c 57 af 80 3b
       -0.0029159454 0.0008587695 0.016745739 0.003927152
0001e0 04 0f 4d ba ec 50 9c 3b 5c cd 7b 3c 82 cf 92 bc
       -0.0007822367 0.004770389 0.015368786 -0.017921213
0001f0 2e 1f 24 bc d9 ca 6c bb ee d1 62 bb e4 80 e3 3b
       -0.010017199 -0.0036131649 -0.003460999 0.006942855
000200 cb c1 bc 3b f7 d7 96 bc 20 40 b3 3b cb 83 2c bc
       0.0057604066 -0.018413527 0.005470291 -0.010529469
000210 c5 20 bb bb a1 36 37 bc bb 76 8b 3c 08 6c 2c bc
       -0.0057106935 -0.011182458 0.017024389 -0.0105238035
000220 79 d7 d8 bb c6 a8 66 3c 33 99 87 3c f3 b2 5c bc
       -0.006617483 0.014078325 0.016552543 -0.013470399
000230 38 76 48 3c 76 8f eb 3b 32 64 60 bc 03 65 0b bb
       0.012235217 0.0071887327 -0.013695763 -0.0021269924
000240 12 40 95 3c 9f bc 14 3c 2e d0 2e bc 56 73 28 3c
       0.018219028 0.009078174 -0.010669751 0.0102814045
000250 29 db fe bb 5e e5 49 3b 04 fd e2 3b 90 72 92 3c
       -0.007777591 0.003080688 0.0069271345 0.017876893
000260 fc 46 d3 bb 31 e7 8a bc c8 a5 6d 3c 46 10 cf bb
       -0.006447671 -0.016955944 0.014504857 -0.0063190786
000270 c7 6a 75 bb a5 e5 b2 3a f1 c4 6a bc 48 af 10 bc
       -0.0037447677 0.0013648762 -0.014329181 -0.008830853
000280 ea 93 87 bc 65 d0 48 3c f6 73 93 ba ed 8c 4c bc
       -0.016550023 0.012256716 -0.0011249769 -0.012484771
000290 35 5b 4e bc 82 3a 8e 3c 2f 08 b8 3b 15 9c de 3b
       -0.012594988 0.017361883 0.00561621 0.006793509
0002a0 5b 63 06 3c 3c c7 90 3c 86 d8 26 3c ae 41 a2 ba
       0.008202399 0.017673127 0.010183459 -0.0012379193
0002b0 04 2c 9b bc 0e b4 07 bc b7 20 3f 3c a9 92 27 3c
       -0.018941887 -0.0082826745 0.011665515 0.010227838
0002c0 14 5d 5f 3c 42 3d ec bb f3 ba 85 3c 74 6b 13 3b
       0.013633031 -0.007209451 0.016324496 0.0022494467
0002d0 f0 97 80 3c 02 35 90 bb b7 1e 73 bc 98 2b 6c bc
       0.01569745 -0.0044008503 -0.014838866 -0.01441469
0002e0 89 fb cf bb 44 be 2f bc d1 ca 52 3c 30 eb 1c bb
       -0.006347124 -0.010726515 0.012865738 -0.0023943894
0002f0 b9 c9 a0 bb a0 4f 8e bb 96 03 53 bc 90 64 4b bc
       -0.0049068597 -0.004342988 -0.012879273 -0.012414113
000300 61 08 8f bc 0b e5 d5 b9 2d 92 6c 3c 14 60 93 bc
       -0.01746005 -0.00040797176 0.014439148 -0.01799015
000310 d4 a9 93 bc b2 e0 66 3b df fc 79 bb 67 c4 07 bc
       -0.018025316 0.0035229144 -0.0038145108 -0.008286572
000320 3c 76 92 bc 02 6f 8c 3a da 50 34 3c 35 48 3e ba
       -0.017878644 0.0010714235 0.011005605 -0.00072586845
000330 cf 24 0b 3c 5d 69 3b bc 45 db 8b bc 6c 8d 4f 3c
       0.008492663 -0.011438695 -0.01707233 0.012667995
000340 84 75 9a 3b 7d cd 87 bc 65 c6 91 3c 8b 3d 13 bc
       0.004713716 -0.016577477 0.017794797 -0.008986841
000350 b9 6e 2e bc 90 53 e5 3a 77 0b 3c 3c 89 63 d2 3b
       -0.0106465155 0.0017496217 0.011477343 0.006420557
000360 9a 84 38 3c 57 f9 79 3c 14 8f 4c 3c cd 27 ed bb
       0.011262083 0.015257201 0.012485284 -0.0072374106
000370 44 86 8d bb 87 61 ce 3b a4 19 36 bc 6c 9a 89 bc
       -0.004318984 0.0062982473 -0.011114512 -0.016797267
000380 a5 82 4f bc 35 fd 90 3b 28 f2 8d 3c 92 32 31 3c
       -0.012665425 0.004424716 0.017327383 0.01081528
000390 f1 98 99 bc e2 e0 80 bb a1 c8 37 39 05 24 96 3b
       -0.018749686 -0.003933058 0.0001752698 0.0045819306
0003a0 e5 82 18 bc ee 08 6e 3c 2b 80 3b bc 2b 4c 53 bb
       -0.009308551 0.014528496 -0.011444132 -0.0032241445
0003b0 c8 fe 10 bb 4b 21 5d 39 ef 37 53 3c 8a e1 50 bc
       -0.0022124518 0.00021088605 0.012891754 -0.012749085
0003c0 f2 a3 4c 3c 66 82 50 bc 99 67 6f 3c 59 ba 5e bc
       0.0124902595 -0.012726402 0.014612102 -0.013594233
0003d0 87 ee a2 bb 68 ef 33 bc ab 34 61 bc 0b 7f 80 3c
       -0.0049722823 -0.010982372 -0.013745467 0.015685579
0003e0 9b ac 90 bc f8 a9 82 3c ce 53 57 bc dd b9 67 3c
       -0.01766043 0.015950188 -0.013142539 0.014143434
0003f0 cd 5c 5a 3c 1e 91 f0 bb 4b 9a 32 3b 92 ba 95 bc
       0.0133277895 -0.007341518 0.002725261 -0.01827744

encoder.dcrnn_cells.0.update.bias_pool f4 [2, 64]
000000 16 70 31 bf 9b ce 29 be e1 47 6d be 8a 96 4d bf
       -0.69311655 -0.1658272 -0.23171951 -0.8030783
000010 bd 54 e4 3d 8b 63 2b 3f da 77 e2 bc 94 89 9a be
       0.11148975 0.66948766 -0.02764504 -0.3018309
000020 e0 71 1d 3f 3b 33 db be 20 2d 93 3e 9c f5 b5 3e
       0.61501884 -0.42812523 0.28745365 0.35538948
000030 df 61 bb 3e ba f9 40 bf 7f 19 c7 3e e9 5b 2a 3f
       0.36598107 -0.7538105 0.3888664 0.66546494
000040 87 7f 15 3f cd 94 a8 be e1 17 d2 be fe 3f c7 3e
       0.58397716 -0.32926026 -0.41033843 0.3891601
000050 66 3d 96 bd d1 85 9f 3e 56 cd fa be 4e 3b b4 bc
       -0.073359296 0.3115678 -0.48984784 -0.022000935
000060 4a cf e0 3e db d4 40 3e d6 f0 37 3e 0c 22 16 3f
       0.4390815 0.18831198 0.17962965 0.586457
000070 51 ae 84 be b2 b2 7b 3e fe 84 15 3e 4a b2 34 bf
       -0.25914243 0.24579886 0.14601514 -0.7058455
000080 71 94 fb be 8e 08 a6 3d 16 b1 f9 be 9a fd 37 3f
       -0.4913669 0.081071004 -0.48767918 0.7187134
000090 3f cf b9 3c 60 b0 53 bf db a7 f1 be e4 9c 7f be
       0.02268183 -0.82691 -0.47198376 -0.24962193
0000a0 fc 14 0b bf 21 99 88 bd b9 1e da be 02 55 4b bd
       -0.54328895 -0.06669832 -0.42601565 -0.049641617
0000b0 c5 da 17 3f ca 29 77 3e c8 6c d0 bd 97 67 44 3f
       0.5931819 0.24137035 -0.101769984 0.76720566
0000c0 43 bf 68 3f eb db f5 3e 2f 30 01 be 2b e9 c4 3e
       0.9091684 0.48019347 -0.12616037 0.38459143
0000d0 2e 39 08 bf b5 6b 6f 3f 81 1b 2c be 60 7d 5e be
       -0.5321225 0.9352372 -0.16807367 -0.21727514
0000e0 23 26 9e 3f fc 79 9c 3e 36 02 6d 3c e5 57 98 3d
       1.2355388 0.30561817 0.014465859 0.074386396
0000f0 26 f6 ed 3e 51 f7 0f be 02 9c 21 bf fb 1c 33 3f
       0.4647686 -0.14059187 -0.63128674 0.69966096
000100 d2 bf 79 3f 57 f0 f7 bb f3 bd ed 3e ba a4 9f 3e
       0.9755832 -0.0075664925 0.46433982 0.31180364
000110 17 50 dc 3e 86 2e 8d 3e 41 2c 28 3f fb d4 de 3e
       0.43029854 0.27574557 0.65692526 0.43521866
000120 34 3d 15 bf 18 2b 1b 3f a2 94 97 3e d4 21 1e bf
       -0.58296514 0.6061263 0.29605585 -0.6177037
000130 6d 38 84 bf 8f e9 bd 3f 10 7f 3c bf 2c ec f0 be
       -1.032972 1.4836901 -0.7363138 -0.47055185
000140 26 19 73 be 13 f7 37 3f ef 0c 18 3f b4 1d 9b bd
       -0.23740062 0.7186138 0.59394735 -0.07574025
000150 fb 22 11 bf 4f e5 91 bf 79 8b ab 3f cd ec 07 bf
       -0.56694 -1.1398104 1.3401939 -0.53095704
000160 b8 2d a3 bf 0a aa 0e bf 63 ec 82 3f ea 09 05 bf
       -1.2748327 -0.5572821 1.022839 -0.5196825
000170 00 95 9e be bd eb 3a 3f 60 df 92 bd 4f 25 15 3f
       -0.30973053 0.7301596 -0.07171512 0.58260053
000180 05 c7 13 3f 53 96 33 3e 19 56 14 bf 67 4e ba be
       0.57725555 0.17537813 -0.57943875 -0.3638794
000190 29 d4 ef be 24 f3 e1 3e 80 aa c4 3e e5 4c b7 bd
       -0.46841553 0.44130814 0.3841133 -0.08950213
0001a0 7f 7b 15 3f 3c ab 20 bf 3c c5 04 3f 6a 58 24 bf
       0.58391565 -0.6276128 0.51863456 -0.6419741
0001b0 50 c5 ec be 29 e1 55 bf 25 cf 84 3f 69 d3 95 3e
       -0.46244287 -0.8354669 1.0375715 0.29262856
0001c0 69 e8 43 bf e6 46 21 bf 4a 04 df be 80 50 30 bf
       -0.76526505 -0.6299881 -0.4355796 -0.68872833
0001d0 f6 01 12 3f 75 46 05 bf df 9f da 3e 1c c5 a8 be
       0.5703424 -0.52060634 0.42700097 -0.32962883
0001e0 a0 b3 56 bf 22 de e3 be 80 be 0e bf a7 7d 1b 3f
       -0.83867836 -0.4450541 -0.5575943 0.60738605
0001f0 fd a9 d3 be fd ae d1 3e e5 ca 6c be d9 0e 0f bf
       -0.41340628 0.40953818 -0.23124273 -0.5588203

encoder.dcrnn_cells.1.gate.weights_pool f4 [2, 2, 128, 128]
000000 c1 db 8d 3b 64 df fe bb d8 01 0d 3b a5 34 5e bb
       0.004329175 -0.007778095 0.0021515992 -0.003390589
000010 c3 4c 11 bc 5c 8f d6 ba c3 25 10 bc ba e4 03 3b
       -0.008868399 -0.0016369629 -0.008798066 0.0020125345
000020 ae ce fe 3a 2b ea df 3b 7f 93 1b bc 0e 2d 6e bb
       0.0019440257 0.006833335 -0.009495615 -0.0036342773
000030 b8 5f 0e 3c d1 6e a2 bb c2 2b ab 3b f0 94 e8 3a
       0.008689813 -0.004957058 0.005223722 0.0017744582
000040 a4 7b af bb fc c1 51 3b 02 a6 59 3a 6b 54 09 bb
       -0.0053553153 0.0032006493 0.000830263 -0.0020954858
000050 be ca 0e bc 8a 07 25 3b 4c 1e 18 bc c7 bb 6d 3b
       -0.00871533 0.0025181496 -0.009284567 0.0036275254
000060 e4 a1 34 3b a3 fd 8a bb 39 f4 0b bc 4a 8b 36 3a
       0.0027562315 -0.0042416616 -0.008542114 0.0006963505
000070 cb 75 52 3b dc 61 1a bb f7 35 bd 3b b5 31 99 bb
       0.0032113667 -0.0023556864 0.0057742554 -0.004675115
000080 07 da da bb a6 e6 32 bb 87 48 c6 3b ea 37 d6 bb
       -0.006678823 -0.0027298122 0.0060511264 -0.006537427
000090 94 6c 11 bc 2b a1 a9 38 a2 e2 d9 3b 45 34 00 3c
       -0.008875985 8.088568e-05 0.006649331 0.007824962
0000a0 e0 55 5b bb 29 ad 95 3b 35 73 69 bb 8d 2e 01 3c
       -0.0033467934 0.0045677614 -0.0035621647 0.007884634
0000b0 79 44 a2 bb 15 49 e1 bb 77 4e 22 3a 4b ac 8b ba
       -0.0049520102 -0.006875167 0.0006191502 -0.0010656206
0000c0 a1 1e 19 bb 3e 9a 76 b9 50 2b bf ba d7 a1 19 bc
       -0.0023364204 -0.00023517848 -0.0014585052 -0.0093769645
0000d0 11 01 ea bb 78 4d 03 bb bd 75 f3 3b 19 df 9d 3b
       -0.0071412404 -0.0020035189 0.007429807 0.004817855
0000e0 8f 69 16 3c 1d 63 dd bb c5 69 17 3c 20 37 82 ba
       0.009180441 -0.0067562 0.009241526 -0.0009934641
0000f0 74 47 e7 bb b4 86 75 bb e5 e0 0a 3c 94 0f be bb
       -0.0070580784 -0.0037464323 0.008476471 -0.005800197
000100 53 9e 48 3f 03 15 83 3f d0 c1 00 3f 55 31 3c 3f
       0.78366584 1.0240787 0.50295734 0.73512775
000110 f5 7c cf 3e b6 d7 7f 3f 1b d3 54 3f 6b e2 4c 3f
       0.40525022 0.99938524 0.8313462 0.80032986
000120 11 9d 3f 3e 7c a3 18 3d 8a f8 fb 3e 60 f9 be 3e
       0.1871226 0.037265286 0.49213058 0.37299633
000130 7c 7e 95 3d 5c 3a 32 bd a7 e6 c1 bd 9a 7d 96 3e
       0.072995156 -0.043512687 -0.094678216 0.293927
000140 61 59 0c 3e c5 36 ae 3e 43 2c b9 3e 1f 67 ef 3e
       0.1370597 0.3402616 0.36166582 0.46758363
000150 92 b8 21 3e 1d 8d 16 3f 90 98 91 3e 46 94 93 3e
       0.15793064 0.5880907 0.28436708 0.2882406
000160 46 7e 18 3f 62 18 97 bd 4b 3a 84 3e 57 ca c2 3f
       0.5956768 -0.073776975 0.25825724 1.5217999
000170 93 2e 2d 3e 6d 1f 89 3f b3 f1 a0 3e 0e 11 a6 3f
       0.16912298 1.0712715 0.31434402 1.2973955
000180 eb 95 9c 3c b9 4d 99 be 77 31 10 3f ad 02 74 3e
       0.019114455 -0.2994211 0.5632548 0.23829146
000190 ee 6e d3 3e 6e a3 66 3f 51 41 56 3f 04 fb 4a 3f
       0.4129557 0.90093124 0.83693415 0.7928927
0001a0 69 e0 70 3f 67 53 92 3d a0 d2 ea 3e af 40 b8 3e
       0.9409242 0.07144814 0.4586382 0.3598685
0001b0 33 8a 43 3f 81 c6 39 3e f3 d7 b1 3f 45 8f 9c 3e
       0.7638275 0.1814213 1.3894027 0.30578056
0001c0 a4 d6 e4 3e 10 2a 41 be 8d 3d b5 3e 11 20 14 3f
       0.44695008 -0.18863702 0.35398522 0.5786143
0001d0 72 81 5e 3f 09 62 e5 3e 5b 38 38 3f c8 94 dc 3e
       0.8691627 0.44801357 0.7196099 0.4308226
0001e0 aa 06 a1 3e 71 d3 cc 3e ff 77 fd 3d 22 e6 62 3f
       0.31450397 0.40005067 0.12376403 0.88632405
0001f0 9f ff 4a 3e d2 e6 bf 3e 5b 08 9b 3e c6 bb d3 3e
       0.19824074 0.3748079 0.30279812 0.41354197
000200 1c aa ca 3a 6d 0a 18 bc 04 b6 0d 3b 95 88 35 3b
       0.0015462073 -0.009279829 0.0021623382 0.0027699817
000210 20 bf bb 3b 35 d1 d9 bb b4 12 28 3b 6d 2f 9d 3b
       0.005729571 -0.006647254 0.0025645914 0.0047969134
000220 f2 7d 19 3c 8d 6a 18 bc 6a 93 0f 3c bf 70 1b 3b
       0.009368407 -0.009302747 0.008763174 0.0023718325
000230 44 3e 01 3c 26 14 8e ba df 60 c4 b9 0f 6e 0f 3c
       0.00788838 -0.0010839745 -0.00037456208 0.008754267
000240 3a 8a 2d 3b 65 85 9a bb c7 29 fc ba 86 28 60 3b
       0.0026480095 -0.004715609 -0.0019238525 0.0034203841
000250 cb 40 a3 ba 21 36 18 3c 27 cb 26 bb bd b9 d2 3b
       -0.0012455223 0.009290249 -0.0025450678 0.006430833
000260 43 c8 0f bc 28 23 1a bb f6 18 18 3c 28 ab 12 bb
       -0.008775773 -0.002351949 0.009283295 -0.002237985
000270 f2 a2 bc 3b e7 e4 f3 3b aa 61 27 bb 79 2b f9 3a
       0.0057567293 0.007443059 -0.002554039 0.0019010148
000280 be 45 70 bb 80 8d a5 bb 65 23 91 bb 2a 53 d3 3a
       -0.0036662663 -0.0050522685 -0.004429268 0.0016122807
000290 e1 15 bb 3a c1 e4 e8 ba 11 7e fd 3a 04 4e 66 3b
       0.0014273488 -0.0017768369 0.0019339939 0.0035141716
0002a0 d5 33 f9 3b a0 a5 a4 3b 36 0f a5 bb f6 4a 2f 3b
       0.007605056 0.005024627 -0.0050372137 0.002674756
0002b0 de 84 93 3b 64 fb 13 3b e8 dc 9b 3b 9d 7c 0a 3a
       0.004501923 0.002258026 0.0047565587 0.0005282851
0002c0 93 0c 63 3b bc 2a 33 3b 62 9b ca 3b 47 82 35 bb
       0.0034644946 0.0027338704 0.006183074 -0.002769606
0002d0 3d 0e 06 bc 99 d7 05 3b 34 d6 16 3c 10 b6 09 3c
       -0.008182106 0.0020422696 0.009206343 0.0084052235
0002e0 66 56 91 bb c8 c5 09 3b e5 15 4c bb bd 3f 07 3c
       -0.0044353483 0.0021022428 -0.003114098 0.0082549425
0002f0 ad 0d b6 b9 fb 84 97 bb 9a ca 5f 3b 54 1f db ba
       -0.00034723934 -0.004624007 0.003414786 -0.001671771
000300 36 3b 2f 3e c1 e8 e4 3e c9 c2 e7 3e 3a 89 a7 3f
       0.17112431 0.44708827 0.45265797 1.3088753
000310 dd 42 fb be 32 b9 6a 3f 0c bd 87 3e 0e 69 1e 3f
       -0.4907445 0.91688836 0.2651142 0.6187905
000320 cd e3 23 3f 4d 03 91 3f 34 f5 39 3f b9 fa d1 bf
       0.6401947 1.1329132 0.72639775 -1.640464
000330 09 53 93 3f 04 8d 6f bf f2 a9 0a 3f a0 dd 3e 3d
       1.1509715 -0.9357455 0.54165566 0.046598077
000340 17 30 a9 3f b2 19 57 3f e1 60 df 3e c2 6d 0f 3f
       1.3217801 0.8402358 0.436286 0.5602685
000350 77 4a 4d 3e a2 bf 93 bd 14 61 1f 3f 3d 8d 32 3f
       0.20047937 -0.072142854 0.62257504 0.6974676
000360 b5 83 d9 3f 1a 2b e5 bf 2d 71 a2 3f 3b b6 60 3f
       1.6993319 -1.7903779 1.2690789 0.8777806
000370 e3 95 d7 3e 95 69 19 3f 21 58 b5 3e 60 4c 89 3f
       0.42106542 0.5992673 0.354188 1.0726433
000380 2b a4 32 3f d7 24 9b 3d 62 10 76 3f c6 62 87 3f
       0.6978175 0.07575386 0.9611875 1.0577018
000390 2e 7b a7 be 0c 8f 2c 3f e3 6a 18 3f 57 31 8b 3f
       -0.32711166 0.6740577 0.59538096 1.0874432
0003a0 b8 13 2d 3f 43 42 cc bf f8 f8 8e bd 43 5a 2e 3f
       0.67608213 -1.5957721 -0.06981081 0.6810648
0003b0 1e 0d 00 3f 81 b3 fe 3f 78 f1 5f 3f 63 cf 86 bf
       0.50020015 1.989853 0.8747783 -1.0532039
0003c0 9b 16 1f 3f 69 9c c3 3e 7b 46 4c 3f ea ec 5e 3e
       0.6214387 0.3820527 0.79795045 0.21770063
0003d0 74 60 35 3f 7a 45 d5 3f e6 a7 c9 3e 2c bf 73 bf
       0.708503 1.6661828 0.3938591 -0.9521358
0003e0 96 4c 51 3f 51 5c 08 3f dc 17 c9 bf b4 29 bc 3d
       0.81757486 0.53265864 -1.5710406 0.09187642
0003f0 44 23 99 3f eb 4f b8 3f 6b 1d 88 3c f0 a0 c3 3d
       1.1963887 1.4399389 0.01661559 0.09552181

encoder.dcrnn_cells.1.gate.bias_pool f4 [2, 128]
000000 07 50 32 3e d0 b1 03 bc 08 b5 14 3e d8 b2 4f 3e
       0.1741334 -0.008037999 0.14522183 0.20283067
000010 ba 60 59 3e 4a e3 06 3e 87 bd ad bc 46 9a 83 3d
       0.21228305 0.13172641 -0.021208538 0.0642591
000020 c3 e4 8c bd d8 38 38 be 74 9b 60 bd 5e e6 4f 3d
       -0.0687957 -0.17990434 -0.05483575 0.050756805
000030 01 f1 1d be a3 90 bd 3c 39 5c 9a 3d f9 43 12 be
       -0.15423967 0.023140257 0.07537121 -0.14283742
000040 da 71 d3 3d 5c 39 84 3d 2e 1d 93 3d c9 ec 45 be
       0.1032445 0.06456253 0.071833 -0.19328608
000050 91 a9 96 bd 64 82 0b bd 36 43 c8 bc 33 92 30 3e
       -0.07356561 -0.034059897 -0.024446111 0.1724327
000060 8e 41 58 3c 33 f4 5b 3e df aa 3f be d8 5a 0f 3e
       0.013199223 0.21479873 -0.18717526 0.13999498
000070 dd 62 52 be 30 30 3d 3e f5 4c 55 be 83 07 58 be
       -0.20545526 0.18475413 -0.20830138 -0.21096615
000080 53 1a 25 be a0 38 07 be 3d 97 39 be 82 f6 dd 3d
       -0.16123323 -0.13205194 -0.18124099 0.10838033
000090 8f 37 3c 3e b9 9a 4e be a8 15 2e 3e c9 0c 07 be
       0.18380569 -0.2017621 0.17000449 -0.13188471
0000a0 dc 8e 2f 3e d9 f3 18 be 60 06 f5 bc 09 c3 df bd
       0.1714434 -0.1493677 -0.029910266 -0.10925872
0000b0 86 fd 14 3e 49 67 fe bd 9d af d0 bc b8 80 34 3d
       0.14549837 -0.12422044 -0.025474364 0.04406807
0000c0 74 25 93 3c f8 26 3c be 2c 1d ae 3d a8 c7 af bb
       0.017962195 -0.1837424 0.08501658 -0.005364377
0000d0 29 f7 a1 bd 76 d0 27 bd 60 22 22 3e ba e5 d2 bd
       -0.0790847 -0.04097029 0.15833426 -0.10297723
0000e0 39 f4 40 3e e4 93 a1 bd 48 53 8f 3d 6c 21 ab 3d
       0.18843164 -0.07889536 0.069983065 0.08355984
0000f0 60 1e e1 bd dc 4f 35 be 12 54 79 3d a6 c0 80 bd
       -0.10992122 -0.17706245 0.06087119 -0.06286745
000100 24 ad 00 bf e4 3a d3 be ab 0c 30 bf 39 9f 3c be
       -0.5026419 -0.41255867 -0.6876933 -0.18420114
000110 1a ac 04 be 4c 0d e8 be a8 19 3e bf 0c 86 5d be
       -0.12956277 -0.45322645 -0.742579 -0.21633166
000120 5f 8b e0 be cd 2c 0e 3e 34 64 9e 3d 79 2a 56 be
       -0.43856332 0.13884278 0.07733956 -0.2091464
000130 e2 e5 c9 be 83 fb e6 bd ca da 26 bf e0 57 0d bf
       -0.394332 -0.11278441 -0.65177596 -0.5521221
000140 43 db f3 be 7a c2 f3 be ff f2 14 bf 4f 5d 47 bf
       -0.4762822 -0.4760931 -0.5818328 -0.7787675
000150 14 32 20 bf 27 e6 80 bf 91 f6 ab be 8e f6 d6 be
       -0.62576413 -1.0070237 -0.33586553 -0.4198498
000160 91 b3 37 be 7a 92 f6 be 35 37 7c bd b1 c9 23 bf
       -0.17939593 -0.48158628 -0.061576087 -0.6397963
000170 8c 14 fa be 7e aa 20 bf 66 d0 af be ea 09 22 bf
       -0.488438 -0.6276015 -0.34338683 -0.6329638
000180 01 e7 cf be 29 4b cd bd 86 e5 79 bd e7 55 82 be
       -0.4060593 -0.10024101 -0.061009906 -0.25456163
000190 f3 bf 9b be cd 0e ad be ec 40 a4 be 46 b7 e0 bd
       -0.30419883 -0.33800355 -0.3208078 -0.10972457
0001a0 b7 17 84 be b6 10 80 be 25 31 54 3c b8 60 47 bd
       -0.25799343 -0.2501275 0.01295117 -0.048676223
0001b0 6b 53 01 bf d7 0c 3d bf ef 57 11 bf f0 e4 c0 be
       -0.5051791 -0.7384772 -0.567748 -0.37674665
0001c0 df 58 24 bf f9 d7 31 bf 4c b8 b8 bd d5 8b 82 be
       -0.64198107 -0.69470173 -0.09019527 -0.25497308
0001d0 9f ab 77 be 49 7d 04 3d 0d 0f ab be 83 b0 82 3d
       -0.24186562 0.032346044 -0.3340992 0.06381323
0001e0 d1 a5 1f 3c 6b 9f 9f be d5 05 83 3d 60 d9 3d bf
       0.009744124 -0.31176314 0.06397597 -0.7415981
0001f0 f2 db 59 be ef 96 76 bd be 2f 77 3e 29 03 2e bd
       -0.21275309 -0.060202535 0.24139306 -0.042483483
000200 e1 d8 46 3e be 98 61 3d c2 1b ff bd b4 62 45 3e
       0.1941867 0.055077307 -0.12456466 0.19275934
000210 7b ef 21 3d b6 a8 20 be 0c 16 15 3e 26 5e 8d bd
       0.039535027 -0.15689358 0.14559191 -0.06902723
000220 a4 81 8c 3d 56 0a 97 3d aa 72 56 bd 40 26 e9 bc
       0.068606645 0.07375018 -0.052355446 -0.028460622
000230 ae aa 55 bc 8c f5 a7 bd 1d 22 02 3d 58 fe 17 3e
       -0.0130411815 -0.08201131 0.031770814 0.14843118
000240 3e 56 57 be 9d 80 a8 3b 69 74 01 be b7 5a 4e 3e
       -0.21028993 0.005142285 -0.12642063 0.20151792
000250 c5 a9 32 3e ce bb 06 be fa 10 17 3e 68 c9 98 3d
       0.17447574 -0.1315758 0.1475257 0.0746029
000260 b7 22 8a bd 22 19 59 3e 71 aa 2c 3e 1c 22 81 3d
       -0.067449026 0.21200994 0.16861893 0.06305334
000270 be 6e 89 bd bc 07 0c 3e 3d ab 92 3d 33 9b 82 3d
       -0.067105755 0.13674825 0.07161567 0.06377258
000280 9b 18 01 3e 42 42 82 3d dd 32 f4 bd 2a 10 3f be
       0.12607042 0.06360294 -0.11923764 -0.1865851
000290 af 2f 2e be de 24 1c 3e b0 e3 04 3e 3a cf 28 be
       -0.17010377 0.15248439 0.12977481 -0.164853
0002a0 f9 6e 19 3e 64 dc 3d 3d da 3e 9d bd ee 0c d7 3d
       0.14983739 0.04635276 -0.076780036 0.10500513
0002b0 80 c4 4a 3e 44 1e 4b 3e 09 14 d1 3d aa 9d 32 3e
       0.19801521 0.19835764 0.102088995 0.17442957
0002c0 37 11 f1 3d eb 66 5d bd e0 e0 fc bc f7 f0 13 3e
       0.117708616 -0.05405323 -0.030868948 0.1444739
0002d0 9d 9a 76 bd 76 a2 48 be 73 57 5c bd 4c 33 d6 bd
       -0.060206044 -0.19593224 -0.053794336 -0.10459003
0002e0 b1 8f 07 be 01 fc 2d bd 68 c8 40 be 79 36 00 be
       -0.13238408 -0.042476658 -0.18826449 -0.1252078
0002f0 da 0a 01 be c8 05 44 3e d9 5c 08 be 54 cb ce bd
       -0.12601796 0.1914283 -0.13316669 -0.100973755
000300 67 fe 88 3e 9d 3d fb 3e a0 58 b2 3e bb 0c 11 be
       0.26756594 0.49070445 0.3483324 -0.14165013
000310 33 80 a9 3e 6b 96 a5 3e be 53 b0 3e e2 1b 5d 3c
       0.3310562 0.32341322 0.3443889 0.013495417
000320 55 51 e8 3d 36 46 d5 3c ed 9b 39 3d 2a ed ab 3e
       0.11343638 0.026034456 0.045314718 0.3357938
000330 e3 05 0c 3e 75 db c1 3d b0 02 2a 3f fc f9 18 3e
       0.1367412 0.09465686 0.6641035 0.14939111
000340 5a 67 c3 3e b5 99 13 3f f9 06 0a 3f 23 e3 e0 3e
       0.38164788 0.57656413 0.5391689 0.43923292
000350 74 c9 9a 3e a0 82 97 3e 87 22 6e 3e d1 31 ee 3c
       0.30231822 0.29591846 0.23255359 0.029076489
000360 ae e7 5c 3e 09 60 87 3e 9a 68 d3 3e 07 fe 0d 3f
       0.21572754 0.26440457 0.41290742 0.5546574
000370 3f ae 05 3f 8d 3c 88 3e 31 45 42 3f bb f2 1a 3e
       0.52219003 0.26608697 0.7588683 0.15131657
000380 98 8c 96 3e 10 71 74 3e 66 be 53 be be 11 d9 3e
       0.2940414 0.23871255 -0.206781 0.4239635
000390 0d cd 2b bd 55 de 5b 3e 4e 89 0d 3e ba 35 d7 3d
       -0.0419436 0.21471532 0.13821909 0.105082944
0003a0 49 50 b9 3e 86 8d b8 3e 82 20 ec 3e 24 33 29 3f
       0.36194065 0.36045474 0.46118551 0.6609366
0003b0 e1 00 86 3e d8 57 25 3e 6f e5 96 bd 3a be 35 3c
       0.26172546 0.16146791 -0.0736798 0.011092717
0003c0 fc 33 84 3e 86 4b 34 3f 99 0e cc bd 4f 43 c3 3e
       0.2582091 0.7042774 -0.09963722 0.3813729
0003d0 e3 ff d2 3e 2e 51 b8 be 69 b4 04 3f 27 42 be 3e
       0.4121085 -0.35999435 0.51837784 0.37159845
0003e0 b1 7e 9b 3e bd 07 b9 3e 5e 26 5a 3d d6 f7 3b 3f
       0.30370095 0.36138716 0.053259246 0.7342504
0003f0 26 04 68 3e b6 a3 88 3e ab d0 89 3e ef d6 9b 3e
       0.22657833 0.26687402 0.26917014 0.3043742
