model/experiments/PEMSD8/20211027090758/best_model.pth (torch, 604100 bytes, 11 tensors)

node_embeddings f4 [170, 2]
0	0x3e2ee930	0.17081141
1	0xbf8dfd15	-1.109286
2	0x3f01fba4	0.507746
3	0xbe172852	-0.14761475
4	0x3e4aff84	0.19824034
5	0xbeded4ac	-0.4352163
6	0x3de460df	0.11151289
7	0xbf80e215	-1.0068995
8	0x3f095314	0.5364239
9	0xbe121086	-0.14264116
10	0xbd8f2e29	-0.06991226
11	0xbf418b8a	-0.75603545
12	0x3ea1bcda	0.31589395
13	0xbf0c4884	-0.5479815
14	0x3e1ca99e	0.15299079
15	0xbecb21a1	-0.39674094
16	0xbdc25273	-0.09488382
17	0xbe913de7	-0.2836754
18	0x3f3583c7	0.709042
19	0xbe29e35e	-0.1659064
20	0x3f88e732	1.0695555
21	0xbeb862ce	-0.36012882
22	0x3f2ec558	0.6826987
23	0xbdaa65d8	-0.083202064
24	0x3f57a4f1	0.84236056
25	0xbe22b2b7	-0.15888487
26	0x3f8094a7	1.0045365
27	0xbfe2a204	-1.7705693
28	0x3ddf2ccc	0.10897216
29	0xbf53a89c	-0.8267915
30	0xbc0a337a	-0.0084351245
31	0xbf4545db	-0.77059716
32	0x3f3b9ae1	0.732832
33	0x3debc8c7	0.115129046
34	0x3d6b234b	0.057406705
35	0xbf219d8f	-0.6313104
36	0xbe0a444c	-0.13502616
37	0xbf70f7a7	-0.9412789
38	0x3f99f0e5	1.202664
39	0xbf884c74	-1.0648332
40	0x3f16e724	0.5894644
41	0xbf094ebb	-0.5363576
42	0x3e2a5d9f	0.16637276
43	0xbedbcc31	-0.42929223
44	0x3eb664aa	0.35623676
45	0xbf2818e3	-0.65662974
46	0x3e46b4ec	0.19404954
47	0xbf04afcf	-0.5183076
48	0x3f335f08	0.7006688
49	0x3ed7e262	0.42164904
50	0x3e09fdf7	0.13475786
51	0xbef1faad	-0.47261563
52	0x3f1c2e35	0.61008006
53	0xbe5b333b	-0.21406262
54	0x3f2466ba	0.6421925
55	0xbddd472c	-0.108045906
56	0x3d6246d9	0.055243347
57	0xbf23506c	-0.6379459
58	0x3f0b9419	0.54522854
59	0xbe98aa23	-0.29817304
60	0x3ec23cb2	0.37936932
61	0xbe9bd83b	-0.30438408
62	0x3e655db7	0.2239903
63	0xbeb6b177	-0.3568227
64	0x3f6e2954	0.9303181
65	0xbd146744	-0.036231294
66	0xbf056e0d	-0.5212105
67	0xbe305f3e	-0.17223832
68	0x3ebb4f1a	0.36583787
69	0x3f122a26	0.57095563
70	0x3f88e523	1.0694927
71	0xbf21ae05	-0.6315616
72	0x3e571cc5	0.21007068
73	0xbef7a71b	-0.4836968
74	0x3df64037	0.12023967
75	0xbe888100	-0.2666092
76	0x3e1841d1	0.14868857
77	0xbef78954	-0.4834696
78	0x3d1db6b9	0.038504336
79	0xbf35f361	-0.7107449
80	0x3e7df94e	0.24802133
81	0xbea6a4a3	-0.32547483
82	0x3f09f1d3	0.5388462
83	0xbe39f5cb	-0.18160169
84	0x3f363ccd	0.71186525
85	0xbcfda71b	-0.030963471
86	0x3ee9892e	0.45612472
87	0xbe0c4899	-0.13699569
88	0x3f325a5c	0.6966913
89	0xbd88224c	-0.066471666
90	0x3ee0fb0e	0.4394154
91	0xbdd37800	-0.103256226
92	0x3bdb315e	0.0066892346
93	0xbf60f335	-0.87871104
94	0x3e9e1a3e	0.30879396
95	0xbed805fd	-0.4219207
96	0x3ebd7f2a	0.3701108
97	0xbf729d88	-0.94771624
98	0x3d01f6fb	0.03172968
99	0xbe8b69e4	-0.27229226
100	0x3f6ebb1b	0.9325425
101	0xbda91204	-0.08255389
102	0xbe6d3452	-0.2316449
103	0xbf2ab997	-0.6668944
104	0x3ee804fd	0.45316306
105	0xbf2d2f0c	-0.6764991
106	0x3d07bbad	0.033137966
107	0xbf1889a1	-0.59585005
108	0x3f683043	0.9069864
109	0xbdc7e512	-0.097604886
110	0x3de5a3ca	0.11212881
111	0xbf27b992	-0.6551753
112	0x3f463374	0.7742226
113	0xbf053a75	-0.52042323
114	0x3f687ae7	0.90812534
115	0xbeb1537b	-0.34634003
116	0x3e281ee1	0.1641803
117	0xbea93c3a	-0.33053762
118	0x3e82020d	0.2539219
119	0xbe8ebf29	-0.2788022
120	0xbeaa2e90	-0.3323865
121	0xbf587dc8	-0.84566927
122	0x3ebd7fa4	0.37011445
123	0xbf729d48	-0.9477124
124	0xbeec255e	-0.4612226
125	0xbf2961d5	-0.66164905
126	0x3f866962	1.050091
127	0xbfb1ea40	-1.3899612
128	0x3f6986b2	0.91221154
129	0xbe74edf4	-0.23918897
130	0x3eb35e1d	0.3503274
131	0xbe33a96d	-0.175451
132	0x3e74aad4	0.23893291
133	0xbea2c980	-0.31794357
134	0x3e5cf7e1	0.21578933
135	0xbe98547a	-0.2975195
136	0x3f0b1d8f	0.5434198
137	0xbc1777a2	-0.009244831
138	0x3e493ae9	0.19651379
139	0xbee3328f	-0.4437451
140	0x3de5d0a1	0.112214334
141	0xbf27b6c9	-0.65513283
142	0x3fe04529	1.7521106
143	0xbf6c3ee3	-0.9228346
144	0x3eae986e	0.3410067
145	0xbe5d26cb	-0.2159683
146	0x3de59f3d	0.11212013
147	0xbf27bae9	-0.6551958
148	0xbe6d215e	-0.2315726
149	0xbf2ab15e	-0.6667689
150	0xbe6d25a5	-0.23158891
151	0xbf2ab52c	-0.66682696
152	0x3ef14e6f	0.47130153
153	0xbe8752d4	-0.2643038
154	0x3fa459df	1.2839926
155	0xbf069a78	-0.5257945
156	0xbf23f52d	-0.64045984
157	0xbfa471d4	-1.2847238
158	0x3ef16716	0.4714896
159	0x3e1e6e63	0.15471797
160	0x3ebd7f4a	0.37011176
161	0xbf729dcd	-0.94772035
162	0x3de60a3f	0.11232423
163	0xbf27b809	-0.6551519
164	0xbd15379d	-0.03642999
165	0xbf03cf57	-0.5148825
166	0x3de59f11	0.1121198
167	0xbf27babe	-0.6551932
168	0x3de5ba3e	0.112171635
169	0xbf27b464	-0.6550963
170	0xbd72a55a	-0.059239723
171	0xbead80b8	-0.33887267
172	0x3f16a514	0.5884564
173	0xbec4dbc3	-0.38448915
174	0x3f2cfc27	0.67572254
175	0x3cfbfc61	0.030759992
176	0x3dc6097a	0.09669776
177	0xbeaef16b	-0.34168562
178	0xbd60dd5c	-0.054898605
179	0xbec1d9ad	-0.37861386
180	0xbe6d1c54	-0.23155338
181	0xbf2ab32d	-0.6667965
182	0xbe6d1d0c	-0.23155612
183	0xbf2ab483	-0.6668169
184	0x3f25b689	0.6473165
185	0x3f1739f7	0.5907282
186	0x3e654e3e	0.22393128
187	0xbf01d194	-0.50710416
188	0x3f58dc36	0.84711015
189	0x3a74daba	0.0009340454
190	0x3d037189	0.032090697
191	0xbeb25c84	-0.3483621
192	0x3d84e7d5	0.06489531
193	0xbeb48ee5	-0.3526527
194	0xbe05b0f9	-0.13055791
195	0xbf1e7ddf	-0.61910814
196	0xbc2df54d	-0.010617566
197	0xbe724197	-0.23657833
198	0x3d8a0a54	0.06740251
199	0xbeb5bc8b	-0.3549541
200	0x3e222026	0.15832576
201	0xbeaa6a7f	-0.33284375
202	0xbe14eb94	-0.14542991
203	0xbf3298c5	-0.6976436
204	0x3f7b4564	0.98152757
205	0x3eb47caa	0.3525136
206	0x3f791cdc	0.9730966
207	0x3eb5fd34	0.3554474
208	0x3de8f72d	0.1137527
209	0xbed9d9df	-0.42549035
210	0x3f8bc776	1.0920246
211	0x3dafa5c9	0.08576543
212	0x3f0e1d8b	0.5551383
213	0xbeb995d5	-0.36247125
214	0x3e5f18f0	0.21786857
215	0xbe87663f	-0.26445195
216	0x3f36a235	0.7134126
217	0x3f14cd17	0.5812544
218	0xbeec33a7	-0.46133158
219	0xbf296273	-0.66165847
220	0xbf0777f0	-0.52917385
221	0xbf17a247	-0.5923199
222	0x3e257091	0.16156222
223	0xbf04cd24	-0.5187552
224	0x3e93890b	0.28815493
225	0xbda36e4b	-0.07980021
226	0xbecc177a	-0.3986166
227	0xbf279ff6	-0.65478456
228	0x3fa9e132	1.3271849
229	0x3e1cf85d	0.15329118
230	0xbe6d1a85	-0.23154648
231	0xbf2ab2d2	-0.6667911
232	0x3ea8ffa3	0.33007535
233	0x3f312191	0.69191843
234	0x3f3c0668	0.73447275
235	0xbeb3e6cb	-0.3513702
236	0x3e5a850b	0.21339814
237	0xbea40404	-0.32034314
238	0x3f80d498	1.0064878
239	0xbe1b1cd3	-0.15147714
240	0x3f99e538	1.2023077
241	0xbe314223	-0.17310385
242	0x3ebd7ef7	0.3701093
243	0xbf7299d5	-0.9476598
244	0x3ebd7c8e	0.3700909
245	0xbf729fbf	-0.94775003
246	0x3ebd7ffa	0.370117
247	0xbf729e07	-0.9477238
248	0x3dff2d19	0.124597736
249	0xbf2df72a	-0.6795527
250	0x3ebf1d49	0.3732703
251	0xbf716c05	-0.9430545
252	0x3e671123	0.22565131
253	0xbf493038	-0.785892
254	0x3f15e159	0.5854698
255	0xbf309d12	-0.6898967

encoder.dcrnn_cells.0.gate.weights_pool f4 [2, 2, 65, 128]
0	0xc016096b	-2.3443248
1	0xbf155ed4	-0.5834782
2	0x3fbe0788	1.4846048
3	0x400609b5	2.0943425
4	0xbda4d35e	-0.080481276
5	0x3b8b480e	0.004250533
6	0x3f7c685b	0.98596734
7	0x3fe06b60	1.7532768
8	0x3f43d992	0.7650386
9	0x3f62db10	0.8861551
10	0xbe4cdbc0	-0.20005703
11	0x3fd57f14	1.6679406
12	0xbedd6bde	-0.4324636
13	0xc0070164	-2.1094599
14	0x3f9ce7c3	1.2258228
15	0x3f554b9a	0.83318484
16	0xbf9fe6df	-1.2492331
17	0x3fde0e71	1.7348157
18	0x3f4513d7	0.769834
19	0x3eb3c0ac	0.35107934
20	0x3f2d948e	0.678048
21	0xbf3121f5	-0.6919244
22	0xbf0a7e39	-0.5409885
23	0x3f860883	1.0471348
24	0xbda7f538	-0.08201069
25	0x3e8d5102	0.27600867
26	0xbe3812ec	-0.17975968
27	0x3fc2442d	1.5177056
28	0x3ef252d6	0.47328824
29	0x4001c9cc	2.0279417
30	0xbf7a6ea5	-0.9782508
31	0x3f4f05c2	0.8086816
32	0x3fb015a4	1.3756604
33	0xbbd4921b	-0.0064871437
34	0xbe1c7840	-0.15280247
35	0xbf52e50c	-0.8238075
36	0x3fd45066	1.6587036
37	0xbe1c769b	-0.1527962
38	0xbf7fdf86	-0.99950445
39	0xbe2f6d15	-0.17131455
40	0x3f8e654d	1.1124665
41	0xbf0fa341	-0.5610848
42	0x3fa8d300	1.3189392
43	0x3f3c4ccb	0.73554677
44	0x3f99786b	1.1989874
45	0x3fc11248	1.5083704
46	0xbfb45d32	-1.4090941
47	0xbd98c828	-0.07460052
48	0xbfe77b92	-1.8084586
49	0x3f04bb3f	0.51848215
50	0xbec89ca9	-0.39182022
51	0x3fa1a67e	1.2628934
52	0x3ff96f6c	1.9487128
53	0x3f5012cc	0.8127868
54	0xbf366c6e	-0.712592
55	0xbe74d5e3	-0.23909716
56	0x3f575d7e	0.8412703
57	0xbe2f22ee	-0.17103168
58	0xbd5f08ba	-0.05445168
59	0xbe8da2ab	-0.27663168
60	0x3fc900c5	1.570336
61	0x3f9bca1a	1.2171052
62	0xbdf7716b	-0.1208218
63	0xbf8dcee5	-1.1078764
64	0x3f530351	0.82426935
65	0xbd50227a	-0.05081413
66	0xbfe23779	-1.7673179
67	0xbfd102a1	-1.6328927
68	0x3f50090f	0.8126382
69	0x3e2f85f7	0.17140947
70	0x3e15e0a2	0.14636472
71	0xbfcfd43b	-1.6236643
72	0x3ead327e	0.33827585
73	0xbd8d2064	-0.06890944
74	0x3e90538e	0.28188747
75	0xbef45ce9	-0.47727135
76	0x3ed78bf2	0.42098957
77	0x3f4e07ad	0.8048046
78	0x3e685498	0.2268852
79	0xbd434473	-0.0476727
80	0x3f3d8cdd	0.74043065
81	0xbfddc61a	-1.7326081
82	0xbe031fa7	-0.12805043
83	0x3eab26b0	0.33427954
84	0x3d42bb2b	0.04754178
85	0x3e1dde45	0.1541682
86	0xbe40c03c	-0.18823332
87	0xbefa9a70	-0.4894595
88	0x3f88af99	1.0678588
89	0xbf1748a6	-0.5909523
90	0x3ecd5256	0.4010188
91	0xbedf40a6	-0.4360401
92	0xbda6b3e6	-0.08139782
93	0xbfd5150a	-1.6647046
94	0xbf547c0f	-0.830018
95	0x3e8ff622	0.28117472
96	0xbe94dc95	-0.2907454
97	0x3d835036	0.064117834
98	0x3f29765d	0.66196233
99	0x3f38cf27	0.7219109
100	0xbfc19dc5	-1.5126272
101	0x3f63898d	0.8888176
102	0xbd148a95	-0.036264975
103	0x3ec3ba3a	0.38228017
104	0xbe30f763	-0.1728187
105	0x3dbccc0a	0.09218605
106	0xbe9f5cf8	-0.31125617
107	0x3e583c32	0.21116713
108	0xbf41ba51	-0.7567492
109	0xbfd8ebff	-1.694702
110	0x3f631a5a	0.88712084
111	0x3ee0a6f7	0.43877384
112	0xbdd0a43c	-0.10187575
113	0x3ed64445	0.4184896
114	0x3d9cef0d	0.07662783
115	0xbf5774d4	-0.8416264
116	0xbb31d93e	-0.0027137543
117	0xbfe7fa17	-1.8123196
118	0x3d83f624	0.06443432
119	0x3e49007b	0.1962909
120	0xbdd5b740	-0.10435343
121	0x3f027bdd	0.5097025
122	0x3e37c095	0.17944558
123	0x3e8a162d	0.26970044
124	0xbec63382	-0.38711172
125	0xbfcecc76	-1.6156147
126	0x3f018fca	0.5061003
127	0xbf347232	-0.7048675
128	0xbe249ed0	-0.16076207
129	0x3f395be1	0.7240582
130	0x3f16bbbe	0.5888022
131	0x3e8a1ef4	0.2697674
132	0xbf01af76	-0.5065836
133	0xbe42a4c0	-0.1900816
134	0x3efe135e	0.4962415
135	0xbda6381b	-0.0811617
136	0x3f39ae6c	0.7253177
137	0x3f097002	0.53686535
138	0xbde961c5	-0.11395601
139	0x3c98d69c	0.018657021
140	0xbd33e2eb	-0.043917578
141	0xbe04b2ba	-0.12958804
142	0x3f4e5e27	0.80612415
143	0x3f18882e	0.59582794
144	0xbe62d367	-0.22150956
145	0xbd7281b9	-0.059205744
146	0x3ef9c9d6	0.487868
147	0x3e08c8a1	0.13357784
148	0x3f235679	0.6380382
149	0xbeeb2841	-0.4592915
150	0xbe5966b2	-0.21230581
151	0x3f5710a6	0.8400978
152	0x3dcb1a17	0.099170856
153	0x3d60c245	0.05487277
154	0x3d90ccd4	0.07070318
155	0xbd12b48d	-0.035816718
156	0x3ef53f3a	0.478998
157	0x3e3d6870	0.18496871
158	0x3f5a6078	0.8530345
159	0x3f6a0234	0.9140961
160	0x3efbb8b6	0.4916436
161	0xbe03df52	-0.12878159
162	0xbe706939	-0.2347764
163	0xbe899e9c	-0.26878822
164	0x3daa2f14	0.08309761
165	0xbf25301e	-0.64526546
166	0xbcb7847c	-0.02240204
167	0xbd3cbf80	-0.046081066
168	0x3ef8f62a	0.48625308
169	0x3da2101e	0.0791323
170	0x3eec631f	0.46169373
171	0x3e32b46e	0.17451641
172	0x3e1d2182	0.15344813
173	0xbc26ea80	-0.010187745
174	0x3e09befd	0.13451762
175	0x3dc78d1c	0.09743711
176	0xbc210daa	-0.009829918
177	0x3eb0cca4	0.34531128
178	0xbe3eb7de	-0.18624827
179	0x3e811cd0	0.25217295
180	0x3ef13cbe	0.47116655
181	0xbd1f21df	-0.03885066
182	0x3f174f01	0.59104925
183	0x3cbceb78	0.023061499
184	0x3e058746	0.13039884
185	0xbe0e39e0	-0.13889265
186	0x3ca6409b	0.020294478
187	0xbe3b3a63	-0.18283992
188	0x3e76289f	0.24038933
189	0x3ede002e	0.43359512
190	0xbe2e0c3b	-0.16996853
191	0xbea1d80a	-0.31610137
192	0x3b06c69f	0.0020565165
193	0x3ee95ead	0.45580044
194	0xbe04f0c3	-0.12982468
195	0xbd481dba	-0.048856474
196	0x3e84e207	0.25953695
197	0xbb8a9f39	-0.0042304066
198	0xbe9188f8	-0.2842481
199	0x3e6fdcc9	0.23424067
200	0x3eaacba6	0.33358496
201	0x3e252487	0.16127215
202	0x3f0ee5bc	0.55819297
203	0xbd22c424	-0.039737836
204	0x3ed803ae	0.42190307
205	0xbd926035	-0.07147256
206	0x3deaaaa5	0.11458329
207	0x3d7a45e3	0.061101805
208	0xbe0bef92	-0.13665608
209	0xbe74d9aa	-0.23911157
210	0x3f49c33e	0.7881354
211	0xbca1c5f1	-0.019747706
212	0xbec68e07	-0.38780233
213	0xbc80e3c9	-0.015733616
214	0x3cb4e0a6	0.022079777
215	0xbdeb3839	-0.11485333
216	0x3eaff8d8	0.3436954
217	0xbe579d83	-0.2105618
218	0x3e5cd847	0.21566878
219	0x3ea3d4c4	0.31998265
220	0x3e4775c2	0.19478515
221	0xbe2192b2	-0.15778616
222	0xbd3a94cf	-0.04555207
223	0xbe2018a8	-0.15634406
224	0x3e84e31a	0.25954515
225	0x3eedcfd2	0.46447617
226	0x3e86d323	0.2633296
227	0xbe9f0bf5	-0.3106381
228	0xbddfc972	-0.109270945
229	0x3dff0824	0.124527246
230	0x3e48e57b	0.1961879
231	0x3e623400	0.22090149
232	0x3e38a7d5	0.18032773
233	0x3f16069c	0.58603835
234	0xbf084ba6	-0.5324043
235	0x3f05ebd2	0.5231296
236	0x3dce0bc3	0.10060837
237	0x3e018104	0.12646872
238	0x3e7eef4d	0.24895974
239	0x3e4dd4bc	0.20100683
240	0x3dd53ea8	0.10412341
241	0x3ec5ac57	0.38608047
242	0x3eedaa74	0.46419108
243	0xbf051e20	-0.5199909
244	0xbcef93f1	-0.029245349
245	0xbd2ec692	-0.04266984
246	0xbe712f00	-0.23553085
247	0x3eafcffc	0.34338367
248	0x3eeda8e3	0.46417913
249	0x3f0c1d54	0.5473225
250	0x3e7933a1	0.24336101
251	0x3ebebed3	0.37254962
252	0xbdf7c668	-0.1209839
253	0xbe922939	-0.28547075
254	0x3dd3ad10	0.103357434
255	0x3ea6c6b9	0.32573488

encoder.dcrnn_cells.0.gate.bias_pool f4 [2, 128]
0	0xbeb438eb	-0.35199675
1	0xbd2f5f1b	-0.04281531
2	0xbd5e5f29	-0.05428997
3	0xbe82af61	-0.25524428
4	0x3d6c8511	0.05774409
5	0x3dad0d59	0.084498115
6	0xbded9600	-0.11600876
7	0xbe434132	-0.19067839
8	0xbeb2509f	-0.34827134
9	0xbf16e049	-0.5893598
10	0xbdf99d7a	-0.121882394
11	0xbe4461e4	-0.19177967
12	0xbf216238	-0.63040495
13	0x3dc06e21	0.093960054
14	0xbe222591	-0.15834643
15	0xbf132866	-0.5748352
16	0x3ece681a	0.40313798
17	0xbeb5d79e	-0.35516065
18	0xbf0611b4	-0.5237076
19	0xbe488115	-0.19580491
20	0xbe5a6a9e	-0.21329734
21	0x3e0a0fb2	0.1348255
22	0xbe8f39a2	-0.27973658
23	0xbf1cd2e7	-0.6125931
24	0xbe5776f2	-0.21041468
25	0xbe397fdd	-0.18115182
26	0xbdfb8be1	-0.12282539
27	0xbe64afc1	-0.2233267
28	0xbbba6da3	-0.0056893392
29	0xbe4db30b	-0.2008783
30	0x3e2c430f	0.16822456
31	0xbc8f03ec	-0.017457925
32	0xbf162ad6	-0.5865911
33	0x3eaa89a0	0.33308125
34	0xbd9de1f6	-0.07709114
35	0x3e12b517	0.14326893
36	0xbe8a1f79	-0.26977137
37	0xbea57555	-0.3231608
38	0x3e3866ee	0.18008015
39	0xbe543ac9	-0.2072555
40	0x3d1d1e4c	0.03835897
41	0xbe83d310	-0.25746965
42	0xbf25e6bf	-0.64805216
43	0xbd6a5425	-0.057209153
44	0xbd6a955c	-0.057271346
45	0xbe839bea	-0.2570489
46	0xbf13cbd0	-0.5773287
47	0xbdf6e1a7	-0.120547585
48	0xbe706d05	-0.23479088
49	0x3d6dd5a6	0.05806508
50	0x3d04eca8	0.032452255
51	0xbdbfd511	-0.09366811
52	0xbe5fd0cd	-0.21856995
53	0x3e9db3eb	0.3080133
54	0xbd6113ad	-0.054950405
55	0xbefb4632	-0.49076992
56	0xbf24026e	-0.6406621
57	0x3d604900	0.05475712
58	0x3d192739	0.03739092
59	0x3dd715c9	0.10502202
60	0xbea3cfcc	-0.31994474
61	0xbe93553f	-0.28775975
62	0xbe733af2	-0.23752955
63	0xbe664c4f	-0.22490047
64	0x3e9ff344	0.31240284
65	0x3dd7a0de	0.1052873
66	0x3eefd621	0.46843055
67	0xbe0a0306	-0.13477716
68	0x3eae4b88	0.34042
69	0x3e8800c2	0.26563078
70	0x3e33133e	0.17487809
71	0x3e77edd6	0.24211821
72	0x3f1f5ef1	0.62254244
73	0x3f139888	0.5765462
74	0xbde605eb	-0.112315975
75	0xbcc13abe	-0.02358758
76	0x3e363a92	0.1779578
77	0x3d5badff	0.053632732
78	0x3f4ddc21	0.80414015
79	0x3e8cf76a	0.27532512
80	0xbd8c7361	-0.06857944
81	0x3e57978f	0.21053909
82	0xbede3503	-0.4339982
83	0xbe987ef7	-0.29784366
84	0x3de00ae9	0.10939581
85	0xbf1eb272	-0.61991036
86	0x3f614993	0.8800289
87	0x39ed0c80	0.00045213476
88	0x3ea666d6	0.32500333
89	0x3e5f3414	0.2179721
90	0x3f0871e1	0.53298765
91	0x3dfd276a	0.12361033
92	0x3d058124	0.03259386
93	0x3ea77bfd	0.32711783
94	0x3e094320	0.13404512
95	0x3f30c8d7	0.6905646
96	0xbeaaebb7	-0.3338296
97	0x3d7463eb	0.0596656
98	0x3ea11b71	0.3146625
99	0xbeea1f4d	-0.45727006
100	0x3eb58c8a	0.35458785
101	0x3eb0f970	0.34565306
102	0xbca7a5a7	-0.020464731
103	0x3c1d131a	0.009587074
104	0xbf368042	-0.71289456
105	0xbeaac19e	-0.33350843
106	0xbd5a33dd	-0.053272117
107	0x3ec81b05	0.39083114
108	0xbec94ae0	-0.39314938
109	0x3f092764	0.5357573
110	0x3db74312	0.089483395
111	0xbd337269	-0.043810282
112	0x3b55c144	0.0032616416
113	0x3f0957fd	0.53649884
114	0xbe5cfc24	-0.21580559
115	0x3e166e28	0.14690459
116	0x3e2167e0	0.15762281
117	0x3f468596	0.77547586
118	0x3ca1d657	0.019755526
119	0xbd8e6a5a	-0.06953879
120	0x3f6fbcdb	0.93647546
121	0xbd7fae1a	-0.062421896
122	0x3e8c35fd	0.2738494
123	0x3d13ee1b	0.036115747
124	0xbeb485a8	-0.35258222
125	0x3f0df289	0.55448204
126	0xbe51c25a	-0.20484295
127	0x3e08f111	0.1337321
128	0xbf372dce	-0.7155427
129	0x3e55f1d0	0.20893025
130	0x3ea2655f	0.31717965
131	0x3ee08ff0	0.43859816
132	0xbbf3f721	-0.0074452315
133	0x3ef6c599	0.4819763
134	0x3ec93edc	0.3930577
135	0x3ee02c2b	0.43783697
136	0x3f30a5cf	0.69003004
137	0x3efac577	0.4897878
138	0x3f051115	0.5197919
139	0x3e6b9c8d	0.23008938
140	0x3e989652	0.29802185
141	0xbe77a997	-0.24185787
142	0x3f1a30a6	0.6023048
143	0x3f08b7cc	0.5340545
144	0xbed8a75d	-0.42315188
145	0x3ea272d3	0.3172823
146	0x3ee88324	0.45412552
147	0xbe93ed30	-0.28891897
148	0x3e11d10c	0.14239901
149	0xbe4d7072	-0.20062426
150	0x3f0a0eaa	0.53928626
151	0x3f097d82	0.53707135
152	0x3e768a6f	0.24076246
153	0x3eb360cf	0.35034797
154	0xbe271fd8	-0.16320741
155	0x3eb2ff3c	0.34960353
156	0x3ebb62a9	0.3659871
157	0x3eb47f6c	0.35253465
158	0xbeff2d5b	-0.4983929
159	0x3f404eba	0.7512013
160	0x3efe2c57	0.49643204
161	0xbe46c98f	-0.19412826
162	0xbe194fc9	-0.14971842
163	0x3e5d4c45	0.21611126
164	0x3ece2122	0.40259653
165	0x3d3eb439	0.046558592
166	0xbef9e322	-0.488061
167	0x3db8148a	0.089882925
168	0x3ef10883	0.47076806
169	0xbcb36671	-0.021899434
170	0x3f214743	0.6299936
171	0x3edd8b9c	0.43270576
172	0x3ef19de5	0.47190776
173	0x3f0fc549	0.5616041
174	0xbeb39edd	-0.3508214
175	0xbdc6fefd	-0.09716604
176	0xbed3155b	-0.4122723
177	0x3f14e341	0.5815926
178	0x3e8d852f	0.27640674
179	0x3e8bb03a	0.27282888
180	0x3f2cd745	0.67515975
181	0x3efb38f1	0.4906688
182	0x3ead06d0	0.3379426
183	0xbde8fc61	-0.113762625
184	0x3e87f214	0.26551878
185	0x3b756501	0.0037444236
186	0xbe29583d	-0.16537566
187	0xbe29fa6a	-0.16599432
188	0x3e7d7313	0.24750929
189	0x3f3bfaf3	0.73429793
190	0x3ef14875	0.47125593
191	0xbc8004cc	-0.015627287
192	0x3d184b15	0.03718098
193	0xbe993fba	-0.29931432
194	0xbe5cfbe4	-0.21580464
195	0x3d75fd04	0.060055748
196	0xbf1f1943	-0.6214792
197	0xbebd70f2	-0.37000233
198	0xbe9d8ce1	-0.30771545
199	0xbf057b9d	-0.52141744
200	0xbf18ef14	-0.59739804
201	0xbf5cab3a	-0.8619877
202	0xbe9fbd6a	-0.311992
203	0xbd623a8d	-0.05523162
204	0xbe9a2e5c	-0.30113494
205	0x3ecb698e	0.3972897
206	0xbf18eb0a	-0.5973364
207	0xbf1559a8	-0.5833993
208	0xbe964c7f	-0.29355237
209	0x3d310f12	0.043227263
210	0x3e08f36e	0.13374111
211	0x3ea9490f	0.33063552
212	0xbdfde85b	-0.12397834
213	0x3f6b6b04	0.9196017
214	0xbf4c4d2c	-0.79805255
215	0xbe160c8b	-0.14653222
216	0xbf059540	-0.5218086
217	0xbf2e808c	-0.68164897
218	0xbf08cb1a	-0.5343491
219	0xbf0f5713	-0.5599224
220	0xbea1da35	-0.3161179
221	0xbeecedbb	-0.46275124
222	0xbe2cc3e4	-0.16871601
223	0xbf656878	-0.8961253
224	0x3e6ebc21	0.23313953
225	0xbb37e395	-0.0028059233
226	0xbeca0aeb	-0.39461455
227	0x3e999855	0.29999033
228	0xbf446f12	-0.7673198
229	0xbf2c377f	-0.6727218
230	0x3efd129a	0.49428254
231	0xbe2a3cf4	-0.16624814
232	0x3eb577c1	0.35442927
233	0xbdd838a8	-0.10557681
234	0xbe9c65a4	-0.30546296
235	0xbf4b16d1	-0.7933169
236	0xbf00e29f	-0.50345796
237	0xbf1c0587	-0.60945934
238	0xbd1d3571	-0.038381044
239	0xbdd4b529	-0.10386116
240	0x3ea42fa8	0.3206761
241	0xbef676b8	-0.4813745
242	0xbe7bb53d	-0.24580856
243	0xbf06d594	-0.52669644
244	0xbea23b44	-0.3168584
245	0xbefed606	-0.49772662
246	0x3d904dca	0.07046087
247	0x3d6ef619	0.058340166
248	0xbf2b77e4	-0.66979814
249	0xbe8768ea	-0.2644723
250	0x3b2cd263	0.0026370517
251	0xbe218979	-0.15775098
252	0xbf1e33ce	-0.617978
253	0xbedf9e08	-0.43675256
254	0xbeb5cf9e	-0.35509962
255	0x3ec16a4e	0.37776417

encoder.dcrnn_cells.0.update.weights_pool f4 [2, 2, 65, 64]
0	0x3ed5f62b	0.41789374
1	0xbe0a3ae6	-0.1349903
2	0x3dc5bf07	0.09655576
3	0xbcb17c93	-0.021665847
4	0xbe5a285d	-0.2130446
5	0x3eb9c666	0.36284178
6	0x3e2f2e0b	0.17107408
7	0x3d1b2c6a	0.037884153
8	0x3f0adaba	0.5424
9	0xbe9df47d	-0.30850592
10	0x3edf9af7	0.43672916
11	0xbe46c0bb	-0.19409458
12	0x3f2b9faf	0.6704053
13	0x3ea3fa0e	0.32026714
14	0x3e0c7fc8	0.1372062
15	0x3cdb4606	0.026766788
16	0xbdd500e0	-0.104005575
17	0x3c6def0e	0.014522327
18	0xbe187355	-0.14887746
19	0xbd39a743	-0.04532553
20	0xbd7b0c07	-0.061290767
21	0xbf27c7ff	-0.65539545
22	0xbe0394ca	-0.12849727
23	0xbeeaabc5	-0.45834175
24	0x3f019027	0.50610584
25	0xbe8785e1	-0.2646933
26	0x3d7afb67	0.061274912
27	0x3df82dfc	0.12118146
28	0xbde23907	-0.11046033
29	0x3e08b41a	0.13349953
30	0xbb5c9b09	-0.0033661744
31	0xbee81a0d	-0.45332375
32	0xbe3c62d4	-0.18397075
33	0xbec5ac92	-0.38608223
34	0x3e18ef7f	0.1493511
35	0xbdf9ed8f	-0.12203514
36	0xbcab9652	-0.020945702
37	0x3ec3e9d7	0.38264343
38	0xbe1257bf	-0.14291285
39	0x3e959b67	0.29220125
40	0x3d5a182a	0.0532457
41	0x3f090c75	0.5353463
42	0xbe48e613	-0.19619016
43	0xbe87eb40	-0.2654667
44	0x3d726747	0.059180524
45	0xbd3f3692	-0.0466829
46	0x3eec73c5	0.46182075
47	0xbe2e18fd	-0.1700172
48	0xbe90198e	-0.28144497
49	0x3e6e971f	0.23299836
50	0xbe9c6bf2	-0.30551106
51	0x3e0ffcf7	0.14061342
52	0xbebdcdcb	-0.3707107
53	0x3e1c88bc	0.15286535
54	0x3dc4e464	0.096138746
55	0x3ebd342f	0.36953875
56	0x3e3670dc	0.1781649
57	0xbec72623	-0.38896284
58	0x3e585d12	0.21129254
59	0x3dd0b012	0.10189833
60	0x3caceef4	0.021110035
61	0x3cb9b003	0.022666937
62	0x3cb05dd9	0.021529125
63	0x3eaac517	0.33353493
64	0xbe3fbacb	-0.187236
65	0xbf20921c	-0.62722945
66	0xbed90a8c	-0.4239086
67	0xbeba390b	-0.36371645
68	0xbcfe7b37	-0.031064613
69	0x3e173735	0.14767154
70	0xbe2e6681	-0.1703129
71	0xbdb51d50	-0.088434815
72	0x3f1dbb5a	0.61614
73	0xbef90796	-0.486386
74	0x3d784696	0.06061419
75	0xbd3c75fc	-0.046010956
76	0x3dcf0001	0.101074226
77	0xbe108a12	-0.1411517
78	0x3e77bb43	0.24192528
79	0x3e81ebfc	0.25375354
80	0x3de0b98f	0.109728925
81	0xbe425b0f	-0.18980049
82	0xbd283955	-0.0410703
83	0x3f41c3ae	0.7568921
84	0x3d144a88	0.03620389
85	0x3e13a41f	0.14418076
86	0x3e1f6a5e	0.1556792
87	0xbdefbd2b	-0.11706003
88	0x3dbc7274	0.09201518
89	0x3f05b4f1	0.5222922
90	0xbe9c981a	-0.30584794
91	0x3d896af1	0.067098506
92	0x3d5485eb	0.051885527
93	0xbcbd31be	-0.023095008
94	0x3f8dc13a	1.1074593
95	0xbe40b701	-0.1881981
96	0x3d81b5d9	0.06333513
97	0xbef12639	-0.47099474
98	0xbea18ab9	-0.3155115
99	0x3f5cfc90	0.8632288
100	0x3e46a314	0.19398147
101	0xbdae834e	-0.08521138
102	0xbf65cded	-0.8976734
103	0x3e88763a	0.266527
104	0x3c9cfc42	0.019163255
105	0xbdc0f92d	-0.094225265
106	0xbe8b263b	-0.27177605
107	0x3dec862d	0.115490295
108	0x3db3bc85	0.087761916
109	0x3e356a9d	0.17716451
110	0xbd4f5764	-0.05062045
111	0xbd32109a	-0.043472864
112	0x3ec0bcc5	0.3764402
113	0x3ec9cb3c	0.39412868
114	0x3dbecb11	0.093160756
115	0xbcd04163	-0.025421804
116	0xbe788360	-0.24268866
117	0x3dde88ad	0.108659126
118	0xbece110a	-0.40247375
119	0x3e2eabad	0.17057677
120	0x3f3dcafc	0.74137855
121	0xbe8d5f11	-0.27611592
122	0x3dc62e3c	0.09676787
123	0xbe7aa196	-0.24475703
124	0x3eed75e8	0.46379018
125	0xbf35486d	-0.7081364
126	0xbd0c780e	-0.03429418
127	0x3e713587	0.23555575
128	0xbf1aabcf	-0.6041841
129	0x3eb11388	0.34585214
130	0x3f512ac4	0.8170588
131	0x3e9e9d0e	0.30979198
132	0xbddcd94a	-0.10783632
133	0x3e3c0bca	0.18363872
134	0x3f433c13	0.7626354
135	0x3ea76a68	0.3269837
136	0x3eafa83f	0.3430805
137	0xbf51d89a	-0.8197113
138	0xbf1cc159	-0.61232525
139	0x3d7c3bbf	0.061580416
140	0xbcfdb258	-0.03096883
141	0x3e8f5f43	0.28002366
142	0x3e5afee5	0.21386297
143	0x3eeac055	0.45849863
144	0xbec17566	-0.3778488
145	0x3f204fcf	0.6262178
146	0xbdde5d42	-0.10857631
147	0x3e41b73d	0.18917556
148	0xbeac9006	-0.3370363
149	0xbe244969	-0.16043629
150	0xbca944cb	-0.020662686
151	0x3f1b0b5c	0.6056421
152	0x3cf9c59b	0.030489733
153	0x3ef0313b	0.4691256
154	0xbea93c7a	-0.33053952
155	0x3eb45b3e	0.35225862
156	0xbe2f98e6	-0.1714817
157	0x3f4be9ee	0.79653823
158	0x3d8cc536	0.068735525
159	0xbe4530f3	-0.19256954
160	0xbd9b2d6b	-0.07577022
161	0xbdd6c746	-0.10487227
162	0x3df140e4	0.11779955
163	0xbd08b3a8	-0.03337446
164	0xbd6203c3	-0.05517937
165	0x3e17739c	0.14790195
166	0xbf792de7	-0.97335666
167	0x3e3b8bee	0.18315098
168	0xbe6fcd1f	-0.23418091
169	0x3e1abc00	0.15110779
170	0xbcf84263	-0.030305093
171	0xbf093805	-0.53601104
172	0xbd48d4d3	-0.04903109
173	0xbe495515	-0.19661362
174	0xbdd856b7	-0.105634145
175	0xbe198edc	-0.14995903
176	0xbdc5d8ff	-0.09660529
177	0xbe1c3a94	-0.15256721
178	0xbe8edd89	-0.27903393
179	0xbd80d744	-0.06291059
180	0xbe94d8e2	-0.29071718
181	0x3d9d97b2	0.07694949
182	0xbf5d304b	-0.86401814
183	0xbd8aad1a	-0.06771298
184	0xbebc8a9b	-0.36824498
185	0xbe8ae917	-0.27130958
186	0x3e7ccacf	0.2468674
187	0xbee41399	-0.44546202
188	0x3edcb72a	0.43108493
189	0xbe0471b8	-0.12934005
190	0x3dab950a	0.08378036
191	0xbf416cd1	-0.75556666
192	0xbd9403bd	-0.072272755
193	0x3e0d0b9b	0.13773958
194	0x3e63de0b	0.22252671
195	0x3d9afb15	0.07567421
196	0x3e1437d9	0.14474429
197	0xbe93e039	-0.28882006
198	0x3ed856d1	0.42253736
199	0xbd1a5346	-0.037677072
200	0xbef3e637	-0.47636577
201	0xbe970c55	-0.29501596
202	0xbf34f6ca	-0.7068907
203	0xbee9e23f	-0.45680425
204	0xbdebe7bb	-0.115188085
205	0x3d34605d	0.04403721
206	0xbd3acf0c	-0.04560761
207	0x3da2aab8	0.07942718
208	0xbd31d733	-0.04341812
209	0x3d9e06b8	0.07716125
210	0x3dfb8d78	0.122828424
211	0xbf2bb139	-0.67067295
212	0xbdebd7d8	-0.11515778
213	0x3d1f38d7	0.038872566
214	0xbd71f9a6	-0.059075974
215	0x3cbd355d	0.023096735
216	0xbcb06034	-0.021530248
217	0xbe849756	-0.2589671
218	0x3dc134d2	0.09433903
219	0x3e7d9602	0.24764255
220	0x3eb3a655	0.3508784
221	0x3e542ff9	0.20721425
222	0xbe17b9c6	-0.1481696
223	0xbe4f7dbd	-0.20262809
224	0x3f355119	0.7082687
225	0x3f9f4b7e	1.2444913
226	0xbee26b39	-0.4422243
227	0x3e3d500c	0.18487567
228	0xbcf5f3ba	-0.030023444
229	0xbec88453	-0.39163455
230	0x3f013e5d	0.50485784
231	0xbe292d86	-0.16521272
232	0xbe9cca89	-0.30623272
233	0xbdc38440	-0.09546709
234	0xbc859c2f	-0.016309826
235	0xbf25b31f	-0.6472644
236	0xbd95ea89	-0.07320125
237	0x3dfaff89	0.12255771
238	0x3e7209df	0.23636578
239	0x3ecde276	0.40211838
240	0x3d1387f5	0.03601833
241	0xbe3f2792	-0.18667439
242	0xbcc78048	-0.024353161
243	0x3bcc165a	0.0062282505
244	0x3e041be0	0.12901258
245	0xbe62ea4b	-0.22159688
246	0x3dffad3a	0.12484212
247	0xbf0300ba	-0.51172984
248	0xbcdb467d	-0.02676701
249	0x3ef75c52	0.48312622
250	0x3c0a62ca	0.008446405
251	0x3e30f31a	0.17280236
252	0xbc33fbfc	-0.010985371
253	0x3e2d7186	0.16937837
254	0xbead9c88	-0.33908486
255	0xbf30ee7e	-0.6911391

encoder.dcrnn_cells.0.update.bias_pool f4 [2, 64]
0	0xbdbb36ed	-0.09141336
1	0xbeab82ef	-0.33498332
2	0xbe7e99ef	-0.24863409
3	0xbf14e2d5	-0.5815862
4	0x3e10b428	0.14131224
5	0x3dafbbf9	0.08580775
6	0x3e547405	0.20747383
7	0xbe2e6bd2	-0.17033318
8	0x3ecea738	0.40361953
9	0xbea110eb	-0.3145822
10	0x3ea8ea85	0.32991424
11	0x3e36b5b3	0.1784275
12	0xbebf5aeb	-0.37374052
13	0xbe53c1ce	-0.206794
14	0x3ea4e7f6	0.32208222
15	0x3ea1dc35	0.31613317
16	0x3e969781	0.29412463
17	0xbe1e47b8	-0.15457046
18	0xbedb9f21	-0.42894843
19	0x3e22cd5b	0.1589865
20	0xbd6bc4d2	-0.05756075
21	0xbe269026	-0.16265926
22	0x3f3b2577	0.7310404
23	0xbe5f895f	-0.21829747
24	0xbe81f380	-0.25381088
25	0xbe3165ac	-0.17323941
26	0x3d967309	0.0734616
27	0x3e64c318	0.22340047
28	0xbe13e931	-0.14444424
29	0xbe8794a6	-0.26480597
30	0x3effacb0	0.49936438
31	0xbec8e413	-0.39236507
32	0xbf034100	-0.5127106
33	0xbeeafda2	-0.4589663
34	0xbdf8ba8f	-0.12144958
35	0x3f02157c	0.5081403
36	0x3e0e9fb0	0.13928103
37	0xbe4d54b6	-0.20051846
38	0xbe8dbaa2	-0.27681452
39	0x3e56193e	0.20908067
40	0xbee5d4df	-0.4488897
41	0xbe9003f5	-0.2812802
42	0xbec400e8	-0.3828194
43	0xbed179e4	-0.40913308
44	0x3ea9e342	0.33181196
45	0x3dfa40b9	0.12219376
46	0x3dd1c744	0.10243085
47	0x3e656a4e	0.22403833
48	0x3e5db2af	0.21650194
49	0x3e9c3551	0.30509427
50	0xbe4f1e64	-0.20226437
51	0x3e9f76d9	0.3114536
52	0xbed3c724	-0.4136287
53	0x3f110377	0.5664591
54	0xbde58bd2	-0.11208309
55	0x3cc9a68a	0.024615545
56	0x3ea73a32	0.32661587
57	0x3dcaf61b	0.09910222
58	0x3dace7d9	0.08442659
59	0x3aaa6b3e	0.0013001931
60	0x3e6f7289	0.23383535
61	0xbe6c2517	-0.23061024
62	0xbe41d8d8	-0.18930376
63	0x3efb7184	0.49110043
64	0x3ccbd416	0.024881404
65	0xbe94ec5a	-0.29086572
66	0x3db45d55	0.08806864
67	0xbe111cde	-0.14171168
68	0x3d9e16e1	0.077192076
69	0x3ef69dba	0.4816721
70	0x3e3db34a	0.18525425
71	0x3e58b555	0.21162923
72	0xbe8c9754	-0.27459204
73	0x3ee2523c	0.44203365
74	0x3f409e3e	0.7524146
75	0xbea306ad	-0.3184103
76	0xbe701fda	-0.2344965
77	0x3ca0e053	0.019638216
78	0xbf1d75de	-0.61507976
79	0xbe23db98	-0.16001737
80	0xbd448f41	-0.04798818
81	0x3e3824d9	0.17982806
82	0x3ef6b1c2	0.48182493
83	0x3d76b27f	0.06022882
84	0xbe95b5ac	-0.29240167
85	0xbf1d5ebe	-0.6147269
86	0xbeaf42e9	-0.34230736
87	0xbe4d8770	-0.20071197
88	0xbec332af	-0.38124606
89	0xbd7b8eab	-0.061415356
90	0x3e3da595	0.18520196
91	0x3d4d70f1	0.050156537
92	0xbec601ad	-0.38673154
93	0x3df42c02	0.11922456
94	0x3d7eef48	0.062239915
95	0x3eaba450	0.33523798
96	0x3ef60974	0.48054087
97	0x3edbb9ac	0.42915094
98	0xbd99a3e3	-0.07501962
99	0xbd2221d6	-0.03958305
100	0xbe10e16b	-0.1414849
101	0xbe1ebf4d	-0.15502663
102	0x3ea1eeb1	0.3162742
103	0xbc77b5cf	-0.01511903
104	0x3ef537f5	0.47894254
105	0xbe86bd2e	-0.26316208
106	0x3eddfaee	0.43355507
107	0xbe4aee67	-0.19817506
108	0xbd5a5e9a	-0.053312875
109	0xbe2a75ec	-0.16646546
110	0x3e459cd0	0.192981
111	0x3ec8b9d2	0.3920427
112	0xbd932bad	-0.07186065
113	0xbe9f766b	-0.31145033
114	0xbf159bef	-0.5844106
115	0xbeb73723	-0.35784253
116	0x3ebc32be	0.36757463
117	0x3d91280f	0.07087719
118	0x3ea39ac1	0.31954005
119	0xbec1b10b	-0.37830386
120	0x3bb4e724	0.005520718
121	0x3dd9e2d6	0.10638969
122	0xbeccd5b4	-0.40006793
123	0x3eb9a303	0.3625718
124	0xbd4c3034	-0.049850658
125	0x3d8fa5dd	0.07014058
126	0xbeb9dfd7	-0.3630359
127	0x3d11ecb7	0.03562614

encoder.dcrnn_cells.1.gate.weights_pool f4 [2, 2, 128, 128]
0	0xbf34e380	-0.7065964
1	0xbf090478	-0.53522444
2	0x3e3c109c	0.18365711
3	0xbef65885	-0.4811441
4	0xbeaeaeb3	-0.3411766
5	0x3e86553f	0.26236913
6	0xbead7285	-0.33876434
7	0x3e94860f	0.2900853
8	0xbd45364d	-0.04814749
9	0xbfa036fc	-1.251678
10	0xbf812f8a	-1.0092633
11	0xbb822c23	-0.0039725467
12	0x3e706170	0.2347467
13	0xbd597c85	-0.053097267
14	0x3f386a2f	0.72037023
15	0x3e28f401	0.1649933
16	0xbb0f00cb	-0.002182054
17	0x3ee46ba3	0.4461337
18	0xbe8e96fc	-0.27849567
19	0x3dea0420	0.11426568
20	0x3fc2d3b6	1.5220859
21	0x3d803794	0.06260601
22	0xbf644ae7	-0.8917679
23	0x3ed09d61	0.4074507
24	0xbdeb4e85	-0.11489586
25	0xbe1b950a	-0.15193573
26	0x3ed12ea4	0.40855896
27	0xbeddaf6d	-0.43297902
28	0x3f4bc1a6	0.7959236
29	0x3d132c44	0.035930887
30	0x3f0367a0	0.51329994
31	0xbcce087c	-0.02515053
32	0x3eae312a	0.34021884
33	0xbed1c771	-0.40972474
34	0xbeaf2586	-0.34208316
35	0x3e37b11a	0.17938653
36	0xbfa83d9f	-1.3143805
37	0x3c852004	0.016250618
38	0x3e375c51	0.1790631
39	0xbdd1f07b	-0.10250946
40	0xbe84c183	-0.25928888
41	0xc0144cf2	-2.3171964
42	0xbf6d3c8b	-0.92670506
43	0xbf8ae20f	-1.0850238
44	0xbef14049	-0.47119358
45	0xbe16fe1a	-0.1474537
46	0x3e6d202d	0.23156805
47	0xbf9861f3	-1.1904892
48	0x3e003fd3	0.12524347
49	0x3f0a3eb2	0.54001915
50	0xbea12689	-0.31474712
51	0xbd823bbe	-0.06359051
52	0xbe3724f8	-0.17885196
53	0xbe3264bd	-0.17421241
54	0xbc14a755	-0.009073098
55	0xbf236c07	-0.6383671
56	0xbef873d6	-0.48525876
57	0xbe66fd24	-0.22557503
58	0xbea3f721	-0.32024482
59	0xbe1f5352	-0.15559128
60	0x3e9bbe16	0.30418462
61	0xbe8b0d97	-0.27158806
62	0xbe8f6195	-0.28004137
63	0xbf09d7ae	-0.53844726
64	0xbe1f7b5b	-0.155744
65	0x3e3c4614	0.18386108
66	0x3f3f397a	0.7469708
67	0x3eb5aac3	0.35481843
68	0x3f4eb86f	0.80750173
69	0xbd65de00	-0.05611992
70	0x3eb706f4	0.35747492
71	0x3f7996cc	0.9749572
72	0x3f617904	0.8807528
73	0x3e630173	0.22168522
74	0x3ea8f4c9	0.32999256
75	0x3f4b1bdd	0.7933939
76	0x3edafc02	0.42770392
77	0x3eb73034	0.35778964
78	0x3f23056a	0.63680136
79	0x3f3fa387	0.748589
80	0x3e7c3bf9	0.24632253
81	0x3e83b371	0.2572284
82	0x3f3a5d18	0.727983
83	0x3f162734	0.5865357
84	0x3f0186d8	0.5059638
85	0xbe14a891	-0.14517428
86	0x3e6bc5bc	0.23024648
87	0x3eeac262	0.45851427
88	0x3f72825f	0.9473018
89	0x3f5abaa6	0.8544105
90	0x3f2ee694	0.68320584
91	0x3fa28ad2	1.2698615
92	0x3ea4a897	0.32159874
93	0xbea0e37b	-0.31423554
94	0x3f2e8d0a	0.6818396
95	0x3dd7a064	0.10528639
96	0x3edf1123	0.43567762
97	0x3df02092	0.11724962
98	0x3f80efc9	1.0073177
99	0x3f01feab	0.5077922
100	0x3f3cbe16	0.7372755
101	0x3f668702	0.90049756
102	0x3f83329a	1.0249817
103	0x3ef7535c	0.48305786
104	0x3f2b67dc	0.6695535
105	0xbd435db7	-0.047696795
106	0x3f087ac5	0.5331233
107	0x3ea95e15	0.3307959
108	0x3f64a2cc	0.8931091
109	0x3de4dac6	0.1117454
110	0x3ea58bfe	0.32333368
111	0xbed1bbef	-0.40963694
112	0x3efbf25b	0.4920834
113	0x3f5b5423	0.8567526
114	0x3f4c631c	0.7983873
115	0x3ed1e9f8	0.40998816
116	0x3ebd97c5	0.37029853
117	0x3f37998f	0.71718687
118	0x3f9befe3	1.2182583
119	0x3f79ff26	0.9765495
120	0x3f89b3df	1.0758017
121	0x3f661162	0.89870274
122	0x3f63197a	0.8871075
123	0x3f378fb5	0.71703655
124	0x3f29f468	0.6638856
125	0x3f0512fa	0.5198208
126	0x3f2a4628	0.665133
127	0x3f080dbc	0.53145957
128	0x3ef76017	0.48315498
129	0x3ea57357	0.3231456
130	0xbec5e983	-0.38654718
131	0x401cc932	2.44978
132	0xbd8e9383	-0.069617294
133	0x3f85297e	1.0403287
134	0xbef8bf21	-0.4858332
135	0xbfb9d9a9	-1.451955
136	0xbea80f91	-0.32824376
137	0xbe4e4af7	-0.20145784
138	0xbf6e0805	-0.92980987
139	0x3f28cfb3	0.65941924
140	0xbf221f31	-0.63328844
141	0x3fc380b2	1.527365
142	0x3cb6f9d8	0.022335932
143	0x3ffe3def	1.9862651
144	0xbf5f3284	-0.87186456
145	0x3ec34d17	0.38144752
146	0x3f2367ca	0.63830245
147	0x3cc0e2a1	0.023545565
148	0x3dfc184b	0.12309321
149	0x3f960354	1.1719766
150	0xbeaca9f1	-0.33723405
151	0x3f82fefe	1.0234067
152	0x3f670639	0.9024387
153	0xbe7b2aa3	-0.24527983
154	0x3eca70ee	0.39539284
155	0xbe6d7734	-0.23190004
156	0xbd56b02d	-0.052414108
157	0x3edb447e	0.42825693
158	0x3e82ae66	0.2552368
159	0x3d8fefce	0.07028161
160	0x3f90d144	1.1313863
161	0xbfa0fa88	-1.2576456
162	0xbe8cfdde	-0.27537435
163	0x3fbd2afd	1.4778744
164	0x3ec078a1	0.37592033
165	0x3f28f05c	0.6599176
166	0x3eabb8f2	0.3353954
167	0x3f0fa629	0.56112915
168	0x3f274324	0.65336823
169	0x3f2bae18	0.6706252
170	0xbf3f85e1	-0.7481366
171	0xbe1e1b51	-0.15440108
172	0x3f679db8	0.90475035
173	0xbfd9370b	-1.6969923
174	0x3e9b824c	0.30372846
175	0xbf30ae19	-0.6901565
176	0xbee0a227	-0.43873712
177	0x3e16f5e8	0.14742243
178	0xbd6aa568	-0.05728665
179	0x3f11d378	0.569633
180	0x3f8a552b	1.0807241
181	0x3e247d0f	0.16063331
182	0x3f146ea0	0.579813
183	0xbe4cd3a7	-0.20002614
184	0x3e431d0a	0.19054046
185	0xbfb15e0d	-1.3856827
186	0x3f735afc	0.95060706
187	0x3e8c3469	0.27383736
188	0xbe8ffa61	-0.2812071
189	0x3e21d575	0.15804084
190	0x3f1e5d01	0.6186066
191	0xbfb11a67	-1.3836182
192	0x3ed21604	0.41032422
193	0xbf155637	-0.5833468
194	0x3f244359	0.64165264
195	0x3f0d562d	0.5520962
196	0xbc852aa0	-0.016255677
197	0xbe30ab3c	-0.1725282
198	0x3d4ff80c	0.050773665
199	0xbf3af03a	-0.73022807
200	0xbca39830	-0.01997003
201	0xbe3c6cd2	-0.18400887
202	0x3e833fb1	0.2563453
203	0xbdee6a6d	-0.11641393
204	0xbf06aee7	-0.5261063
205	0xbee85867	-0.45379946
206	0x3edf8e6a	0.4366334
207	0xbd1487ee	-0.036262445
208	0xbf1986d1	-0.5997134
209	0xbddae3c6	-0.106879756
210	0x3e09f87a	0.13473693
211	0x3eddf4e0	0.43350887
212	0x3f0cbb3d	0.549732
213	0xbeb72f56	-0.35778302
214	0x3f05343f	0.52032846
215	0x3f5459ab	0.8294932
216	0xbe79f60c	-0.24410266
217	0x3f283a78	0.65714216
218	0x3de4bfab	0.1116937
219	0xbf9b4fc7	-1.2133721
220	0x3f1aedd3	0.6051914
221	0x3dba962d	0.09110675
222	0xbe24311d	-0.1603436
223	0x3dc46ea5	0.09591416
224	0x3e3e0598	0.18556821
225	0x3e81c717	0.25347206
226	0x3d438e89	0.047743354
227	0x3dddb5b2	0.10825671
228	0x3ea166ff	0.31523892
229	0xbe844dfb	-0.25840744
230	0x3ee885d3	0.454146
231	0x3eb8c420	0.36087132
232	0x3ebb5905	0.36591354
233	0x3f596365	0.8491729
234	0xbec3cf8a	-0.38244277
235	0x3f25cbc0	0.6476402
236	0xbea3077b	-0.31841645
237	0xbe0220c7	-0.12707816
238	0x3eb2d892	0.34930855
239	0xbeadd458	-0.33951068
240	0x3ee9e643	0.45683488
241	0xbdb183e6	-0.08667736
242	0x3eaf720c	0.34266698
243	0x3e64693c	0.22305769
244	0x3f866133	1.0498413
245	0xbc9ac05f	-0.018890558
246	0x3eb82edb	0.35973248
247	0x3ec2f070	0.38074064
248	0xbe6ec8ed	-0.23318835
249	0x3d366357	0.04452833
250	0x3f3418ef	0.70350546
251	0xbd5c7080	-0.053818226
252	0x3eca2aa9	0.39485672
253	0x3d28c4cf	0.041203316
254	0x3d2ecded	0.042676855
255	0x3ecd10e2	0.40051943

encoder.dcrnn_cells.1.gate.bias_pool f4 [2, 128]
0	0xbf4f8191	-0.8105708
1	0x3e84c1bd	0.2592906
2	0x3e217d27	0.15770398
3	0x3f194714	0.5987408
4	0x3f01f4ab	0.5076396
5	0x3e4dab90	0.20084977
6	0x3eaa8a93	0.3330885
7	0x3e3c8344	0.18409449
8	0x3db51583	0.08841994
9	0xbe57a596	-0.2105926
10	0x3efdb14b	0.49549326
11	0x3f34f222	0.70681965
12	0xbddbc9c8	-0.10731846
13	0x3f4062d9	0.7515083
14	0x3ec79e79	0.38988093
15	0x3e558129	0.20850052
16	0x3d3670fc	0.044541344
17	0x3eabf91c	0.33588493
18	0x3e8f72f8	0.28017402
19	0x3ca499c7	0.020092858
20	0xbe599711	-0.21249034
21	0x3ebf68b9	0.37384585
22	0x3ee5acea	0.44858485
23	0x3f1171d5	0.5681432
24	0x3f46b42e	0.7761868
25	0x3f4e76ad	0.80649835
26	0x3db7a4dd	0.08966992
27	0x3e4dec16	0.20109591
28	0x3e849bc9	0.25900105
29	0x3e3f4548	0.18678772
30	0xbe5f3610	-0.21797967
31	0x3ce619a8	0.028088406
32	0x3f31c66b	0.69443387
33	0x3e857c2e	0.26071304
34	0xbe539d72	-0.2066553
35	0x3e7a764e	0.24459192
36	0x3eb23b95	0.34811082
37	0x3e33d5ff	0.17562102
38	0x3ec0e092	0.37671334
39	0x3efda6a5	0.49541202
40	0x3e28d34a	0.1648685
41	0x3e0c58c0	0.1370573
42	0x3ef81051	0.48449948
43	0xbdd6fb7c	-0.104971856
44	0x3f439753	0.7640278
45	0x3eeb54a8	0.45963025
46	0x3e97f4d4	0.29678977
47	0xbe2cc8c8	-0.16873467
48	0x3e035a5e	0.12827441
49	0x3e4aedfc	0.19817346
50	0x3e59007d	0.21191593
51	0x3cca25df	0.024676261
52	0x3eb4002c	0.3515638
53	0x3f2a5785	0.66539794
54	0x3ec975d2	0.39347702
55	0x3d73d39d	0.059527982
56	0x3edb9ee6	0.42894667
57	0x3e8cd0f5	0.27503172
58	0x3e6f96ce	0.23397371
59	0x3ea5a616	0.32353276
60	0xbe8e5a31	-0.27803186
61	0xbe703e4c	-0.23461264
62	0x3e919e0f	0.28440902
63	0x3f063ee3	0.5243971
64	0x3e40fbf7	0.18846117
65	0xbf36a6c4	-0.71348214
66	0xbf1a4a82	-0.6026994
67	0xbe4a294f	-0.1974232
68	0xbd81e972	-0.06343354
69	0xbd8e6e45	-0.06954626
70	0xbf0c3d56	-0.5478109
71	0x3eef94c5	0.4679319
72	0xbf446420	-0.7671528
73	0x3bc494e7	0.005999196
74	0xbe81dbcc	-0.25363004
75	0x3ef5a755	0.47979227
76	0xbe5f336e	-0.21796963
77	0xbda35f15	-0.0797712
78	0xbe3d7a71	-0.18503739
79	0xbf35b290	-0.7097559
80	0xbe806fb6	-0.2508523
81	0xbe2a2bd5	-0.16618283
82	0xbc37cc8a	-0.0112181995
83	0xbf1b6350	-0.60698414
84	0x3c41b40c	0.011822712
85	0xbf17922b	-0.5920741
86	0x3e61e0a4	0.2205835
87	0xbdf239a1	-0.11827398
88	0x3e59cf26	0.21270427
89	0x3be51071	0.0069904854
90	0x3e823e1f	0.2543802
91	0xbcf4393a	-0.029812444
92	0xbe460152	-0.19336441
93	0x3c0347b1	0.008012698
94	0x3ce37c02	0.027769092
95	0xbeb97622	-0.3622294
96	0xbebd50bc	-0.36975658
97	0x3e488ba7	0.19584523
98	0x3e889e3d	0.26683226
99	0xbd90faa5	-0.07079057
100	0x3e3e9a20	0.18613482
101	0xbb0e5509	-0.0021718165
102	0xbe67f86c	-0.22653359
103	0x3edfad51	0.43686917
104	0x3e118cd8	0.14213884
105	0x3bb9dbce	0.0056719547
106	0x3eac1ee1	0.3361731
107	0x3efda155	0.4953715
108	0xbeda4a8e	-0.42635006
109	0xbea5cff1	-0.3238521
110	0xbf23d330	-0.6399412
111	0x3e6c9754	0.23104602
112	0xbe488ec5	-0.19585712
113	0xbed6f2d3	-0.41982135
114	0xbcfaee58	-0.03063123
115	0x3db970d8	0.09054726
116	0xbef0d450	-0.47036982
117	0xbc64a334	-0.013954926
118	0xbdb45d05	-0.088068046
119	0x3b9d4df6	0.0048005534
120	0xbdb053bc	-0.08609721
121	0x3f85faa0	1.046711
122	0x3e7798ec	0.24179429
123	0xbd93b234	-0.07211724
124	0xbeb2f112	-0.34949547
125	0xbd8d8949	-0.06910951
126	0x3dc3de0e	0.09563838
127	0xbc5077d8	-0.0127238855
128	0x3f0714d1	0.5276614
129	0x3ddc5851	0.107590325
130	0xbef52b5c	-0.47884643
131	0xbe9565c1	-0.29179195
132	0xbd29509b	-0.041336637
133	0xbe906d3a	-0.28208333
134	0x3df29924	0.118456155
135	0x3d94bc7c	0.07262513
136	0xbd33da75	-0.04390951
137	0xbe15476e	-0.1457803
138	0xbe8ea7a1	-0.27862266
139	0xbe25e1da	-0.16199437
140	0x3a413819	0.0007370725
141	0xbe65dda5	-0.22447832
142	0xbe37e66b	-0.17958991
143	0x3d835d19	0.06414241
144	0xbe16db1d	-0.14732023
145	0xbdb8816d	-0.09009061
146	0xbe866e75	-0.26256147
147	0xbe6cef9f	-0.23138283
148	0x3e788de2	0.24272874
149	0xbe2b5b08	-0.16733944
150	0x3e5f15d8	0.21785676
151	0x3b5e174c	0.0033888398
152	0xbe7b48b8	-0.24539459
153	0x3cc3ad3e	0.02388632
154	0x3e2689f8	0.16263568
155	0xbe3b7691	-0.18306948
156	0xbe76e972	-0.2411249
157	0xbe150b9d	-0.14555211
158	0xbd82c5b2	-0.06385364
159	0xbe0b8e5f	-0.13628529
160	0x3e2ba6cd	0.16762848
161	0xbd41e685	-0.04733898
162	0xbe45ac03	-0.19303899
163	0xbea41da2	-0.32053858
164	0xbe3fa85e	-0.1871657
165	0xbda45f38	-0.08025974
166	0x3d4990a9	0.049210224
167	0xbf095c40	-0.5365639
168	0xbbe0770d	-0.0068501295
169	0xbde7b303	-0.11313441
170	0xbd8a36d1	-0.06748737
171	0x3dc74ad8	0.09731072
172	0xbe94191f	-0.28925416
173	0x3df72b37	0.120687895
174	0xbe33895e	-0.1753287
175	0x3eb7e59b	0.35917363
176	0xbeaa8947	-0.3330786
177	0xbe8d9eed	-0.27660313
178	0xbe050404	-0.12989813
179	0x3de9b87a	0.11412139
180	0xbde6691b	-0.11250516
181	0xbed166eb	-0.40898833
182	0xbe9aa903	-0.3020707
183	0xbe79a5ab	-0.24379604
184	0xbe8349d1	-0.25642255
185	0xbea927ea	-0.33038265
186	0xbe92ff0c	-0.2871021
187	0xbe631134	-0.22174531
188	0xbe7d97be	-0.24764916
189	0x3dff6838	0.1247105
190	0xbeb71331	-0.3575683
191	0xbe343667	-0.17598878
192	0x3cf7d133	0.030251121
193	0xbe0ab776	-0.13546547
194	0x3d50d396	0.050983034
195	0xbe89cb9c	-0.26913154
196	0xbf50643f	-0.81402963
197	0x3e89c553	0.2690836
198	0xbeca5b21	-0.3952265
199	0xbf5485d1	-0.8301669
200	0xbef0d642	-0.47038466
201	0xbee7b058	-0.45251727
202	0x3e1dd5cd	0.1541359
203	0xbf1441d3	-0.5791294
204	0xbf1c6860	-0.61096764
205	0x3e74437a	0.23853865
206	0xbeebb639	-0.46037462
207	0xbec9418a	-0.39307815
208	0xbd0b4646	-0.034002565
209	0x3e9df2df	0.30849358
210	0x3d07eb9d	0.033183683
211	0xbe694fa4	-0.22784287
212	0xbee30712	-0.44341332
213	0xbf45518f	-0.77077574
214	0x3e269bea	0.16270414
215	0xbf32f135	-0.698993
216	0xbf47603a	-0.77881205
217	0x3eb5376f	0.35393855
218	0xbe608163	-0.21924357
219	0x3e8b8f9d	0.27258006
220	0xbdb1e3e8	-0.08686048
221	0xbd9391ec	-0.07205567
222	0x3f01f4df	0.5076427
223	0xbe3e41ee	-0.18579838
224	0xbea4697c	-0.32111728
225	0xbee4b21a	-0.4466713
226	0xbf07e466	-0.53082883
227	0xbe4e3b8d	-0.20139904
228	0xbec7d093	-0.39026317
229	0x3bc62187	0.0060464772
230	0x39d23c7b	0.00040099383
231	0xbebe3bd1	-0.3715501
232	0xbda023b5	-0.078193106
233	0x3e8e70b8	0.27820373
234	0xbec8f1f1	-0.39247087
235	0xbea5c1b7	-0.32374355
236	0xbecd7679	-0.4012945
237	0xbc92a340	-0.01790011
238	0x3d2bea64	0.04197158
239	0x3ec8ebaa	0.39242297
240	0xbe9f9c7a	-0.3117407
241	0x3c9b0dee	0.01892754
242	0xbecafac9	-0.3964446
243	0xbf0744ab	-0.52839154
244	0xbe61065a	-0.21975079
245	0x3eeb5ec2	0.45970732
246	0x3dacce6b	0.084378086
247	0x3ebb8f4c	0.36632764
248	0x3e4269dc	0.18985695
249	0xbea51dd6	-0.32249326
250	0xbeeb6734	-0.45977175
251	0xbda7e899	-0.08198661
252	0xbd9f6df4	-0.07784644
253	0x3db32e9c	0.087491244
254	0x3b9c67a0	0.0047730953
255	0x3dcb0e8a	0.099148825

encoder.dcrnn_cells.1.update.weights_pool f4 [2, 2, 128, 64]
0	0x3f451325	0.7698234
1	0xbf2c0169	-0.6718965
2	0x3ed3b32d	0.41347638
3	0xbe37fd77	-0.17967783
4	0x3db3c046	0.087769076
5	0x3cc77905	0.024349699
6	0x3e8b203f	0.2717304
7	0x3f4dfc43	0.80463046
8	0xbf26fa29	-0.65225464
9	0x3e8f1d65	0.27952114
10	0x3f8ca08b	1.0986494
11	0xbdb1709e	-0.08664058
12	0xbf06526c	-0.52469516
13	0xbdbb24d9	-0.091378875
14	0x3ded3968	0.11583215
15	0x3e589144	0.21149164
16	0x3dc591a0	0.096469164
17	0xbea5ff27	-0.32421228
18	0x3e9009be	0.28132433
19	0xbe5882eb	-0.21143691
20	0x3f304379	0.68852955
21	0x3e384be1	0.17997696
22	0x3dbfceeb	0.09365638
23	0xbd811dfe	-0.06304549
24	0x3e8b4a06	0.27204913
25	0xbe41a94a	-0.18912235
26	0x3e97de2f	0.296617
27	0xbe3f59c9	-0.18686594
28	0xbe30b152	-0.17255142
29	0xbe48839b	-0.19581454
30	0x3b5bc423	0.0033533655
31	0x3e7c3c8e	0.24632475
32	0xbe7c90b5	-0.24664576
33	0xbf402005	-0.7504886
34	0x3d676efa	0.05650232
35	0xbdedc703	-0.11610224
36	0x3e0993ba	0.1343526
37	0xbbd70ea5	-0.006563025
38	0x3e5803e9	0.21095242
39	0xbe3e4c60	-0.18583822
40	0xbe12bbd2	-0.1432946
41	0x3ee7f841	0.4530659
42	0x3e2b1d30	0.16710353
43	0x3d262b74	0.040568784
44	0x3e7a4c19	0.24443091
45	0x3ed13714	0.40862334
46	0xbd9f4075	-0.07775966
47	0x3d5eb433	0.05437107
48	0xbeb19f63	-0.34691915
49	0x3ee88a04	0.45417798
50	0xbe74ac75	-0.23893912
51	0xbeef56c9	-0.467459
52	0x3ecd348b	0.4007915
53	0x3da2d48a	0.07950695
54	0x3e0da26e	0.13831493
55	0x3f2432a2	0.6413976
56	0xbeaca1a7	-0.3371708
57	0x3f02e83d	0.5113562
58	0xbe84fad0	-0.25972605
59	0xbb424353	-0.002964218
60	0x3baa37f2	0.0051946575
61	0x3e974e16	0.29551762
62	0x3eafd5ce	0.34342808
63	0x3e6e2495	0.23256142
64	0x3e1de939	0.15420999
65	0x3e518025	0.2045904
66	0x3e59f05a	0.21283093
67	0xbee86b9c	-0.453946
68	0xbf099917	-0.5374922
69	0x3ded1f8f	0.11578285
70	0x3dd2dbf7	0.10295861
71	0x3d8c591b	0.06852933
72	0x3e464fca	0.19366375
73	0xbd2980fa	-0.041382767
74	0x3f2be878	0.67151594
75	0xbf5bdf63	-0.85887736
76	0x3cc9774b	0.024593016
77	0x3e9e8ac2	0.3096524
78	0xbc049e60	-0.0080944
79	0xbeeac72c	-0.4585508
80	0x3ce1e165	0.027573297
81	0x3eb631cd	0.3558487
82	0x3f00670c	0.5015724
83	0x3e7a8dee	0.24468204
84	0x3e5cfb83	0.21580319
85	0x3ea3eb03	0.32015237
86	0x3b5d40b2	0.0033760485
87	0x3de1fbce	0.11034356
88	0x3becd485	0.0072274827
89	0xbe82df15	-0.25560823
90	0xbe357ba8	-0.17722952
91	0xbd8456a6	-0.064618394
92	0xbe632106	-0.22180566
93	0xbe5fc773	-0.21853428
94	0xbda3ea75	-0.080037035
95	0x3ed7bc1e	0.4213571
96	0xbf487425	-0.7830222
97	0x3e3e648a	0.1859304
98	0x3ea0d932	0.31415707
99	0x3e70f103	0.23529439
100	0xbf4ee0ad	-0.8081158
101	0xbeb22143	-0.34791002
102	0x3d20d970	0.039269865
103	0xbea38a13	-0.3194128
104	0xbeb9e4e9	-0.36307457
105	0x3e1f0b57	0.1553167
106	0xbf0d0ac7	-0.5509457
107	0x3cced80b	0.025249502
108	0x3ea0444e	0.31302112
109	0xbe8bed42	-0.2732945
110	0xbe335821	-0.17514087
111	0x3ed336d8	0.4125278
112	0x3f110d63	0.5666105
113	0xbe4c7501	-0.19966508
114	0xbf47b104	-0.7800448
115	0xbf4ed557	-0.8079428
116	0xbef5f371	-0.48037294
117	0x3e981ef9	0.2971113
118	0xbf0c2034	-0.5473664
119	0x3d100970	0.03516525
120	0xbe7c9b3e	-0.24668595
121	0xbd3aee1d	-0.04563724
122	0xbeb0a4c8	-0.34500718
123	0xbf09f224	-0.538851
124	0xb9a6ce36	-0.00031815626
125	0x3dc60ff2	0.0967101
126	0xbd9c6a21	-0.0763743
127	0xbe2cd080	-0.16876411
128	0x3dec3540	0.11533594
129	0x3eb96ee5	0.36217418
130	0x3f71145c	0.9417169
131	0x3dcaee10	0.09908688
132	0x3dd2e125	0.10296849
133	0x3f0a1cd4	0.5395024
134	0x3e551c19	0.208115
135	0x3ee4e1af	0.44703433
136	0x3ea9c76e	0.33159965
137	0xbe99f464	-0.30069268
138	0xbe84ceca	-0.25939018
139	0xbe349adf	-0.17637204
140	0xbd425bee	-0.047450952
141	0x3e29212e	0.16516563
142	0xbe719b82	-0.23594478
143	0x3e955793	0.29168376
144	0xbefa77f5	-0.48919645
145	0x3eaf4178	0.34229636
146	0x3df11c9b	0.11773034
147	0x3f0a3d6b	0.53999966
148	0x3ee5607e	0.4480018
149	0x3e8fe745	0.28106132
150	0xbeb6cfd9	-0.3570545
151	0x3e82aedc	0.25524032
152	0xbdffea6f	-0.124958865
153	0xbf41f46c	-0.75763583
154	0x3e1039c8	0.14084542
155	0x3f1d9ac3	0.6156427
156	0xbe950038	-0.2910173
157	0xbf16cf83	-0.5891039
158	0x3f3ae456	0.73004663
159	0x3ed0ee17	0.40806648
160	0xbed2e8ee	-0.41193336
161	0x3e12e611	0.14345576
162	0x3eec7ff3	0.46191368
163	0xbecb6e2d	-0.39732495
164	0xbed1f0d6	-0.41004056
165	0x3e828a9a	0.2549637
166	0x3ef47b55	0.47750345
167	0xbec8b017	-0.39196846
168	0xbed13f05	-0.40868393
169	0x3e4051b1	0.18781163
170	0x3e47fab9	0.19529237
171	0xbd2680d4	-0.040650204
172	0x3f4159eb	0.7552783
173	0x3ea04744	0.3130437
174	0xbed1b756	-0.40960187
175	0xbe9c01af	-0.30470034
176	0xbc115255	-0.008869727
177	0xbf6d9fa4	-0.9282172
178	0xbe6ad73a	-0.22933665
179	0xbf91fe81	-1.1405793
180	0x3f2d8164	0.6777556
181	0x3f000ee2	0.5002271
182	0x3e8a0825	0.2695934
183	0x3f3e54ac	0.7434795
184	0xbf1cad5a	-0.61202013
185	0x3e8ef59c	0.2792176
186	0xbf33fe16	-0.7030958
187	0xbda799a4	-0.081836015
188	0xbf02b610	-0.51059055
189	0x3e47ef86	0.19524965
190	0x3f215cf8	0.63032484
191	0xbf4d3f14	-0.80174375
192	0x3ec8e072	0.39233738
193	0xbcae277e	-0.021259066
194	0x3dac1cfa	0.08403964
195	0xbb7cac35	-0.0038554792
196	0x3ed4ff88	0.41601205
197	0xbe8dec90	-0.27719545
198	0x3e8ca183	0.27466974
199	0x3f23d170	0.6399145
200	0x3ec8787a	0.39154416
201	0xbd7e7cc9	-0.062130723
202	0xbeef609b	-0.46753392
203	0xbf988e7a	-1.191848
204	0x3c64e02f	0.013969465
205	0x3e51e21b	0.20496409
206	0xbef1409b	-0.47119603
207	0x3eeb9218	0.46009898
208	0xbe410931	-0.18851162
209	0xbf052eec	-0.5202472
210	0x3cac5a77	0.02103923
211	0x3f443f15	0.76658756
212	0x3eb600c3	0.35547456
213	0x3f9692b0	1.1763515
214	0xbefee2e3	-0.49782476
215	0x3ebc885a	0.36822778
216	0xbe2dc38a	-0.16969123
217	0xbf1eaf62	-0.6198636
218	0x3d3c0e76	0.04591223
219	0x3f19b892	0.60047257
220	0xbe2197a0	-0.15780497
221	0xbe8a56ac	-0.2701925
222	0x3f47d4db	0.78059167
223	0x3e87fae0	0.2655859
224	0xbe8be6e7	-0.27324602
225	0xbe704df2	-0.23467234
226	0x3f5e1626	0.86752546
227	0xbd2759b9	-0.04085705
228	0xbe447d98	-0.19188535
229	0x3f3846c6	0.7198299
230	0x3e263420	0.16230822
231	0x3e13a9c5	0.1442023
232	0xbf292a86	-0.6608051
233	0x3f0821f0	0.53176785
234	0x3dfb09ef	0.12257754
235	0x3d7489e1	0.059701804
236	0x3e9789c3	0.2959729
237	0xbe254aad	-0.16141768
238	0x3ddbd1eb	0.10733398
239	0xbf1a8e51	-0.6037341
240	0x3e20743d	0.15669341
241	0xbe38fbc3	-0.1806479
242	0xbe9c2451	-0.30496457
243	0xbf530513	-0.8242962
244	0x3f2c1fe4	0.6723616
245	0x3f2e2671	0.68027407
246	0x3ecac7aa	0.39605457
247	0x3f6176a0	0.8807163
248	0xbeee4601	-0.46537784
249	0xbc8df97e	-0.017330881
250	0xbf42b33e	-0.7605475
251	0xbe08906f	-0.13336347
252	0xbec04041	-0.37549022
253	0x3e05e768	0.13076556
254	0x3f19c02f	0.60058874
255	0xbe9ef6f2	-0.3104778
